NanoTrack/models/onnx/nanotrack_backbone.onnx (onnx, 768293 bytes, 72 tensors)

478 f4 [16, 3, 3, 3]
0	0x39ca8481	0.00038627165
1	0xbb3e2695	-0.0029014696
2	0xbb401996	-0.0029312125
3	0x39c69474	0.0003787611
4	0xbb5b3376	-0.003344742
5	0xbb7cf8a8	-0.003860036
6	0x3a6938b7	0.0008896696
7	0xbb511ca2	-0.0031907936
8	0xbba79c19	-0.005115044
9	0x3b13d8a7	0.0022559555
10	0xbb9cece6	-0.0047889827
11	0xbba8e676	-0.005154426
12	0x3ab1305c	0.001351844
13	0xbbe85eb8	-0.0070913695
14	0xbc01a361	-0.007912488
15	0x3b2c7fc0	0.0026321262
16	0xbbbe29b2	-0.0058033103
17	0xbc00f6c4	-0.0078713335
18	0x3a065d90	0.0005125636
19	0xbb0b13a9	-0.0021221435
20	0xbacd4403	-0.0015660528
21	0x39dfc61f	0.00042681486
22	0xbb2ab966	-0.0026050447
23	0xbb1c7548	-0.0023873616
24	0x3a5a23b2	0.0008321359
25	0xbafabed7	-0.0019130361
26	0xbb3f67a9	-0.0029206073
27	0x3ace6c1c	0.0015748772
28	0x3b59d5c4	0.0033238987
29	0x3b08990c	0.0020843176
30	0xbac25a44	-0.0014827927
31	0xbb530f71	-0.0032205249
32	0xbac7cad3	-0.0015242941
33	0xba269ea1	-0.0006356035
34	0xb98ce233	-0.00026871412
35	0xb981f199	-0.00024784802
36	0x3b80705c	0.0039196443
37	0x3bd8548c	0.0066018756
38	0x3b933954	0.004492918
39	0xbb72bdde	-0.003703944
40	0xbbcbf49f	-0.0062242295
41	0xbb6ab129	-0.0035811162
42	0xba29fb08	-0.0006484245
43	0xba03bd53	-0.0005025465
44	0x38b073a6	8.413875e-05
45	0x3a2c3903	0.00065697747
46	0x3ae8a1e0	0.0017748438
47	0x3a31ef9b	0.0006787718
48	0xba2d0931	-0.0006600796
49	0xbae6161a	-0.0017554194
50	0xb9e12f73	-0.00042950697
51	0xb9bd1bd0	-0.0003606961
52	0x390fdf93	0.0001372083
53	0xb9ed2bf1	-0.00045236901
54	0x3b3ede9b	0.0029124382
55	0x3c617e35	0.013763
56	0x3bab3892	0.0052252496
57	0xbd1bfa83	-0.038080703
58	0xbda54598	-0.080699146
59	0xbd209f37	-0.03921434
60	0x3d19884b	0.037483495
61	0x3d893008	0.06698614
62	0x3d0496bc	0.032370314
63	0x3c098241	0.008392871
64	0x3c456491	0.012047903
65	0x3c179c60	0.009253591
66	0xbd900b46	-0.070334
67	0xbe10e02d	-0.14148016
68	0xbd993b79	-0.07482047
69	0x3d9663cf	0.07343256
70	0x3dfd5ded	0.123714305
71	0x3d8f4c74	0.06997004
72	0x3b02251e	0.001985855
73	0x3c6bb1ba	0.014385635
74	0x3aa24c78	0.0012382409
75	0xbc8f8ae3	-0.017522281
76	0xbd1c819e	-0.03820955
77	0xbc9d6991	-0.019215377
78	0x3c395460	0.0113116205
79	0x3cf9a0b1	0.030472131
80	0x3bf37cd1	0.0074306508
81	0x3b0b2159	0.0021229594
82	0xbb1e35ee	-0.0024141031
83	0x38d6f334	0.00010249615
84	0x3b78f7d8	0.0037989523
85	0xbb8e37dc	-0.004340155
86	0x3a0cd07b	0.0005371642
87	0x3b066373	0.0020506054
88	0xbb0090f7	-0.0019617656
89	0x392422c9	0.00015653217
90	0x3b959342	0.0045646736
91	0xbb99c029	-0.0046920967
92	0xb92b696d	-0.00016347105
93	0x3be8119d	0.007082178
94	0xbbf6cd36	-0.0075317873
95	0x397f4f18	0.0002434816
96	0x3b8223be	0.003971546
97	0xbb6a2a54	-0.0035730796
98	0x39fdb7e2	0.00048392924
99	0x3a4464fd	0.0007491855
100	0xba62b743	-0.0008648524
101	0x391fcfb9	0.00015240804
102	0x3b0353b9	0.0020038916
103	0xbb0b8dce	-0.002129424
104	0x39b74b81	0.00034960735
105	0x3a1e7442	0.00060445454
106	0xba1c7007	-0.0005967621
107	0xb8e8e4f2	-0.000111052665
108	0xbc0b706e	-0.008510692
109	0xbc68172e	-0.014165683
110	0xbc580789	-0.01318539
111	0xbb18bf91	-0.0023307542
112	0xbbddfd79	-0.006774601
113	0xbbb4454d	-0.0055014254
114	0xbba380a9	-0.0049897027
115	0xbbfdc7dd	-0.007744773
116	0xbbc292fd	-0.0059379325
117	0x3aff9ce6	0.0019501715
118	0x3acc832d	0.0015603058
119	0x3b739b4a	0.0037171417
120	0xba59abbe	-0.00083034846
121	0xbb31289f	-0.0027032269
122	0xb802ac18	-3.115469e-05
123	0xba665c3d	-0.0008787548
124	0xbac63cde	-0.0015124341
125	0x3a148770	0.0005665934
126	0x3bcec479	0.0063100425
127	0x3c3f8caa	0.011691252
128	0x3c165cbe	0.009177385
129	0x3b6550a6	0.0034990697
130	0x3be98f25	0.00712766
131	0x3b8930dd	0.004186733
132	0x3b7ce7e3	0.0038590364
133	0x3bd2b63e	0.0064304164
134	0x3b341d37	0.0027483234
135	0xb6e64627	-6.862701e-06
136	0x3aae94a0	0.001331944
137	0x3ab733af	0.0013977195
138	0x3ac79741	0.0015227572
139	0x3b28ffbe	0.00257872
140	0x3aa1beb6	0.0012340161
141	0x3ae1a7ce	0.0017216147
142	0x3b206693	0.0024475201
143	0xb94d660f	-0.00019588343
144	0xbc1d6167	-0.009605742
145	0xbbfeac1a	-0.007771981
146	0xbbb69eb5	-0.0055731186
147	0xbc286a2d	-0.0102792205
148	0xbc067d38	-0.008208565
149	0xbbce38c0	-0.006293386
150	0xbc095113	-0.008381146
151	0xbbc63761	-0.006049082
152	0xbb9f3d32	-0.00485959
153	0x3c29e8a7	0.01037041
154	0x3bc5504c	0.006021535
155	0x3b9261cf	0.004467226
156	0x3c0adbb0	0.008475229
157	0x3bc14491	0.0058980663
158	0x3b98ffbe	0.0046691587
159	0x3ba88592	0.005142876
160	0x3b8b8d6d	0.0042588026
161	0x3b84dada	0.0040544095
162	0xbc01728c	-0.007900845
163	0x3b30c718	0.0026974138
164	0x3be80832	0.007081055
165	0x3ca2ef01	0.019889357
166	0xbae1b428	-0.0017219828
167	0xbccc16a8	-0.024913147
168	0x3d42d2aa	0.047564186
169	0x3bb8ba45	0.0056374394
170	0xbd545db5	-0.05184718
171	0xbc7b7be4	-0.015349362
172	0x3b575a33	0.003286016
173	0x3c802dd9	0.015646862
174	0x3d3bbb5e	0.045832984
175	0x3aaae0cb	0.0013036964
176	0xbd57de5f	-0.052702304
177	0x3db2d220	0.087314844
178	0x3c271606	0.010198122
179	0xbdc04acd	-0.09389267
180	0xbba50d4e	-0.0050369864
181	0x398cebb3	0.0002687849
182	0x3b9c8030	0.0047760233
183	0x3c07d33b	0.008290107
184	0xb985b634	-0.0002550349
185	0xbc280e42	-0.010257306
186	0x3c972d83	0.018454319
187	0x3b21faff	0.0024716256
188	0xbcafb95f	-0.021450697
189	0x3a75726a	0.00093630573
190	0xbafa4c2d	-0.0019096188
191	0x3a5af16b	0.0008352014
192	0x3b0a11d0	0.0021067746
193	0xbb6ced4f	-0.003615219
194	0x3ad2f0cd	0.0016093493
195	0x3a8c91b6	0.0010724578
196	0xbb0e3057	-0.0021696293
197	0x3a3b01f5	0.00071337755
198	0x3addefae	0.0016932392
199	0xbb6f7688	-0.0036539156
200	0x3b0a6f56	0.002112349
201	0x3b3a8df5	0.002846596
202	0xbbc71a47	-0.0060761306
203	0x3b33dd11	0.0027444998
204	0x3addb8c3	0.0016916025
205	0xbb539e53	-0.0032290414
206	0x3a93f04b	0.0011286823
207	0x3951c34f	0.00020004551
208	0xba57a793	-0.00082265696
209	0x39f0d0b3	0.0004593186
210	0x3a60daaa	0.00085775054
211	0xbace4182	-0.0015736076
212	0x3a80c493	0.0009824209
213	0x398acadc	0.00026472553
214	0xba08153a	-0.0005191151
215	0x37cb3881	2.4225797e-05
216	0x3c518a1b	0.012789275
217	0xbc31b68b	-0.010846744
218	0xbbbede62	-0.00582485
219	0x3c0c493b	0.008562381
220	0xbc8a772c	-0.016902529
221	0xbc616537	-0.013757042
222	0x3c20582a	0.009786645
223	0xbc4dd642	-0.01256329
224	0xbc2d992f	-0.010595604
225	0x3c02e847	0.00798995
226	0xbcbcd559	-0.02305095
227	0xbcf3b839	-0.02975093
228	0x3c6238a4	0.0138074495
229	0xbc839c91	-0.016065868
230	0xbcb84e4b	-0.02249827
231	0x3bcb95ee	0.0062129414
232	0xbc77884b	-0.015108178
233	0xbc82de76	-0.015975218
234	0x3bc4dbcf	0.0060076485
235	0xbc1b8149	-0.009491273
236	0xbc37e350	-0.011223629
237	0x3be24968	0.0069057234
238	0xbbfb7060	-0.0076733083
239	0xbc631552	-0.013860064
240	0x3bc7c46b	0.006096413
241	0xbc2249d4	-0.009905297
242	0xbc7c95b4	-0.015416551
243	0xb963ccef	-0.0002172475
244	0xb9c185a9	-0.00036911413
245	0xb9c10d03	-0.00036821523
246	0xb9cd13ba	-0.00039115344
247	0xba0bbc8b	-0.0005330524
248	0xb9f50901	-0.0004673675
249	0x38f8e9c2	0.00011869102
250	0xb88c4ff2	-6.690611e-05
251	0x38ebbab3	0.00011240449
252	0xba67a7b3	-0.000883694
253	0xba775c48	-0.0009436053
254	0xba48d532	-0.0007661163
255	0xba531c4c	-0.0008053228

479 f4 [16]
0	0x41896e58	17.178879
1	0x402dd8a0	2.7163467
2	0x41a32621	20.393618
3	0x4029d395	2.653539
4	0x3fce77a4	1.6130261
5	0x400f7d68	2.2420292
6	0x41234c92	10.206194
7	0x403183e7	2.7736757
8	0x41bf6919	23.926317
9	0x40416789	3.0219443
10	0x408318db	4.096784
11	0x4021e1e2	2.5294118
12	0x409a3c9c	4.8198986
13	0x4103a6ae	8.228193
14	0x400c3f91	2.1913798
15	0x3feca3d4	1.8487496

481 f4 [16, 1, 3, 3]
0	0xbe940281	-0.2890816
1	0xbedc911d	-0.43079463
2	0xbd629f7d	-0.05532788
3	0xbd0f322f	-0.03495997
4	0xbd8f185b	-0.06987067
5	0xbd5200da	-0.051270343
6	0x3ea50fc3	0.32238588
7	0x3ef26284	0.47340786
8	0x3dc13e68	0.09435731
9	0xbeae32bb	-0.3402308
10	0x3f0463fe	0.51715076
11	0xbe3f98c5	-0.1871062
12	0xbd549b5b	-0.05190597
13	0x401cb440	2.4485016
14	0x3f9103c0	1.132927
15	0x3e6e0b4c	0.23246497
16	0xc0374079	-2.86331
17	0xbfac150e	-1.3443925
18	0x3b9c8daa	0.00477763
19	0xbe2675b1	-0.16255833
20	0xbd2c482a	-0.04206101
21	0x3c268ce0	0.010165423
22	0x3df9477c	0.12171838
23	0x3d749a99	0.05971775
24	0xbc29478f	-0.010332002
25	0x3cee8a86	0.029118787
26	0xbad02e11	-0.001588287
27	0xbd55a1db	-0.05215631
28	0x3ce9f14b	0.02855744
29	0x3d4cc9f1	0.049997274
30	0x3f1830e2	0.5944959
31	0x3f835594	1.0260491
32	0xbfd5fe32	-1.6718199
33	0x3e11ebb4	0.1425007
34	0x3efe244c	0.49637067
35	0xbf78928a	-0.970986
36	0xbde6da6a	-0.11272128
37	0xbef83c4f	-0.48483512
38	0x3bca5b7d	0.006175457
39	0xbbce257e	-0.0062910905
40	0x3e4ec473	0.20192127
41	0x3c6ef348	0.01458437
42	0x3dd6cf39	0.10488743
43	0x3f0604a8	0.52350855
44	0x3b5bebb2	0.0033557233
45	0xbde7a171	-0.113100894
46	0x3e081213	0.13288145
47	0x3e1dc55a	0.15407315
48	0xbe118cf4	-0.14213926
49	0x3d985ca7	0.07439547
50	0x3e28a263	0.16468196
51	0xbd8799ef	-0.066211574
52	0x3c369b33	0.011145401
53	0x3df2bc94	0.11852375
54	0x3abd1449	0.0014425601
55	0xbea283ab	-0.3174108
56	0xbd109bed	-0.035304952
57	0x3d1c3012	0.03813178
58	0x3e782237	0.24231802
59	0x3d960071	0.07324303
60	0xbca71337	-0.020394905
61	0x3dba1869	0.09086687
62	0xbce8c375	-0.028413514
63	0x3e882d35	0.2659699
64	0xbdd44a38	-0.103657186
65	0xb9f06943	-0.00045854793
66	0x4093f2cb	4.623388
67	0xc0a73566	-5.2252684
68	0xbd0e8646	-0.034796022
69	0x405244eb	3.2854564
70	0xc03ba6dd	-2.9320595
71	0x3d31d16c	0.04341261
72	0x3e9b3481	0.30313495
73	0x3f02c5a0	0.510828
74	0xbcab4eb2	-0.020911548
75	0xbd7323a7	-0.059360173
76	0xbd4515c6	-0.048116468
77	0xbb32e518	-0.0027297195
78	0xbe5541a2	-0.20825818
79	0xbe8173ab	-0.2528356
80	0xbd95c24f	-0.07312452
81	0x3e2361a6	0.15955219
82	0xbe199096	-0.14996561
83	0xbeae6b41	-0.34066203
84	0x408c75ea	4.389394
85	0xbd95188f	-0.07280075
86	0xc087d528	-4.24477
87	0x406d4c12	3.707768
88	0xbda1985f	-0.078903906
89	0xc04e5e62	-3.2245107
90	0x3e13c7b5	0.14431651
91	0x3e896766	0.268367
92	0xbc963b5b	-0.01833885
93	0x3a233c71	0.0006226963
94	0xbd4052b0	-0.046953857
95	0x3b569bb4	0.0032746615
96	0xbe3a76c6	-0.18209371
97	0xbeb0ee8a	-0.3455699
98	0x3c934ef6	0.017981987
99	0x3c0cb36d	0.0085877
100	0x3dc8eadc	0.09810421
101	0xbd0233e3	-0.031787764
102	0xbfb69908	-1.4265451
103	0x3f944b99	1.158557
104	0x3e9b1b83	0.30294427
105	0xbf3a5c9b	-0.72797555
106	0x3f1eda3a	0.6205174
107	0x3dd2aeea	0.102872685
108	0xbd2bb4d8	-0.041920513
109	0xbdeedff6	-0.11663811
110	0xbe293cfa	-0.16527167
111	0x3b35ecd6	0.0027759573
112	0xbf05fc21	-0.52337843
113	0xbd2946f2	-0.041327424
114	0x3ba682a4	0.0050814915
115	0xbeadf351	-0.33974698
116	0x3e2d1785	0.16903503
117	0x3d00ad80	0.031415462
118	0x3fcee547	1.616372
119	0x3f328a75	0.6974252
120	0xbdab38b5	-0.083604254
121	0xbfa9b52d	-1.3258415
122	0xbf3e33cb	-0.7429778
123	0x3d72af9f	0.059249517
124	0xbdf9bb52	-0.12193932
125	0x3c817ef9	0.015807616
126	0xbeba2f2b	-0.3636411
127	0xbf0f172d	-0.5589474
128	0xbcbaf03b	-0.022819629
129	0x3e126bbf	0.14298914
130	0x3dd7b512	0.10532583
131	0x3cdf5e69	0.027266698
132	0x3ed0d8ee	0.40790504
133	0x3f2a09bd	0.6642111
134	0x3cbc2e76	0.022971373
135	0x3fa6c028	1.3027391
136	0xbe067e0e	-0.13134024
137	0xbfa071b4	-1.25347
138	0x3ffe6b9e	1.9876592
139	0xbda586e0	-0.08082366
140	0xbfec245c	-1.8448596
141	0x3ec5fc58	0.38669086
142	0xbd88b756	-0.066755936
143	0xbebb547e	-0.365879

482 f4 [16]
0	0x3f90b966	1.1306579
1	0x3fabae65	1.3412596
2	0x3f2940dc	0.6611459
3	0x40222f49	2.534136
4	0x3d6b3cb8	0.057430953
5	0x401382f6	2.3048682
6	0x3fae42e4	1.3614163
7	0x3e808d3e	0.2510776
8	0xc0244c08	-2.5671406
9	0x3ebfd681	0.3746834
10	0x40c69f94	6.2069798
11	0x3f833dea	1.025327
12	0x40b9044a	5.7817736
13	0xbf94fea7	-1.1640214
14	0x3ff127db	1.8840288
15	0x3f294390	0.6611872

484 f4 [16, 16, 1, 1]
0	0xbfdb64db	-1.7140154
1	0xbea91745	-0.33025566
2	0xc01628c5	-2.3462384
3	0x4027591e	2.6148143
4	0xbf265fbf	-0.64989847
5	0x3fcf7548	1.6207666
6	0x3e4ddd19	0.20103873
7	0x4009bb7c	2.1520681
8	0xbfb5cc92	-1.4203055
9	0x3f3537f1	0.70788485
10	0xbf399261	-0.7248898
11	0xbf4010e8	-0.75025797
12	0xbecdd9a4	-0.4020511
13	0x3ba6246d	0.0050702603
14	0x3f648229	0.8926111
15	0x3f1eeacc	0.6207702
16	0x3e87fc71	0.26559785
17	0xc001d4d0	-2.028614
18	0x3f3f2b10	0.74675083
19	0xbf9ce71a	-1.2258027
20	0x3f51e446	0.8198894
21	0x3d7f9e56	0.06240686
22	0xbf99f0e0	-1.2026634
23	0x3fc0c912	1.5061362
24	0xbe2742f4	-0.16334134
25	0xbf8a3f33	-1.0800537
26	0xbf109074	-0.5647042
27	0x403552cc	2.8331785
28	0xbdff93f7	-0.12479394
29	0x3f9ff445	1.249642
30	0xbd403ba5	-0.04693188
31	0xbfb0731e	-1.3785131
32	0x4008b12d	2.135814
33	0xbea6d185	-0.32581726
34	0xbf231d59	-0.63716656
35	0x3f7b6679	0.98203236
36	0xbfc6cc1f	-1.5531043
37	0x3d61e948	0.055154115
38	0x3fe42893	1.7824882
39	0xbf330f74	-0.69945455
40	0xbe00ed38	-0.12590492
41	0x3f043cfc	0.51655555
42	0xc095becb	-4.67954
43	0x3fbb40d7	1.4629163
44	0xbf050618	-0.51962423
45	0xbd38cb04	-0.045115486
46	0x3e6fa573	0.23402958
47	0x3ed4a981	0.4153557
48	0xc014c254	-2.3243608
49	0x3ebb4032	0.36572415
50	0x3eb3c21e	0.35109037
51	0xbf5830c8	-0.84449434
52	0xc028a1a6	-2.6348662
53	0xbf46761d	-0.77523977
54	0xbfd38a2f	-1.6526545
55	0x3f5fbb09	0.8739477
56	0x3eefe131	0.46851495
57	0xbf683c9c	-0.9071748
58	0xc0540968	-3.313074
59	0xbf9f32d2	-1.2437384
60	0x3eee189e	0.46503156
61	0x3d4ef4ed	0.05052655
62	0xbfdc4988	-1.720994
63	0xbf2e3333	-0.68046874
64	0xc0743f0b	-3.8163478
65	0xbeff9020	-0.49914646
66	0x40455e3b	3.0838764
67	0x3f13211e	0.5747241
68	0x3f330c30	0.6994047
69	0xbdc39873	-0.09550562
70	0x404e01b4	3.218854
71	0xbf5b9608	-0.85775805
72	0xbe314bfa	-0.17314139
73	0xbeb1a020	-0.34692478
74	0xbe4de232	-0.20105818
75	0xbedba186	-0.4289667
76	0x3f88a773	1.0676101
77	0x3f88ccb7	1.0687474
78	0xbf9affc7	-1.2109307
79	0xbf1712b9	-0.59012944
80	0x3fd0bae3	1.6307033
81	0xbfe1c083	-1.7636875
82	0x3f94aeee	1.1615884
83	0x402390c7	2.5557115
84	0xbf5460da	-0.82960284
85	0xc02df1c5	-2.7178814
86	0x3f0ac171	0.5420142
87	0x3fd59f55	1.6689249
88	0x3f175dea	0.59127676
89	0x3e07925a	0.13239422
90	0x40236db4	2.5535707
91	0x3dc33eb9	0.09533448
92	0xbe11caf3	-0.14237575
93	0x3f3c4fc9	0.7355924
94	0xbfeefd71	-1.8671094
95	0x3faab070	1.3335094
96	0xbfa24452	-1.26771
97	0x3fa0f5ed	1.257505
98	0xc0107ba6	-2.257547
99	0x3f66d01c	0.901613
100	0xbef23a7c	-0.47310245
101	0xbfe274d1	-1.76919
102	0x3eb83022	0.35974222
103	0xbfa34ee9	-1.2758456
104	0xbea6fcf1	-0.32614854
105	0xbf625664	-0.8841307
106	0x3fbca749	1.4738551
107	0x401cbcd0	2.4490242
108	0xbd5fe53d	-0.054661978
109	0xbf2ecdb7	-0.68282646
110	0xbf5b18b4	-0.8558457
111	0xbfc3b9b8	-1.5291052
112	0x3edc1e56	0.42991894
113	0xbd504462	-0.050846465
114	0x3db25624	0.08707836
115	0xbf072a94	-0.52799344
116	0x3f12bc1d	0.5731829
117	0xc05dd3d0	-3.466053
118	0xbf236177	-0.63820595
119	0xbf390829	-0.72278076
120	0xbfb9d27f	-1.4517363
121	0x40268f1d	2.602485
122	0x3c0defaf	0.008663102
123	0xbf28729d	-0.65799886
124	0x3fd0b78b	1.6306013
125	0x3d9b491b	0.07582303
126	0x3d0dfa7b	0.034662705
127	0xbfa11cbd	-1.2586895
128	0xbff0657c	-1.878097
129	0xbf17e3b8	-0.59331846
130	0xbf9268a4	-1.1438184
131	0xbff07499	-1.8785583
132	0xbd8e4f5b	-0.069487296
133	0x3f8757a2	1.0573618
134	0xbee80165	-0.45313564
135	0xc002d62c	-2.044322
136	0x3f341e49	0.7035871
137	0x3ffc3885	1.9704748
138	0x3e4eb42c	0.20185918
139	0x3f9cf5ba	1.226249
140	0x3f910ca5	1.1331984
141	0x3ec861a7	0.39137003
142	0xbff13b88	-1.8846292
143	0x4012e814	2.295415
144	0x3f15e69c	0.58555007
145	0x3e87fbbe	0.26559252
146	0x40356969	2.8345587
147	0xbf01f15d	-0.50758916
148	0xc0037865	-2.0542233
149	0x3fb9e24f	1.4522189
150	0xbf8071be	-1.0034711
151	0x3f022376	0.5083536
152	0xbfea2b53	-1.8294472
153	0x3f81dd89	1.0145732
154	0x3e197ca6	0.14988956
155	0x403637f9	2.8471663
156	0xbf7c0b8c	-0.9845512
157	0x3d78f187	0.060777213
158	0x3fa20320	1.2657204
159	0x3f672290	0.90287113
160	0xbdc283f8	-0.09497827
161	0xc054b110	-3.323307
162	0xbf307021	-0.68921095
163	0xbd87cf45	-0.066313304
164	0xbd03c2ee	-0.03216832
165	0x3b2e0df3	0.0026558607
166	0x3dce17e6	0.10063152
167	0xbd4760c2	-0.04867626
168	0xbd8eab4a	-0.069662645
169	0x3d406c1b	0.046978097
170	0xbd0763bf	-0.03305411
171	0xbd721beb	-0.059108656
172	0xbdb40b87	-0.08791261
173	0xc0768ebf	-3.8524625
174	0xbc39d895	-0.011343141
175	0xbd0318f5	-0.032006223
176	0x40215e5c	2.5213842
177	0x3f0c3e9c	0.54783034
178	0x3d9f41f2	0.0777625
179	0x3eca850b	0.3955463
180	0x3f8795cf	1.0592593
181	0x3f5267c2	0.8218957
182	0xbeb41dac	-0.35178888
183	0x3e8727f6	0.26397675
184	0xbf9a5d97	-1.2059811
185	0x3cbb4c36	0.022863489
186	0x3d8a5fec	0.06756577
187	0xbe3803c6	-0.1797019
188	0xc00f511c	-2.2393255
189	0xbee386a4	-0.4443866
190	0xc08a48b5	-4.3213754
191	0xbe58eff7	-0.2118529
192	0x3f18cd96	0.596887
193	0xbcf93d45	-0.030424723
194	0xbe8862fd	-0.26638022
195	0x3f2e49e6	0.6808151
196	0xbed7f76b	-0.42180952
197	0x400667d5	2.1000874
198	0x3e4cf509	0.20015348
199	0x3e930343	0.28713426
200	0xbd832f61	-0.06405521
201	0x3fd1e9fb	1.639953
202	0x3ec02bb6	0.3753335
203	0xbe1bf74f	-0.1523106
204	0x40621f01	3.5331423
205	0xbcc0f15a	-0.023552585
206	0xbf376bb2	-0.71648705
207	0xc027781f	-2.6167066
208	0x3fa8815b	1.3164476
209	0xbf45ff8b	-0.7734305
210	0x3f7b3fff	0.98144525
211	0x3f9c2a74	1.2200456
212	0xbf2191f1	-0.63113314
213	0x3f629c52	0.88519776
214	0xbfda62ef	-1.7061442
215	0xc08567c7	-4.168918
216	0xbf3486b5	-0.70518047
217	0xbfc59a5d	-1.5437733
218	0xbe85b80b	-0.26116976
219	0xc049ce28	-3.1532078
220	0xbf10dc97	-0.56586593
221	0x3f4a3cf7	0.78999275
222	0x3f0ac6db	0.5420968
223	0xbf452efe	-0.7702483
224	0x3e4fcfdc	0.20294136
225	0x3e8f9723	0.28044996
226	0xbec77cc4	-0.38962376
227	0x3df87e20	0.121334314
228	0x3ec4f192	0.38465554
229	0xbea2866d	-0.31743184
230	0xbecb7014	-0.39733946
231	0x3e8f3f2c	0.27977884
232	0xbf302bbd	-0.6881674
233	0xc028fc9e	-2.6404185
234	0x3da7abb2	0.08187045
235	0x3ebc9c18	0.3683784
236	0x40688209	3.6329367
237	0xbebef1df	-0.37293908
238	0xbeaab8c8	-0.33344102
239	0x4018fa21	2.3902667
240	0xbff82ff8	-1.9389639
241	0x3efca2c6	0.49342936
242	0x3f9bab34	1.2161622
243	0x406cfd84	3.7029734
244	0x3fa53634	1.2907166
245	0x3ce0978d	0.027416015
246	0xc033f12a	-2.8115945
247	0x3f090618	0.53524923
248	0x3f86f5b3	1.0543731
249	0x3fa249aa	1.267873
250	0xbf8748cd	-1.0569092
251	0x3f91c471	1.1388074
252	0x3f84a8e2	1.0364039
253	0xbeb5572c	-0.3541807
254	0x3dd3bed4	0.10339132
255	0x3f0052f1	0.5012656

485 f4 [16]
0	0xbfe1f0df	-1.7651633
1	0x4064e869	3.5766852
2	0x41819c9a	16.201466
3	0x41e95729	29.167559
4	0xc051ae5f	-3.2762678
5	0xc105b356	-8.356283
6	0xbf34a496	-0.7056364
7	0x40e4d6be	7.1512136
8	0x3f9a62a4	1.2061353
9	0xc113fcfd	-9.249265
10	0x40428ba2	3.0397725
11	0x41117c9b	9.092921
12	0xc1527221	-13.1528635
13	0x407ff0f9	3.9990828
14	0xc09dc700	-4.930542
15	0x3f955993	1.1667961

487 f4 [72, 16, 1, 1]
0	0x3e154acc	0.14579314
1	0x3bff2af3	0.0077871024
2	0xbe1fe3fe	-0.15614316
3	0x3e257a43	0.1615992
4	0x3e63ee9f	0.22258995
5	0xbdf57a63	-0.11986234
6	0x3de1f9a2	0.11033942
7	0x3c6663ff	0.014061927
8	0x3df37f12	0.11889471
9	0xbc2bab72	-0.0104778875
10	0x3d3d6776	0.046241246
11	0xbe0727c6	-0.13198766
12	0xbd8d5c5e	-0.06902383
13	0xbda4a28c	-0.08038816
14	0x3c8ca39e	0.017167863
15	0x3dccf54b	0.100077234
16	0x3d2e286c	0.042519018
17	0xbc8d694e	-0.017262127
18	0x3bde2196	0.006778906
19	0xbba32aac	-0.004979452
20	0xbcfc20f0	-0.030777425
21	0x3bc8f16c	0.0061322954
22	0x3c1cf68c	0.009580266
23	0xbb723661	-0.0036958682
24	0x3c2f5702	0.010701897
25	0xbd054703	-0.032538425
26	0xbda75c37	-0.081718855
27	0xb9828e98	-0.00024901773
28	0x3b8a95c3	0.004229279
29	0xbc4aa167	-0.012367583
30	0xbbd958a1	-0.00663288
31	0x3abcc080	0.0014400631
32	0xbc901eee	-0.017592873
33	0xbbce95dd	-0.006304486
34	0xbcc11dfe	-0.023573872
35	0x3c9a1d87	0.018812908
36	0xbb5f0e64	-0.0034035677
37	0xbd00f62d	-0.03148477
38	0xbce01461	-0.027353467
39	0x3d7e36ab	0.062063854
40	0xb9ecda50	-0.00045176083
41	0xbc98bb87	-0.018644108
42	0x3b956bed	0.004559985
43	0xba896507	-0.0010482379
44	0x3d9bc6c3	0.0760627
45	0xbc1afe8e	-0.009460105
46	0xbdddbace	-0.10826646
47	0xbc6d79b8	-0.014494352
48	0xbcc80967	-0.024418546
49	0xbdd75605	-0.10514454
50	0xbe3bb990	-0.18332505
51	0x3e3b5723	0.18294959
52	0x3cd91e05	0.026503572
53	0xbdb1db80	-0.086844444
54	0xbe01ab77	-0.12663065
55	0xbb24eaea	-0.0025164434
56	0xbe6567e1	-0.22402908
57	0xbe6a0bb8	-0.22856033
58	0x3cebce9d	0.028785044
59	0x3c9e7892	0.019344602
60	0x3c6b42c2	0.014359178
61	0x3e5352c3	0.2063704
62	0xbc82f3ca	-0.015985388
63	0xbe371557	-0.17879234
64	0xbedc2166	-0.4299423
65	0x3ea94a9a	0.3306473
66	0xbceb3fbb	-0.028716912
67	0x3cd21822	0.025646273
68	0xbd81371e	-0.06309341
69	0xbea2bc47	-0.3178427
70	0x3e12741b	0.14302103
71	0x3cd8e99f	0.026478587
72	0x3e8f4158	0.2797954
73	0x3e3efbf7	0.18650804
74	0x3d2c7a5c	0.04210888
75	0xbd712d60	-0.058881164
76	0xbd9d01e8	-0.07666379
77	0xbe2e9714	-0.17049819
78	0x3ba05b9e	0.004893734
79	0xbea652d1	-0.3248506
80	0x3cbdda5b	0.023175409
81	0x3b8d3ccc	0.004310226
82	0x3e2d7666	0.16939697
83	0x3e18257c	0.14858049
84	0x3b6535df	0.0034974737
85	0xbd2ff880	-0.042961597
86	0xbd1198b6	-0.035546027
87	0xbc815f3c	-0.015792482
88	0x3bf50ead	0.007478556
89	0x3cbac193	0.022797382
90	0xb8ea806b	-0.00011181909
91	0x3c71687e	0.014734386
92	0x3bcec6a9	0.006310303
93	0x3c2131d9	0.009838545
94	0xbbeed0ea	-0.007288088
95	0x3bb12213	0.0054056733
96	0xbccc34d0	-0.024927527
97	0x3dc5253f	0.09626245
98	0xbb3cb2f8	-0.0028793197
99	0x3c7ca685	0.015420561
100	0x3c9ea04e	0.019363549
101	0xbda3359e	-0.07969211
102	0x3e10ac05	0.1412812
103	0x3d562277	0.052278962
104	0xbe1fb8b1	-0.15597798
105	0xbcd7ad59	-0.026327776
106	0x3c7a013c	0.015259083
107	0x3d0f44b1	0.03497762
108	0x3ea66226	0.32496756
109	0x3d87b7b8	0.066268384
110	0xbe9f3210	-0.31092882
111	0x3ae287b5	0.0017282875
112	0xbda613af	-0.08109223
113	0xbda7a9b5	-0.08186666
114	0xbdc86dff	-0.09786605
115	0x3d756e55	0.059919674
116	0x3d16357c	0.0366721
117	0xbe1cf487	-0.15327655
118	0xbd6a1887	-0.057152297
119	0x3e829064	0.25500786
120	0x3d8362c4	0.064153224
121	0xbdf078a3	-0.1174176
122	0x3d9f7816	0.077865764
123	0xbc4c5742	-0.012471976
124	0x3e3a3765	0.18185194
125	0x3e3cb97e	0.18430135
126	0xbea205e6	-0.31645125
127	0xbe08fb53	-0.13377123
128	0x3c0cdcad	0.008597535
129	0x3c86ea37	0.016469104
130	0x3c94754a	0.018122334
131	0xbcddfb61	-0.027097406
132	0xbcdc5f2a	-0.026900847
133	0x3be7bbee	0.0070719635
134	0x3bfc9e30	0.007709287
135	0x3d0da073	0.034576844
136	0xbc3e27b5	-0.011606147
137	0x3c12a0f4	0.008949507
138	0x3c705a62	0.014669986
139	0x3cecd8a2	0.028911892
140	0x3d019268	0.031633765
141	0x3c039165	0.00803027
142	0xbd2e99a7	-0.042627003
143	0xbc4fdd90	-0.012687102
144	0xbd048244	-0.032350793
145	0xbc19d86a	-0.009389976
146	0xbd27cdd7	-0.04096779
147	0x3d54db18	0.051966757
148	0x3c3e58e0	0.011617869
149	0xbdb522b5	-0.088445105
150	0xbcab154a	-0.020884175
151	0x3dfd8ee3	0.12380769
152	0xbd29b767	-0.04143467
153	0xbc607c25	-0.013701473
154	0x3c171117	0.009220383
155	0x3d49e6e9	0.04929248
156	0x3e06cf53	0.13165025
157	0x3cb77fae	0.02239975
158	0xbe3ff454	-0.18745548
159	0xbd5698e4	-0.0523919
160	0xbd901084	-0.070344
161	0x3d98ac7b	0.07454773
162	0xbd9d4a4a	-0.07680185
163	0x3db265ca	0.08710821
164	0x3d872f76	0.06600849
165	0xbd985b43	-0.07439282
166	0x3d961ec9	0.073300906
167	0xbea3f3b8	-0.3202188
168	0xbdc7fbcf	-0.097648256
169	0xbdc997bb	-0.098433934
170	0x3d293b8b	0.04131655
171	0xbba6be4c	-0.005088603
172	0xbeba6e93	-0.36412486
173	0x3e916c67	0.28403017
174	0x3ef98373	0.487331
175	0xbe3edd8d	-0.18639202
176	0x3b37ceea	0.0028046914
177	0xb9b6fd96	-0.0003490268
178	0x3b94af48	0.0045374967
179	0xbc96a1b9	-0.018387662
180	0xbcb1dc36	-0.02171145
181	0x3c1b8f1f	0.009494572
182	0xb9d301a7	-0.00040246287
183	0xbca21371	-0.019784661
184	0xbca66335	-0.020310977
185	0x3cb0b010	0.021568328
186	0x3acb0f54	0.0015492239
187	0x3d3c9802	0.046043403
188	0xbd8efe85	-0.069821395
189	0x3ca8ae11	0.020590814
190	0x3c82950c	0.015940212
191	0xbcdc3696	-0.026881497
192	0x3dda6005	0.106628455
193	0x3c6e9310	0.01456143
194	0xbe0b1c29	-0.13584961
195	0x3e207305	0.15668876
196	0x3e18ef8b	0.14935128
197	0xbdc3d564	-0.095621854
198	0x3e07467a	0.13210478
199	0xbd90fa17	-0.07078951
200	0x3db57a92	0.08861269
201	0xbda0cfcb	-0.07852133
202	0x3dca6c58	0.09883946
203	0xbe266d8c	-0.16252726
204	0xbc4dcf58	-0.012561642
205	0xbd27f8e5	-0.04100885
206	0xbb7bdc00	-0.003843069
207	0x3db96a96	0.09053533
208	0xbe028334	-0.12745363
209	0xbd2f7d13	-0.04284389
210	0x3da9897d	0.08278177
211	0xbdbdb8a1	-0.09263731
212	0xbdb36823	-0.08760097
213	0x3c71fd7d	0.014769909
214	0xbd711693	-0.05885942
215	0x3c1a75e9	0.009427526
216	0xbdee0555	-0.11622111
217	0x3cd1390e	0.025539901
218	0xbdc6854b	-0.09693392
219	0x3dd55533	0.10416641
220	0x3cf2e754	0.029651321
221	0xbc0fc650	-0.008775309
222	0xbb20541a	-0.002446419
223	0xbc7c97bb	-0.015417035
224	0x3d75272f	0.05985182
225	0x3cda5943	0.026653891
226	0x3eb514fe	0.35367578
227	0x3ea7a99a	0.32746583
228	0x3d41981e	0.04726421
229	0xbdf71c2a	-0.12065919
230	0xbd5cf0b7	-0.0539405
231	0x3d98767e	0.074444756
232	0x3b117bb4	0.0022198977
233	0x3abe25f7	0.0014507164
234	0x3c7141c8	0.014725156
235	0x3d219db7	0.03945705
236	0x3c42e5ba	0.011895591
237	0x3c307a77	0.010771385
238	0x3d8aeb03	0.06783106
239	0x3cebd287	0.02878691
240	0x3e9eb5e4	0.30998147
241	0xbea34a55	-0.31892648
242	0xbd8ee2e6	-0.06976871
243	0x3d90577a	0.07047935
244	0x3d97e4f1	0.07416714
245	0x3e52e2ac	0.20594281
246	0xbe272042	-0.16320899
247	0xbbe6f4dc	-0.0070482325
248	0xbe989474	-0.2980076
249	0xbe806665	-0.2507812
250	0x3c87683a	0.016529191
251	0x3d407e3e	0.046995394
252	0x3d83afa2	0.06429984
253	0x3e8b927f	0.27260205
254	0xbcd1d7f8	-0.025615677
255	0x3e21edc0	0.1581335

488 f4 [72]
0	0x3f73472a	0.9503046
1	0x3fcea6e0	1.6144676
2	0x3ffd8655	1.980662
3	0xbf54278a	-0.8287283
4	0xbe955729	-0.2916806
5	0x3ffc67d0	1.9719181
6	0x3ec838e5	0.39105907
7	0xbf676e8b	-0.9040305
8	0x4005b8ab	2.0893962
9	0x3fba9abb	1.457847
10	0xbf34ec23	-0.70672816
11	0x401bf38b	2.4367397
12	0xbef4cdcc	-0.4781326
13	0x3f28377f	0.6570968
14	0x3f71da77	0.94473976
15	0xbeb8d9dc	-0.36103714
16	0x3ff28705	1.8947455
17	0x3fd53dea	1.665952
18	0x3e4a295e	0.19742343
19	0x3ffc86b5	1.9728609
20	0x3e97e6fe	0.2966842
21	0x3f9fc0d8	1.2480726
22	0x3fe97ba7	1.8240861
23	0xbf092118	-0.5356612
24	0x3fec684b	1.8469328
25	0x3f834ee7	1.0258454
26	0x3e9833cc	0.29727018
27	0xbf979b7c	-1.1844325
28	0xbe7dc742	-0.24783042
29	0x3ff6daa6	1.9285476
30	0x40026555	2.0374348
31	0x4010ce7b	2.2626026
32	0x3fe3915e	1.7778738
33	0x4010ffc6	2.2656112
34	0x4008cc86	2.1374831
35	0x40700774	3.750455
36	0x3f661339	0.8987308
37	0x3d1a8241	0.037721876
38	0x3ff037b0	1.8766994
39	0x40065f69	2.0995734
40	0x403e5f33	2.9745605
41	0x3f630fd3	0.8869602
42	0xbe8bb14a	-0.27283698
43	0x3fdc43da	1.7208207
44	0xbdd3b89c	-0.10337946
45	0x3fa89536	1.3170536
46	0x3f08d931	0.5345641
47	0x3f468ea8	0.77561426
48	0x3fbcb283	1.4741977
49	0x4029a87e	2.650909
50	0x3f4a6706	0.7906345
51	0x3f9178c6	1.1364982
52	0x3fe40f2a	1.7817128
53	0x400dced2	2.2157483
54	0xbf4847b6	-0.7823442
55	0x403d27c9	2.9555533
56	0xbfb066e3	-1.3781399
57	0x3f42638a	0.75933135
58	0xbea4d7cb	-0.32195887
59	0xbe12b446	-0.14326581
60	0xbfa40e3d	-1.2816845
61	0xbf3e3949	-0.7430616
62	0x3febbaa5	1.8416334
63	0x40009f0d	2.0097077
64	0x3f8dea6f	1.1087168
65	0x3fb6cf28	1.4281969
66	0x3ec73d2b	0.38913855
67	0xbe254453	-0.16139345
68	0xbfada192	-1.3564932
69	0x3f996a95	1.1985651
70	0x4026eeb4	2.6083193
71	0xbddf494d	-0.10902653

490 f4 [72, 1, 3, 3]
0	0xbdc8c77a	-0.09803672
1	0xbf0aa004	-0.54150414
2	0xbeca9107	-0.39563772
3	0xbe1bcec8	-0.152156
4	0xbf46c51d	-0.7764452
5	0xbf15eb94	-0.5856259
6	0xbdd8499e	-0.10560916
7	0xbec07885	-0.3759195
8	0xbe871920	-0.26386356
9	0xbfd9ca58	-1.7014875
10	0x40119a79	2.2750533
11	0xbef7f630	-0.48430014
12	0x40ab30b8	5.349697
13	0xc0ea54dc	-7.322859
14	0x3fe24b29	1.7679187
15	0xc063ef93	-3.5614974
16	0x409717a5	4.7216363
17	0xbfd6585a	-1.6745713
18	0xbf23af0e	-0.6393899
19	0x40327350	2.788288
20	0xc019473e	-2.3949733
21	0x3e3bc259	0.18335856
22	0x3e0d7586	0.13814363
23	0xbe8a8e34	-0.27061617
24	0x3ee058e7	0.43817827
25	0xc044193e	-3.0640407
26	0x40291d90	2.6424294
27	0xbe08bdf0	-0.13353705
28	0xbee863ae	-0.4538855
29	0xbf030170	-0.5117407
30	0xbe8e4686	-0.2778818
31	0xbf8d0631	-1.1017514
32	0xbf87765d	-1.0582997
33	0xbe47096b	-0.19437186
34	0xbf447765	-0.7674468
35	0xbf548182	-0.83010113
36	0xbd6830c2	-0.056687124
37	0xbe0e3fb2	-0.13891485
38	0xbe1128a4	-0.1417566
39	0xbddd25a2	-0.107981935
40	0xbedea8a6	-0.43488044
41	0xbe6d5dc8	-0.23180306
42	0xbdb7809b	-0.089600764
43	0xbe6be9f9	-0.23038472
44	0xbe695533	-0.22786407
45	0xbef45bed	-0.47726384
46	0x3ceb8fd6	0.02875511
47	0x3eb27250	0.3485284
48	0xbf8602a4	-1.0469556
49	0x410f8bfd	8.971677
50	0xc101eb9a	-8.12002
51	0x3f9cf86f	1.2263316
52	0xc09afe8e	-4.8435736
53	0x406af2e2	3.6710744
54	0x3f158efb	0.58421296
55	0xbde32e21	-0.11092783
56	0xbf2b11fa	-0.66824305
57	0x3f8865fb	1.0656122
58	0x3e83e851	0.2576318
59	0xbfb90c10	-1.4456806
60	0x3f1d8bff	0.6154174
61	0x3f028e66	0.5099853
62	0xbf7aca01	-0.97964483
63	0xbd9139f6	-0.07091133
64	0xbeb40d54	-0.3516642
65	0xbeaca726	-0.33721274
66	0xbe03e49c	-0.12880176
67	0xbf733fb7	-0.95019096
68	0xbf862233	-1.0479187
69	0xbd4ebb06	-0.05047133
70	0xbf1e09b5	-0.6173356
71	0xbf41ba2d	-0.75674707
72	0xbe3df79b	-0.18551485
73	0x3fd9f8a7	1.7029008
74	0xbfb97fa3	-1.4492077
75	0x3fcd2e3c	1.6029735
76	0xc0d58af8	-6.673214
77	0x40aa8a5c	5.3293896
78	0xbfc1b4d6	-1.5133312
79	0x40a3b0aa	5.1153154
80	0xc0747bec	-3.8200636
81	0xbe883720	-0.26604557
82	0x3f0fd717	0.56187576
83	0xbe95fbaf	-0.29293582
84	0xbf6c5fa0	-0.9233341
85	0x3ff89f5c	1.9423633
86	0xbf859b3d	-1.0438
87	0xbefd25ac	-0.49442804
88	0x3f99f218	1.2027006
89	0xbf34cfa4	-0.70629334
90	0x3d70ced4	0.058790997
91	0x3e195d5d	0.14977022
92	0x3e04d4e0	0.1297183
93	0x3db63957	0.088976555
94	0x3ee6a22b	0.450456
95	0x3ed9f72f	0.425714
96	0x3e01f069	0.12689365
97	0x3ebc1445	0.36734214
98	0x3eb12b24	0.34603226
99	0xbe5821dc	-0.21106666
100	0xbf945abf	-1.1590194
101	0x3fa0a21b	1.2549471
102	0xbf68cf7b	-0.9094159
103	0x40cf9217	6.486583
104	0xc0a4afbb	-5.1464515
105	0x3f5b78be	0.8573111
106	0xc09feb9d	-4.9975114
107	0x4062a5ef	3.5413778
108	0x3dc5703f	0.0964055
109	0x3ea45663	0.32097158
110	0x3e971504	0.2950822
111	0x3e958a3e	0.29207033
112	0x3f4d84e8	0.80280924
113	0x3f36811c	0.71290755
114	0x3e8b2db8	0.27183318
115	0x3f2ec9a9	0.6827646
116	0x3f1b8a2c	0.6075771
117	0x3d60d736	0.05489274
118	0x3e697766	0.22799453
119	0x3e4e2745	0.20132168
120	0x3dfb933e	0.122839436
121	0x3e82f3f9	0.2557676
122	0x3eaa5048	0.33264375
123	0xbe67323f	-0.22577761
124	0xbf641a0f	-0.8910226
125	0xbf402cbe	-0.7506827
126	0xbc9f9483	-0.019479996
127	0xbf674e01	-0.903534
128	0xbf5eaca6	-0.8698219
129	0xbec2c13a	-0.38038045
130	0xbf0aa980	-0.54164886
131	0x3eb730b2	0.3577934
132	0x3e468e9e	0.19390342
133	0x3f81200b	1.0087904
134	0x3f98c6b5	1.193564
135	0xbd90a35c	-0.07062408
136	0xbe7480ab	-0.23877208
137	0xbe095316	-0.13410601
138	0xbe5dc815	-0.21658356
139	0xbf044fa3	-0.51684016
140	0xbece7a74	-0.403278
141	0xbe0f2245	-0.13977917
142	0xbed42438	-0.41433883
143	0xbe810671	-0.25200227
144	0xbeb82487	-0.35965368
145	0x3eae5230	0.3404708
146	0x40046deb	2.0692089
147	0x3eaa2763	0.33233175
148	0xbf846c5a	-1.0345566
149	0xc08e23e7	-4.4418826
150	0xbe903334	-0.28164065
151	0x3f6f38c9	0.9344602
152	0x4019d7fd	2.4038079
153	0xbf8b151b	-1.0865816
154	0x3ec9b3ac	0.3939489
155	0x3f125b76	0.5717081
156	0x3f6fd456	0.93683374
157	0x3fddf3c0	1.7340012
158	0xbe55431e	-0.20826384
159	0x3e7d93fc	0.24763483
160	0xbf665704	-0.89976525
161	0xbfa49572	-1.2858107
162	0x3d949218	0.07254428
163	0x3e59219b	0.21204226
164	0x3da71ac3	0.08159401
165	0x3d1d94f9	0.03847215
166	0x3e7738b5	0.24142726
167	0x3e5e2cf4	0.21696836
168	0x3d72311e	0.059128873
169	0x3e29b510	0.16572976
170	0x3e867b09	0.26265743
171	0x3e50ae77	0.20379053
172	0x3f75a6ee	0.9595784
173	0xbf50b8b1	-0.81531817
174	0xc02e0fc4	-2.7197123
175	0x403240dc	2.7852087
176	0x3ec87f0e	0.39159435
177	0x40626fbf	3.5380704
178	0xc13737a4	-11.451084
179	0x40f5dd7e	7.6832876
180	0xbd287cb2	-0.041134544
181	0xbdb6e8dc	-0.08931133
182	0xbdd45311	-0.10367406
183	0xbd1a5e28	-0.03768745
184	0xbda9dd4e	-0.08294164
185	0xbe37bc45	-0.17942913
186	0xbdb72dc5	-0.08944277
187	0xbe421c23	-0.18956046
188	0xbe0e0976	-0.13870797
189	0xbd8f0667	-0.06983643
190	0xbdf1d0ce	-0.118074045
191	0x3e8d4a6a	0.27595836
192	0xbe13029a	-0.14356461
193	0xbf13f311	-0.57792765
194	0x3f6dcede	0.9289378
195	0xbdb40e6c	-0.08791813
196	0xbeccc569	-0.39994362
197	0x3f270d28	0.6525445
198	0x3e8b2932	0.27179867
199	0xc00b662a	-2.1781106
200	0x3ffec739	1.9904548
201	0xbf9202a6	-1.1407058
202	0x40c7d6cc	6.2449703
203	0xc0b2dd01	-5.589478
204	0x3f63ff31	0.89061266
205	0xc085f625	-4.186297
206	0x403411e7	2.8135927
207	0xba972a89	-0.0011533062
208	0x3cf183b8	0.029481754
209	0x3e21683e	0.15762421
210	0x3d1e592e	0.038659267
211	0x3e60be78	0.21947658
212	0x3ea13306	0.3148424
213	0x3ddde865	0.10835341
214	0x3ea8bacc	0.32955015
215	0x3e87b437	0.2650468
216	0x3eefcba7	0.46835062
217	0x3fc142af	1.5098475
218	0x3ec2779a	0.37981874
219	0x3f14fda5	0.5819953
220	0xbfcf846d	-1.6212288
221	0xbff1b150	-1.8882236
222	0xbf23a7e0	-0.6392803
223	0xbf00085b	-0.5001275
224	0x3fbc5eed	1.4716469
225	0xbd2bc0f3	-0.041932058
226	0xbdbbbbb1	-0.09166659
227	0xbd8b5364	-0.06803015
228	0xbdaad59e	-0.083415255
229	0xbe67a529	-0.22621597
230	0xbe44a556	-0.19203696
231	0xbd6173d6	-0.05504211
232	0xbe1ea0f8	-0.15491092
233	0xbdd3fec6	-0.103513286
234	0xbdad1250	-0.084507585
235	0xbe383af1	-0.17991234
236	0xbe2c061e	-0.16799209
237	0xbf0c0337	-0.54692405
238	0xbf373e1b	-0.7157914
239	0xbefe237a	-0.4963644
240	0xbed03b35	-0.4067017
241	0xbf09cffd	-0.5383299
242	0xbeab7700	-0.33489227
243	0x3df5b7b2	0.11997928
244	0x3e5f408e	0.2180197
245	0x3de6dc6d	0.11272512
246	0x3e69c217	0.22827946
247	0x3f0acc77	0.5421824
248	0x3ec8efe5	0.39245525
249	0x3e14d534	0.14534456
250	0x3ec2c896	0.3804366
251	0x3ec2fde2	0.38084322
252	0xbd251071	-0.040298883
253	0xbd9fdaef	-0.0780543
254	0xbd439d0d	-0.047757197
255	0xbd9a66d5	-0.07539145

491 f4 [72]
0	0x40c48663	6.1414046
1	0x3f723c90	0.9462366
2	0x3ea87f1a	0.3290947
3	0x40cd3499	6.4126706
4	0x40389385	2.8840039
5	0x3ed1a177	0.409435
6	0x3dfc6f10	0.12325871
7	0x40653fca	3.5820184
8	0xbe77246b	-0.24134986
9	0xbd8004d3	-0.0625092
10	0x3ede0e00	0.43370056
11	0x3f206b2b	0.62663525
12	0xbe6f2458	-0.23353708
13	0x4012b390	2.2922096
14	0xbdde4488	-0.10852915
15	0x40dc3772	6.881768
16	0x3d84d09c	0.064851016
17	0xbf6a3538	-0.91487455
18	0x3e030a58	0.12796915
19	0xbf8a4d4b	-1.0804838
20	0x40fb6365	7.855883
21	0xbf55568c	-0.83335185
22	0x3fbfe703	1.4992374
23	0x3e89c868	0.2691071
24	0x3ef1553e	0.47135347
25	0x412e5351	10.895341
26	0x40916284	4.543276
27	0x3f0098da	0.5023323
28	0x40d9cc84	6.8062153
29	0xbd7cdb04	-0.061732307
30	0x40ec0bb3	7.376428
31	0xbca7534c	-0.020425461
32	0x3f4efb47	0.8085217
33	0x3f7e241c	0.9927385
34	0xbfa241be	-1.2676313
35	0xc0512c67	-3.268335
36	0x3e885a14	0.26631224
37	0x40e58188	7.172062
38	0xbf828de3	-1.019955
39	0x3f08d3e8	0.53448343
40	0xbc34bfc0	-0.011032045
41	0x41010e07	8.065925
42	0x40c18705	6.047732
43	0xbdb5acc0	-0.0887084
44	0x4036895a	2.8521333
45	0xbf2ec7cf	-0.68273634
46	0x3ea48e68	0.32139897
47	0x3ed59e46	0.41722316
48	0x3ce42650	0.0278503
49	0x3e2c99e0	0.16855574
50	0x3e4c0c5c	0.1992659
51	0x4101b244	8.106022
52	0x3f158744	0.58409524
53	0xbf53d14d	-0.8274124
54	0x3f02e11e	0.5112475
55	0xbf35f252	-0.71072876
56	0x3e9773ac	0.29580438
57	0x3fa003d3	1.2501167
58	0x3f0f4601	0.5596619
59	0x4038a88d	2.8852875
60	0x40b87779	5.764584
61	0x40abac38	5.364773
62	0x3ede8f4c	0.43468702
63	0x3e49e5c0	0.19716549
64	0xbecc103f	-0.39856145
65	0x3e7829c3	0.24234681
66	0x3f9f4ad1	1.2444707
67	0x3e3176dc	0.17330498
68	0x4050cc60	3.262474
69	0x3c916cc0	0.017752051
70	0xc095fcf4	-4.687128
71	0x3f2420d6	0.64112604

493 f4 [24, 72, 1, 1]
0	0xbe3d73db	-0.18501227
1	0xbe83f55b	-0.2577313
2	0x3e3f297b	0.18668167
3	0x3e005ad9	0.12534656
4	0x3db43c5a	0.08800574
5	0x3e6da4db	0.23207419
6	0xbe28df63	-0.16491465
7	0x3e3d2b1b	0.18473475
8	0x3e311150	0.1729176
9	0x3e8560be	0.2605037
10	0xbe9fb5f4	-0.31193507
11	0x3e562043	0.20910744
12	0xbe8ec752	-0.27886444
13	0x3e871223	0.26381025
14	0x3e17d4e6	0.14827308
15	0xbea8b2c8	-0.329489
16	0xbcc0afa4	-0.023521252
17	0xbdfdf555	-0.12400309
18	0xbe2633cd	-0.16230698
19	0x3e726e11	0.236748
20	0xbd3c8209	-0.04602245
21	0x3eaed413	0.34146175
22	0xbe8d5773	-0.2760578
23	0x3de87f9f	0.11352467
24	0x3ca98bb1	0.020696493
25	0x3bc6d380	0.0060676932
26	0x3e80114b	0.25013193
27	0xbdc4cc49	-0.09609277
28	0xbd9792e1	-0.07401062
29	0x3e594cb9	0.21220674
30	0xbdfd2bc3	-0.123618625
31	0x3d41f5b0	0.047353446
32	0xbe5035c0	-0.20333004
33	0x3e14bc23	0.14524893
34	0x3ea92e63	0.33043203
35	0x3eb02e19	0.3441017
36	0x3f469cc0	0.7758293
37	0xbf20986c	-0.6273258
38	0x3ea2ac9a	0.3177231
39	0x3e24ba2b	0.16086642
40	0x3e7dcb96	0.24784693
41	0xbebcc40c	-0.36868322
42	0x3e507eb9	0.20360841
43	0x3ec7b8bc	0.3900813
44	0xbed236a4	-0.41057312
45	0xbdf273b0	-0.11838472
46	0x3d9557b1	0.072921164
47	0x3e5e22f5	0.21693023
48	0x3e6f60d3	0.2337678
49	0x3d80ee2c	0.06295428
50	0xbda91638	-0.08256191
51	0x3d393c11	0.0452233
52	0x3e93a29e	0.28835005
53	0x3df9092c	0.121599525
54	0x3d897b36	0.06712954
55	0x3e02eb4b	0.1278507
56	0x3f1ab010	0.604249
57	0x3c98ce46	0.018653046
58	0x3f23ee62	0.6403562
59	0xbe141285	-0.1446019
60	0xbea00c72	-0.31259495
61	0xbdd40bb5	-0.103537954
62	0xbd1dea2d	-0.038553406
63	0x3c899c32	0.016798113
64	0x3e3c2dcd	0.18376847
65	0x3eac6943	0.33674058
66	0xbe72fb36	-0.23728642
67	0x3e678828	0.22610533
68	0xbe851010	-0.25988817
69	0xbd0cd01b	-0.034378152
70	0x3db60790	0.08888161
71	0xbdc245f6	-0.09486
72	0xbdb1aca2	-0.08675505
73	0xbb990ef5	-0.0046709725
74	0xbd8578d7	-0.06517189
75	0x3d629589	0.05531839
76	0xbe320df4	-0.17388135
77	0x3defc34f	0.11707174
78	0xbe994904	-0.2993852
79	0xbe6ceffd	-0.23138423
80	0x3dd033b9	0.10166115
81	0xbe617a1c	-0.22019237
82	0xbd9f624f	-0.07782423
83	0x3dba4e75	0.09096996
84	0x3e7388e6	0.23782691
85	0x3da3bc58	0.07994908
86	0x3e6e49f7	0.23270403
87	0xbe08b382	-0.13349727
88	0x3de7163b	0.11283537
89	0xbd846045	-0.064636745
90	0xbe96d1e8	-0.2945702
91	0x3dc78763	0.0974262
92	0xbc1ede21	-0.009696514
93	0xbe83e881	-0.25763324
94	0xbb5927ba	-0.003313525
95	0x3cae6f62	0.021293346
96	0x3c8d681e	0.017261561
97	0xbf6b6d24	-0.9196341
98	0x3e405637	0.18782888
99	0x3e78ec00	0.24308777
100	0x3dc3a857	0.09553593
101	0x3cb190e9	0.021675544
102	0xbe0ee45c	-0.139543
103	0x3b449e0c	0.003000143
104	0x3d313439	0.043262694
105	0x3e029b43	0.1275454
106	0x3dc554f0	0.09635341
107	0xbd992cf5	-0.07479278
108	0xbcf5ea2a	-0.030018885
109	0x3e60c9df	0.21952008
110	0x3e5abc8a	0.21360984
111	0x3db367f8	0.08760065
112	0x3e1ef89b	0.15524523
113	0x3d10f06f	0.035385545
114	0xbe20d9d1	-0.1570809
115	0x3ecd7833	0.40130767
116	0x3e82ae23	0.2552348
117	0x3b5b8899	0.0033498167
118	0xbd86ca68	-0.06581575
119	0x3d3d6afb	0.046244603
120	0xbdc2b26b	-0.09506687
121	0x3e5bc13e	0.21460435
122	0x3d682b14	0.056681708
123	0xbeb29451	-0.3487878
124	0xbdef0a76	-0.11671917
125	0x3dd3808a	0.10327251
126	0x3e36e328	0.1786009
127	0xbe6a68c3	-0.22891526
128	0xbd9b7873	-0.07591333
129	0xbdc75c6e	-0.097344264
130	0xbdf248ee	-0.118303165
131	0x3d8da94e	0.06917058
132	0x3eaa6ed0	0.33287668
133	0xbd6a36f8	-0.05718133
134	0x3dcb474b	0.099257074
135	0x3c9d58bf	0.019207356
136	0xbe89d0d9	-0.2691715
137	0xbe636f42	-0.2221041
138	0xbd366990	-0.044534266
139	0x3deff0c4	0.11715844
140	0xbd064209	-0.03277782
141	0x3d46e6ac	0.04855983
142	0xbeb0f135	-0.34559026
143	0x3f0ea4d9	0.5572029
144	0xbed3e128	-0.41382718
145	0xbd800d55	-0.06252543
146	0xbd5b46d8	-0.05353436
147	0xbdc582e4	-0.09644106
148	0xbe4ed488	-0.20198262
149	0x3cfab08c	0.030601762
150	0xbbae1c6f	-0.005313448
151	0xbde1b360	-0.11020541
152	0xbd84c0f6	-0.06482117
153	0x3d6cb90b	0.05779366
154	0x3e7e33d0	0.24824452
155	0x3dfeff22	0.124510065
156	0xbeb88b3a	-0.3604372
157	0x3e61a9ce	0.22037432
158	0x3d9cae9c	0.076504916
159	0xbe31f3c3	-0.17378144
160	0xbd86a43c	-0.06574294
161	0x3e60adb7	0.21941267
162	0xbbc1fc49	-0.0059199673
163	0x3d0887e9	0.03333274
164	0x3e7ddd3b	0.24791424
165	0x3e305fc3	0.1722403
166	0xbd90596b	-0.07048305
167	0xbd215185	-0.039384384
168	0x3ebfaf08	0.37438226
169	0xbcfcb020	-0.030845702
170	0x3e174b16	0.14774737
171	0xbdc35cca	-0.095391825
172	0x3ea1f3d9	0.31631353
173	0xbccc6483	-0.024950271
174	0xbd8f7dd3	-0.07006421
175	0x3e7c13b8	0.24616897
176	0xbc750534	-0.014954854
177	0xbc774442	-0.0150919575
178	0x3d464808	0.048408538
179	0x3df4f321	0.11960436
180	0x3d084ac5	0.03327443
181	0xbdad70a3	-0.084687494
182	0x3ebe708a	0.37195235
183	0x3e103f33	0.14086609
184	0x3e9e63c9	0.30935505
185	0x3e00fc11	0.12596156
186	0xbe114b3a	-0.14188853
187	0xbdd7beca	-0.10534437
188	0x3eea5398	0.45766902
189	0x3e1ce6eb	0.15322463
190	0x3e563ce5	0.20921667
191	0x3e6b2b70	0.22965789
192	0x3db02973	0.08601656
193	0x3c7a42fd	0.01527476
194	0x3e6417f9	0.2227477
195	0x3e21b991	0.15793444
196	0x3ed304d9	0.41214636
197	0xbe060d3a	-0.13090983
198	0x3e3d26df	0.1847186
199	0xbeec0efa	-0.46105176
200	0x3e8b10b3	0.27161178
201	0x3e06ed9a	0.13176575
202	0x3c4b645c	0.012414064
203	0x3cf7e0fd	0.03025865
204	0x3d242f66	0.040084265
205	0xbcf09082	-0.029365782
206	0xbdbc7f11	-0.092039235
207	0x3dced93a	0.101000264
208	0x3de72a47	0.11287361
209	0x3e465a1a	0.19370309
210	0x3d176283	0.036959182
211	0xbddafb2b	-0.10692438
212	0x3cdc81cb	0.026917359
213	0x39679d55	0.00022088487
214	0xbd9a9a63	-0.07548978
215	0xbdc93e8e	-0.098263845
216	0x3ea5611b	0.32300648
217	0x3e11f09b	0.1425194
218	0xbcc51df0	-0.024062127
219	0xbd2df186	-0.042466663
220	0x3e427c51	0.18992735
221	0x3d086199	0.0332962
222	0xbeb82a97	-0.35969993
223	0xbe6ca78b	-0.23110788
224	0xbe3a053e	-0.18166062
225	0xbe157a7b	-0.14597504
226	0xbe4c2b14	-0.19938308
227	0x3dbbff5d	0.09179566
228	0x3e9b90d0	0.3038392
229	0x3e678a29	0.22611298
230	0x3cf0cbdc	0.029394083
231	0x3f10d3e9	0.5657335
232	0x3cae0b6a	0.021245677
233	0x3df9bccb	0.121942125
234	0x3e204edc	0.15655082
235	0xbc45a84a	-0.012064049
236	0xbe6df777	-0.23238932
237	0xbecc3d59	-0.39890555
238	0x3df64e74	0.120266825
239	0x3ecad2d6	0.3961398
240	0x3e3a1b15	0.18174393
241	0x3e2cd1cf	0.1687691
242	0xbebd90b4	-0.37024462
243	0xbeb8af65	-0.36071315
244	0x3e1fd2c5	0.15607746
245	0xbdb7ea09	-0.089801855
246	0x3d222725	0.039588112
247	0xbe061171	-0.13092591
248	0x3da86b2b	0.08223566
249	0x3bea6580	0.007153213
250	0xbe06780e	-0.13131735
251	0xbdf9f935	-0.122057356
252	0xbf02103c	-0.5080602
253	0x3e0168cd	0.12637635
254	0xbdadb072	-0.0848092
255	0x3e4b5d40	0.19859791

494 f4 [24]
0	0x3ff2ef7c	1.8979335
1	0x41088b29	8.533975
2	0xc0a94042	-5.289094
3	0xc0ab255f	-5.348312
4	0xc1778780	-15.470581
5	0xc0b6a284	-5.7073383
6	0x3c5a32b4	0.013317753
7	0x4089cb73	4.306085
8	0x407df725	3.9682095
9	0xbf778103	-0.9668123
10	0x40c1dbe7	6.0580935
11	0xbe7a9004	-0.24469
12	0xc0cced37	-6.403957
13	0xc0ecdf50	-7.40226
14	0xc08ee1a9	-4.4650464
15	0xc10fbd01	-8.983644
16	0x409f7e6d	4.984183
17	0xbf04dc0e	-0.51898277
18	0x40a2334a	5.068761
19	0x40b83a46	5.7571135
20	0xc1030b55	-8.190267
21	0x40bf65c4	5.9811726
22	0x40caf064	6.3418446
23	0xc0e9d943	-7.307771

496 f4 [88, 24, 1, 1]
0	0xbcb8d00f	-0.022560148
1	0xbd79d2a5	-0.060991902
2	0xbbea0623	-0.007141845
3	0x3ba731a6	0.005102354
4	0xbba17929	-0.0049277735
5	0x3c836285	0.016038189
6	0xbc7a6754	-0.015283424
7	0x3c1e8e39	0.009677463
8	0x399db45c	0.00030079752
9	0xbbfaee3c	-0.0076577943
10	0x3b00cb98	0.0019652601
11	0x39f2be34	0.0004629955
12	0xbb945c56	-0.004527609
13	0x3d20b1d0	0.039232075
14	0xbc987c4c	-0.018613957
15	0x3c835148	0.016029969
16	0x3904f9fd	0.00012681629
17	0x39343107	0.00017184402
18	0x3d150435	0.036380965
19	0xbd087822	-0.033317693
20	0xbc98de73	-0.01866076
21	0xbc0cdefd	-0.008598086
22	0xbd7eb389	-0.062182937
23	0x3c5bc434	0.013413478
24	0x3d2d65e6	0.042333506
25	0xbbd74eae	-0.0065706586
26	0x3d2f6a3e	0.04282593
27	0xbd42a47a	-0.04752014
28	0xbcff0bc4	-0.03113354
29	0x3b8804cf	0.004150964
30	0xbcba8bf3	-0.022771811
31	0x3c18694a	0.009302447
32	0xbdd54412	-0.10413374
33	0xbc0a579b	-0.008443738
34	0xbba3f22a	-0.0050032334
35	0x3c3c696e	0.011499746
36	0xbccae5c2	-0.02476776
37	0xbd460a04	-0.048349395
38	0x3d29d67d	0.041464318
39	0x3d12959a	0.035787202
40	0x3d07bb1a	0.03313742
41	0xbc8ee1e8	-0.017441705
42	0xbd4fa27a	-0.05069206
43	0x3c1e2989	0.009653457
44	0x3cef8549	0.02923836
45	0xbcf52181	-0.029923202
46	0x3da68479	0.08130736
47	0x3ae68107	0.001758606
48	0xbcb8960d	-0.022532487
49	0xbc8ae47a	-0.01695465
50	0xbbe0c3a3	-0.006859259
51	0xbc6c8399	-0.014435672
52	0xbc8d7fc1	-0.017272832
53	0x3be34544	0.0069357473
54	0xbc4669ca	-0.012110183
55	0x3c68e367	0.014214373
56	0xbc41a673	-0.01181947
57	0x3c81e423	0.015855854
58	0x3c428153	0.011871654
59	0xbd16a418	-0.036777586
60	0xbb88db91	-0.004176565
61	0xbcb48f16	-0.022040885
62	0xbd6aa1ed	-0.05728333
63	0x3b850475	0.004059369
64	0xba301d93	-0.0006718274
65	0x3c8a47ef	0.016880004
66	0x3d221de3	0.039579283
67	0x3c5f7b72	0.0136402715
68	0x3d55a889	0.05216268
69	0x3c2a6d05	0.010401969
70	0xbc4ca03a	-0.012489373
71	0x3e189fe9	0.14904751
72	0xbd2d168d	-0.042257834
73	0x3cf11236	0.029427629
74	0x3c0860df	0.008323877
75	0x3c9aa4c4	0.018877394
76	0xbb3d572f	-0.0028891077
77	0x3c0fde4d	0.008781028
78	0xbc29ad63	-0.01035628
79	0x3c03b169	0.008037903
80	0x3d648442	0.055790193
81	0xbc834b99	-0.016027259
82	0x3cca0532	0.02466068
83	0xbc19ebd7	-0.0093946075
84	0xbbcad894	-0.006190369
85	0x3cf844fc	0.030306332
86	0xbd13ec9e	-0.036114328
87	0xbc7a831f	-0.015290051
88	0xbc53106b	-0.012882332
89	0x3d10d07b	0.035355072
90	0x3d8a2641	0.067455776
91	0xbc851fb9	-0.016250478
92	0xbd450317	-0.04809865
93	0xbcd76323	-0.02629239
94	0xbccfa3ef	-0.025346724
95	0xbb97d65c	-0.004633708
96	0x3d70068b	0.05859999
97	0xbbbfe9f5	-0.0058567473
98	0xbcda4077	-0.026642067
99	0xbd2563db	-0.040378433
100	0xbc893f1c	-0.016753726
101	0xbc8ec720	-0.017428935
102	0x3a9b2818	0.001183751
103	0x3d55456e	0.052068166
104	0xbdcab710	-0.09898198
105	0x3d5682ca	0.052370824
106	0x3b923982	0.004462422
107	0xbbfd7fb4	-0.0077361707
108	0xbd1a9d68	-0.03774777
109	0xbd7f45a9	-0.062322292
110	0x3d498162	0.049195655
111	0xbd046fdf	-0.03233325
112	0x3d391d23	0.045193803
113	0x3d073e8d	0.033018637
114	0xbba14e00	-0.0049226284
115	0x3cc9200e	0.024551418
116	0xbcf80f79	-0.030280815
117	0x3d8e7758	0.06956357
118	0x3cf30181	0.029663803
119	0xbc43aeb7	-0.011943511
120	0xbccf03ff	-0.02527046
121	0xbda1f1c8	-0.07907444
122	0x3e62e333	0.22156982
123	0xbe0abddf	-0.13548993
124	0xbdbe42a5	-0.09290055
125	0xbcf0feec	-0.029418431
126	0x3d656ec2	0.05601383
127	0x3be96398	0.007122468
128	0xbd600724	-0.05469431
129	0x3c7695f4	0.0150504
130	0xbb95c995	-0.0045711496
131	0xbd81b303	-0.06332972
132	0x3daecaa8	0.08534747
133	0x3d818b76	0.06325428
134	0xbcc92d4d	-0.024557734
135	0xbe160e39	-0.14653863
136	0xbe69ae58	-0.22820413
137	0x3d875293	0.06607547
138	0x3e2be51e	0.1678662
139	0x3d663cbb	0.05621026
140	0xbdcaec49	-0.09908349
141	0x3de05e8c	0.109555334
142	0xbc0fe4ec	-0.008782607
143	0xbd909b7d	-0.07060907
144	0xbdaa30cb	-0.08310088
145	0xbcf622c6	-0.030045878
146	0x3dd2b0c8	0.102876246
147	0x3d159731	0.03652114
148	0x3cb4119a	0.02198105
149	0x3da9dd59	0.08294172
150	0xbd9991da	-0.07498522
151	0xbca7e16a	-0.020493228
152	0xbde3231a	-0.110906795
153	0xbdeb447f	-0.11487674
154	0x3ddb878c	0.10719213
155	0x3d181737	0.037131514
156	0x3cfc4bf5	0.030797938
157	0xbd8e373c	-0.06944129
158	0x3cc503e5	0.024049709
159	0x3d236d14	0.039898947
160	0x3e0c0c6c	0.13676614
161	0xb9ae6c97	-0.00033268772
162	0x3ddb1b91	0.10698617
163	0xbca0b630	-0.019618124
164	0xbdcb9b28	-0.09941703
165	0xbcec6fa9	-0.028861837
166	0x3d455d6b	0.048184793
167	0xbc98c313	-0.018647706
168	0x3dd4521d	0.10367224
169	0xbdba4011	-0.09094251
170	0x3d8020b2	0.06256236
171	0x3e2c7a3c	0.16843504
172	0x3cd23eee	0.025664773
173	0x3c483bf2	0.012221323
174	0xbe2a754e	-0.1664631
175	0xbdee5ae1	-0.116384275
176	0xbe01d9c1	-0.12680723
177	0xbd92afd5	-0.071624435
178	0x3de42790	0.111403584
179	0xbd3e73d2	-0.046497174
180	0xbd756295	-0.05990847
181	0x3e032844	0.12808329
182	0xbd287fcc	-0.0411375
183	0xbe0b7aa4	-0.13621002
184	0x3e407fca	0.18798748
185	0xbab28cc4	-0.0013622274
186	0xbe028e4a	-0.12749591
187	0xbd542ffb	-0.05180357
188	0xbd460070	-0.04834026
189	0x3c7cea29	0.0154366875
190	0x3e289849	0.16464342
191	0xbcf42c98	-0.02980642
192	0xbd8d822f	-0.06909596
193	0xbd899837	-0.06718486
194	0x3d979dda	0.07403155
195	0x3ca6f4e0	0.020380437
196	0x3ced43ac	0.028962933
197	0x3d1bf53f	0.03807568
198	0x3b28e5c0	0.0025771707
199	0xbd3626f5	-0.044470746
200	0xbdac1ab6	-0.08403532
201	0xbda84b27	-0.08217459
202	0x3d04285d	0.032265056
203	0xbc17abc6	-0.009257263
204	0x3c2ef7e8	0.010679223
205	0x3ce0ad90	0.027426511
206	0xbd93c2e0	-0.07214904
207	0x3d4f6005	0.05062868
208	0x3c04f93a	0.008116061
209	0xbe356348	-0.17713654
210	0x3d67dafc	0.056605324
211	0xbd69ddff	-0.057096478
212	0xbd88152d	-0.06644664
213	0x3c73595a	0.014852846
214	0xbc76855b	-0.015046443
215	0xbc8de9cf	-0.017323403
216	0xbb457cab	-0.0030134122
217	0x3d634093	0.055481505
218	0x3be4cb77	0.0069822627
219	0x3e0d20cc	0.13782042
220	0xbe9a8036	-0.30175942
221	0xbd328730	-0.043585956
222	0x3e1baa3a	0.15201655
223	0xbdf6b1b2	-0.120456114
224	0x3d394410	0.045230925
225	0xbd53453e	-0.051579706
226	0xbde6f263	-0.112767
227	0x3b44b4c9	0.0030014983
228	0xbe0870d0	-0.13324285
229	0xbd64a8e8	-0.055825144
230	0x3d127413	0.03575523
231	0xbc18af57	-0.009319148
232	0x3bb5c965	0.0055476897
233	0xbbea5d2d	-0.0071522207
234	0x3bc9c9b6	0.006158079
235	0x3ca33c43	0.019926196
236	0x3da75b97	0.08171766
237	0x3da8950f	0.08231556
238	0xbb6aff9b	-0.003585792
239	0x3c69c4f9	0.014268153
240	0xbd4fc5e9	-0.05072585
241	0xbd8abe1e	-0.06774543
242	0xbc6e2675	-0.014535536
243	0x3c6acefc	0.0143315755
244	0x3bb6af23	0.005575077
245	0x3c5d508f	0.013507976
246	0xbc446f70	-0.011989459
247	0x3c10d3e7	0.008839584
248	0xbd3b5b86	-0.04574158
249	0xbd178b55	-0.03699811
250	0xbcbfb4d0	-0.023401648
251	0xbcabc6a3	-0.02096874
252	0x3c06d0f1	0.008228526
253	0x3d60c1c3	0.054872286
254	0xbcfcc0dc	-0.030853681
255	0x3cb04a15	0.0215197
