NanoTrack/models/onnx/nanotrack_head_sim.onnx (onnx, 392202 bytes, 29 tensors)

130 f4 [128, 64, 1, 1]
00000000: e885 f73a 8f76 13ba 327c a0b9 c215 773a
00000010: e499 7cbb a70d 71ba d67a fb3a eb8c 513a
00000020: 0932 e8ba 50e5 0c3a 6c20 ebb9 121b f039
00000030: e458 85b9 2f7e 983a 5ded 63ba 9bdc 243a
00000040: 9f0a 2a3b 34f3 a43a 2aa0 bbb7 eb77 9fba
00000050: f75d 8dba bb6a 9d3a aec6 16ba ee22 013b
00000060: 0112 82ba acff 613b 0e48 17bb 72ee a0ba
00000070: 1ff8 3639 2195 013a 6c54 85ba 7353 52bb
00000080: 0450 253a 1784 c339 2df0 feb9 fa32 1c3a
00000090: 5d6e 0cbb 18c6 e9b9 d84e 8d3b 7a1f 22bb
000000a0: d4ec f4b8 82fe 593b e860 743a a3ec 5b3a
000000b0: a73a 0d3b bfb4 d73a 05f8 1dbb 439f 03bb
000000c0: 05aa 31bb ef68 953a 47b8 4e39 df39 7e3a
000000d0: ae8c 3ebb e1ab 44b8 ff0e 9f3a 6715 223a
000000e0: 4eb2 f73a 4256 a3ba fdf8 a1ba 3164 9839
000000f0: b603 9fbb ccd4 79ba 39d1 2539 851e 343b
00000100: 4850 c83a 36f5 ce39 e167 f139 9974 71ba
00000110: a80f 053a 5b1f 423a 8860 fd3a db28 e239
00000120: f158 19b9 24d2 25ba 1fec 09ba a8a3 49ba
00000130: 1bd6 bf3a a8dc 553a 9453 c739 62d5 f439
00000140: 44d7 19ba 7cf3 053a d5ae 8cba efd1 8fb9
00000150: bd1b c2b9 75e6 e4ba 3111 e1ba 86f9 4bbb
00000160: 9021 de3a 1c5f df39 75e4 c039 651b 5aba
00000170: 48f1 b0ba 1bfb 06bb 30d9 86ba fe5e c2ba
00000180: 2d8f deb8 9ef0 c5ba f51b c4ba 319d 3aba
00000190: 4e9f 85ba 4f62 52bb e7d3 1b3b 4d0d 14b7
000001a0: 2702 f1b9 8708 b039 d38e f93a 673e cc39
000001b0: c2df 703a 39c1 413b a908 8f3a 9ab7 ecb9
000001c0: 1b64 743a 3496 0fbb 8907 bbb8 64dc 45ba
000001d0: c4e8 9b3a 9c17 953a 3921 9db8 07bc 683a
000001e0: 6086 2a3b da1e c33a 4ec7 82b9 bf92 693a
000001f0: 6a6b 9ab9 beb7 07b8 50d8 36b8 f8a7 71ba
00000200: 478b 63b9 a5c3 eeba 2edd f6ba 7b74 ae3a
00000210: acfd b7ba a8b1 38bb 3ec8 bbba 67c4 d03a
00000220: 6627 9b3a 4f21 0cba 809c 373a e6bf b4ba
00000230: bfa3 2dba a05b 8a3a a6ac c6ba 0c0d 91ba
00000240: 588c 7bbb 0fb3 d3ba 53cd 1f39 bae7 b3ba
00000250: 5189 98b9 5f3f 2aba d776 5fbb ec6d d13a
00000260: d40d d63a b33f 0abb 79a8 613a 92fd 0f3b
00000270: 4746 04b9 54c2 20ba fd34 d539 15ab dc3a
00000280: 7ee5 65b9 1a39 263b 3ba5 7f3b 01cd 0eba
00000290: d512 04ba d5a1 09bb 3966 f13a f0d3 9c3a
000002a0: b71a 8b3a 8ba1 e0b8 16a3 e139 ecdd 8739
000002b0: ec10 b4ba e48c 6a39 3db1 073b 143c 283b
000002c0: a270 74ba 0e6e 2c3b 4225 c439 0e1c 93ba
000002d0: a636 223b ed22 87ba 4f4a 6839 bf99 04bb
000002e0: 77cb 5e3a d0fa 17b9 98bc 05bb 8f9b 9839
000002f0: 3065 39b9 73b9 bbba c383 17bb 71cd 0a3a
00000300: 5644 2eba 43ac 933a 6cea 1c3b 4011 6d3a
00000310: e25c a0ba a14b 66ba f3ee ad3a 1524 08ba
00000320: d719 2eba 47fb 97ba 65d9 ce3a a7f5 e5b9
00000330: 9b28 8739 3094 56ba 6f2a afba 3c4d e3b9
00000340: 774f ca39 abb3 64ba abbf d239 a8ae fab8
00000350: 83b3 c5ba 63c2 b6ba 5818 f6b9 74be 8a3a
00000360: 3f81 9239 ca6a 57ba 2a55 83b7 525c 0d3b
00000370: 790a b538 d419 b23a 9ab0 bbba d68f a5ba
00000380: 038b a8ba 4457 063b b744 243b 6aa3 99ba
00000390: 36f7 05bb f14c e83a 4a3c 8d3a 8e0e c23a
000003a0: d4b9 b939 fdff 03bb bfad d4b7 4363 c738
000003b0: 087c 72ba af00 f13a 565a 483a 0a4b 2f39
000003c0: 95ba 923a 14da 3e38 ac2d 123a fe82 383a
000003d0: 9812 ba3a 53ae 9c39 78b7 e5b9 e510 c53a
000003e0: 05c3 abb7 798c ffb8 a60c 5c3b 1d13 2b3a
000003f0: 9fd0 d7ba 7b86 5fba a0d6 beba 52df 21ba
0.0018884512 -0.00056252716 -0.0003061011 0.00094255444 -0.0038543874 -0.0009195455 0.0019186388 0.00079937157
-0.0017715107 0.00053747464 -0.0004484685 0.00045796536 -0.00025433965 0.0011634285 -0.00086947327 0.00062889763
0.0025946272 0.0012584687 -2.236672e-05 -0.0012166476 -0.001078545 0.0012009958 -0.00057516515 0.0019704658
-0.0009923578 0.0034484668 -0.002308372 -0.0012278093 0.00017449305 0.00049431814 -0.0010172254 -0.0032093197
0.0006306174 0.00037291713 -0.000486256 0.0005958524 -0.0021428086 -0.00044588814 0.0043123774 -0.0024738
-0.00011678939 0.003326327 0.00093223015 0.00083894486 0.0021549852 0.0016457065 -0.002410413 -0.002008394
-0.0027109396 0.001139907 0.0001971434 0.00096979545 -0.002907555 -4.6890116e-05 0.0012135206 0.0006182999
0.0018897743 -0.001246162 -0.001235753 0.00029066348 -0.0048527373 -0.00095303054 0.00015813568 0.0027484011
0.0015282715 0.00039474078 0.00046044498 -0.0009210795 0.00050758803 0.0007405185 0.0019331137 0.0004313652
-0.0001462435 -0.0006325564 -0.000526132 -0.0007691928 0.0014635952 0.00081581855 0.00038018508 0.0004669829
-0.0005868564 0.00051098294 -0.0010733256 -0.00027431498 -0.0003702323 -0.0017463701 -0.0017171261 -0.003112407
0.0016947258 0.00042604737 0.00036791308 -0.0008320122 -0.0013499642 -0.0020596448 -0.0010288116 -0.0014829335
-0.000106124535 -0.0015101617 -0.0014961945 -0.000711876 -0.0010194571 -0.0032102054 0.0023777427 -8.824584e-06
-0.00045968706 0.0003357569 0.0019039757 0.00038956405 0.0009188616 0.0029564633 0.0010912615 -0.00045150222
0.0009322778 -0.0021909596 -8.9182584e-05 -0.00075477944 0.0011894931 0.0011374834 -7.4925316e-05 0.0008878116
0.0026020035 0.0014886514 -0.00024944026 0.00089101115 -0.000294532 -3.235763e-05 -4.3593638e-05 -0.00092184497
-0.00021700292 -0.0018216266 -0.0018834227 0.001330986 -0.0014037392 -0.0028182063 -0.0014326645 0.0015927673
0.0011837303 -0.00053455395 0.00070042163 -0.00137901 -0.00066238263 0.0010555871 -0.0015157654 -0.001106651
-0.0038383212 -0.0016151386 0.00015239911 -0.0013725676 -0.00029094008 -0.00064944284 -0.0034097934 0.0015978194
0.0016331025 -0.0021095097 0.0008608173 0.0021971208 -0.00012614681 -0.0006132473 0.00040666005 0.0016835654
-0.00021924634 0.0025363625 0.0039008397 -0.0005447418 -0.00050382066 -0.0021001 0.0018417306 0.0011965018
0.001061282 -0.00010711242 0.00043036853 0.0002591455 -0.0013737953 0.00022368465 0.0020705007 0.0025670575
-0.0009324645 0.0026310715 0.00037411792 -0.0011223571 0.0024751811 -0.0010310091 0.00022152926 -0.0020233241
0.00084989466 -0.00014493917 -0.00204066 0.000291076 -0.0001768067 -0.0014322236 -0.0023119308 0.00052948954
-0.0006647756 0.0011266548 0.0023943437 0.0009043403 -0.0012234712 -0.00087850733 0.0013270065 -0.0005193365
-0.00066414237 -0.0011595272 0.0015781341 -0.0004386131 0.0002577946 -0.0008185534 -0.0013364087 -0.00043354358
0.00038587648 -0.00087242824 0.00040197125 -0.00011953461 -0.0015083406 -0.001394343 -0.00046938914 0.0010585324
0.00027943586 -0.0008217512 -1.5656075e-05 0.002156992 8.632703e-05 0.001358802 -0.0014319599 -0.0012631367
-0.0012858812 0.0020498792 0.0025065371 -0.0011721675 -0.0020441539 0.0017723126 0.0010775414 0.0014805363
0.00035424402 -0.0020141595 -2.5353276e-05 9.5075484e-05 -0.00092500495 0.0018387045 0.00076428556 0.00016717255
0.0011194522 4.550263e-05 0.00055762636 0.00070385623 0.0014196215 0.0002988452 -0.0004381498 0.0015034942
-2.0475602e-05 -0.000121855126 0.0033576875 0.00065259804 -0.0016465372 -0.0008526814 -0.0014559813 -0.000617494

131 f4 [128]
00000000: 8e8a c73d ef9f 39be a5e8 90bd 97d3 75be
00000010: 1032 4c3c b2c8 0a3d ee1f 57be 4e84 4e3e
00000020: e596 31be 5671 5a3d d9ed b1bd 64bb 99bc
00000030: 2e25 7bbe f44c a9bc 6b38 a63e a153 05be
00000040: c217 36be 08d6 00bb 2e72 90bd 5055 8fba
00000050: 1c3c ccbd af1b 333d 400b 4cbc d408 253c
00000060: 26d2 6c3e 55e1 5b3d 7a69 093e b245 213e
00000070: 7a84 0cbe 00b3 003f 0087 10ba a3cc 053e
00000080: 7f78 08bd 14cb d8bd 8f14 8abc 10c5 83bd
00000090: 5b12 b8bd 911a 893d da7a 4ebd 8c6e c2bc
000000a0: 6806 dcba 6eb3 84bd 1aa7 c5bd 4992 313d
000000b0: 00c3 f0bd b04b 713c b015 84be a991 853d
000000c0: 00e0 513d c74d 1b3e 3c4d 00be 03c4 c43d
000000d0: a67c 13be 4481 59be befa dabd c6ac ad3c
000000e0: 0011 653b 32a3 89bd 8e8f 36be d540 f73d
000000f0: ea9a fabc e642 6abe ee55 893c b033 bf3e
00000100: 1877 733d 80d3 8d3c 248e cb3d 9491 e33c
00000110: 8c28 063e 5506 54bc 4a36 6d3d abd5 393e
00000120: a02c 063e 68f3 59bd 9cd8 59bd ac3a 113d
00000130: ba7c e0bc b357 923e 804c a9bb 4d76 e0bd
00000140: 90cb 463e beeb e5bd 3e25 2bbd 97ae 1abb
00000150: 90d0 1fbb c66b 61bd 6ec9 803d bc18 aabd
00000160: 98e4 64bd ca2f d3bc 69ae 8d3d c645 dbbd
00000170: 5c8f 5dbc e4fd e6bc cca2 8e3e 8051 2abe
00000180: 5ea5 053e 0d19 24be 86f8 0d3e 48e0 a5bb
00000190: 946a 6ebd 5058 b7be 748e 093e 9f85 513d
000001a0: 3195 acbd 1ed8 45bd c22d 16bd 2b96 b0bd
000001b0: ff70 4ebd 9e39 4dbc 882a 613e a4e7 683c
000001c0: cc9b 7ebc 5501 803c 2eff 3ebe b9d3 acbc
000001d0: 207a 55bb b4dd c0bd 8836 383d ad7a 2b3e
000001e0: 6438 b53d b7db 84bd 0843 12be b0ff d63a
000001f0: b7a8 7e3e 80e8 f3ba fcd2 31be c8b6 ad3d
0.09743224 -0.18127416 -0.070756234 -0.24006496 0.012463108 0.033882804 -0.21008274 0.20167658
-0.17342718 0.05333074 -0.08687944 -0.018766113 -0.24525902 -0.020666577 0.32464918 -0.13020183
-0.177825 -0.0019658823 -0.07053028 -0.0010935459 -0.099724025 0.043727573 -0.012453854 0.010072906
0.2312704 0.05368169 0.13419142 0.15749243 -0.13722411 0.5027313 -0.00055132806 0.13066344
-0.03331804 -0.10585609 -0.016855506 -0.06434071 -0.08987876 0.0669452 -0.05041013 -0.023734353
-0.0016786577 -0.06479536 -0.09651013 0.0433524 -0.11755943 0.014727518 -0.25797796 0.06521923
0.051239014 0.15166388 -0.12529463 0.09607699 -0.14403018 -0.21240717 -0.106923565 0.021200549
0.003495276 -0.0672058 -0.178282 0.120729126 -0.030591447 -0.22877082 0.016764607 0.37344122
0.05943975 0.017312765 0.099392205 0.027779378 0.13101405 -0.012940963 0.057913102 0.18147914
0.1310296 -0.053210646 -0.05318509 0.035456344 -0.027403224 0.28582534 -0.00516659 -0.10960064
0.1941359 -0.11226605 -0.041783564 -0.0023602599 -0.0024385788 -0.05503442 0.0628842 -0.08305499
-0.055882066 -0.025779624 0.06918032 -0.107066676 -0.013522949 -0.028197236 0.2785858 -0.16632652
0.13051364 -0.16025181 0.13864335 -0.005062137 -0.05820711 -0.35809565 0.13433248 0.05115282
-0.084268935 -0.04830181 -0.03666473 -0.08622392 -0.05040073 -0.012525944 0.2198888 0.014215384
-0.015540075 0.015625635 -0.18652031 -0.021097051 -0.0032574013 -0.094172865 0.04497388 0.16746016
0.08848646 -0.0648722 -0.14283383 0.0016403105 0.24869047 -0.0018608719 -0.1736564 0.084821284

133 f4 [128, 128, 1, 1]
00000000: f2dd 413d 8e0f 57bd aad9 ba3c ccb6 2cbe
00000010: 14ed 6dbe 83e4 d2bb 59a0 09bd b041 b9bd
00000020: 51c8 a9be 796c 9a3e c2c9 d13d a3cd a6be
00000030: 8120 34be 06a4 cf3e aa40 fdbd d372 88be
00000040: a88f 1fbe dbfd 27be 52f4 573e aba3 c33c
00000050: 954c ed3e 5c66 ebbd 80d0 69be d0e4 713d
00000060: fe16 c3be d655 b93d 4bc5 0e3e be8d 123c
00000070: f555 0dbf 251e 23be 0d30 dabb b8c6 f0be
00000080: b38c 7f3e cb5c 23bc 05f7 80be 97a8 ab3e
00000090: 0d32 d23d 7340 343e e4c6 4dbe 16cd cb3e
000000a0: b6d4 bebe 95ac 883e 0cae 2a3e e0f3 5e3e
000000b0: d34b 203f ed0c 543e b3c5 433e bd6b 7e3d
000000c0: db52 08bc 6eac 973e 7a22 1cbe 10e7 84bd
000000d0: b6f3 b5be 20e8 8f3e 1c2d 573d efbe 183c
000000e0: 4fe5 9a3e 0514 2f3c 4811 9d3d c90c 50bd
000000f0: 6934 08be cf72 253f 2822 513e 7988 173c
00000100: 8227 a63d 2ed8 283f b3c0 b73e 29c7 dc3c
00000110: c063 cf3e 868d 2bbe a5ba 43bf 56b6 433e
00000120: c5fe f43d 6648 953e e709 903c 1de7 d7be
00000130: d82a 3e3e 204c 43bb 48cb 303e 2c47 e4bd
00000140: da39 fe3d 4f19 1dbf b009 35be 8830 813b
00000150: 7778 903e 1d13 b23e 1a67 ffbd 6ce3 01be
00000160: 3a38 48be cf08 14bf 4fbd 6c3e ac7c 853e
00000170: 2455 6c3e 1b16 ac3d 8aa4 57bc d4a1 62be
00000180: 6b43 8dbd 0089 0c3e faa4 493d 6208 ffbe
00000190: 627d b4bd 259b b83e 517e 913d c833 903e
000001a0: de7e ab3e 24f0 7c3d 4764 7d3e 13bd 06bf
000001b0: 67f7 31be cd3a a7bc bae1 093f 0ec8 663e
000001c0: a5a1 6f3d b9cb ca3e 9dd0 1abe 2d40 d3be
000001d0: 13e1 a4bb 0432 6dbe fb94 c0bd 3729 59be
000001e0: 45ac 4c3d 2403 e5bd fa46 8d3d e95f 14be
000001f0: e08f 8bbc e38f 44bc 5e60 273f 059c 28bf
00000200: f438 32be 6e64 ea3e 112c f13e 8411 6b3c
00000210: d6db b2bd 976b b4be 2e8d 1d3e d35f 9abe
00000220: 6399 b7bd 7985 00bb 07d3 843e d5e7 5e3e
00000230: 60fc f13d a82e 89be 9729 18be 7146 3cbe
00000240: 60de 3f3d 3589 7a3e 3b7f 10be ebca 43be
00000250: 7d8b e6be dcf6 89be b8d6 e4be dcb2 7abc
00000260: 3666 65be 6860 9a3d 8cb9 5f3d 6fef c5bd
00000270: ec8e 0dbe 4d43 8ebe a663 dd3e 777c 92be
00000280: 709f adbd 89fe 8dbe 2a66 abbe f737 20be
00000290: 2edd 5a3d ed70 c23d b344 8cbe e578 85bd
000002a0: f71e 153d eacf 983e 42f8 413e 0d12 cb3e
000002b0: 92b7 7f3e 00d6 4bbe 8e63 adbe 09ae 933b
000002c0: bf82 28be f277 0a3e 027c 05be 0de3 7c3e
000002d0: b653 efbd bbd0 483e 5eee 8abc f497 643d
000002e0: 00c9 d73e 973c 843d 768e a53e 6e7b fa3d
000002f0: e5f6 383b 8575 833e 2a93 a53d 61c0 98be
00000300: bc3c 8b3d 4a5c 0a3e ed6c 3fbe 876e 073e
00000310: fec4 97bd c10a e1bd ca61 d53e b809 dd3c
00000320: 5bdf 073e 5246 8fbe 77a4 11be 9392 45be
00000330: 757a 57be bad7 33be 397e c2bd 2d13 943e
00000340: 7ede ee3e 7785 babd bdd3 b7be 46a5 a9be
00000350: 9962 163e f635 9b3d fc8d cfbe c982 5ebc
00000360: 2f01 59be dfb1 07be 9d4e 99bd 6f48 193e
00000370: b0f2 9d3c 3495 5ebe 6892 9e3e cd49 9abd
00000380: 45f0 0ebe a4bb adbe ed6e f03d be9e 013d
00000390: 11da cc3c 14c2 f4be 2237 1cbe 49b3 17bc
000003a0: 071f af3d 268c 6cbe d351 993e 2c09 6d3d
000003b0: 8b40 2b3e 790b 483b 6364 1b3e b91c 7f3e
000003c0: b85a e4bc 8075 2d3e e6af 0cbd c3c2 2bbe
000003d0: 087f 08bd 5dd1 dbbb b911 c83d 3eac 4abe
000003e0: ba1f 693d f933 013d 94fa c0bb c14d e5be
000003f0: 0ef3 05be 0304 09be 4f2a 703e cbe7 813d
0.047330804 -0.05250507 0.022808868 -0.16866606 -0.2323497 -0.006435932 -0.033600185 -0.09045732
-0.33160642 0.30160883 0.102435604 -0.32578763 -0.17590524 0.40554827 -0.12365849 -0.26650104
-0.15582144 -0.16405432 0.21089295 0.023881754 0.4634749 -0.11494133 -0.22833443 0.059056103
-0.3810348 0.09049575 0.13942449 0.008944927 -0.55209285 -0.15929468 -0.00665856 -0.4702661
0.24956016 -0.009970854 -0.2518846 0.3352706 0.10263453 0.1760271 -0.20095402 0.39804906
-0.3727166 0.2669417 0.16667956 0.21772718 0.626157 0.20708056 0.19118385 0.062114466
-0.0083205355 0.2962374 -0.15247527 -0.06489384 -0.355375 0.28106785 0.052533254 0.009322866
0.30253074 0.010685925 0.07669312 -0.050793443 -0.13301243 0.6462831 0.20423186 0.009248846
0.08113004 0.65954864 0.35889205 0.026950436 0.4050579 -0.16753206 -0.7645667 0.19112524
0.11962656 0.29156798 0.017582847 -0.42168513 0.18571031 -0.0029800013 0.17265046 -0.111463875
0.12413378 -0.6136674 -0.17679477 0.003942553 0.28216907 0.34780207 -0.12470837 -0.12684411
-0.19552699 -0.5782594 0.2311909 0.2607168 0.23079354 0.08402654 -0.013161788 -0.22132045
-0.068976246 0.13724136 0.0492296 -0.49811083 -0.088129774 0.36055866 0.07104171 0.28164506
0.3349523 0.061752453 0.24745284 -0.52632254 -0.17379533 -0.02041378 0.53860056 0.22537252
0.058503766 0.39608553 -0.15118642 -0.412599 -0.0050317138 -0.2316361 -0.09403416 -0.21207128
0.049968977 -0.1118224 0.06898303 -0.14489712 -0.017036378 -0.011997196 0.6538142 -0.65863067
-0.17404538 0.45779747 0.47103932 0.014347438 -0.08733337 -0.35238335 0.15385887 -0.30151233
-0.08964803 -0.0019610806 0.2594225 0.21768124 0.11815715 -0.26793408 -0.14859615 -0.18386246
0.046842933 0.24466403 -0.14111035 -0.19120376 -0.45028296 -0.2694615 -0.44695067 -0.015301432
-0.22402272 0.07537919 0.05462031 -0.09664809 -0.13824052 -0.2778572 0.43240088 -0.28610584
-0.08477676 -0.27733257 -0.33476382 -0.15646349 0.05343359 0.09494195 -0.27396163 -0.065171994
0.036406484 0.29846126 0.18942359 0.3966221 0.2497237 -0.19905853 -0.33865017 0.0045068306
-0.16456126 0.13522318 -0.13035586 0.24695988 -0.116858885 0.19610874 -0.016959365 0.055808976
0.42145538 0.06456869 0.32335252 0.122305736 0.0028223332 0.25675598 0.0808471 -0.29834273
0.067986935 0.13511768 -0.18693896 0.13225757 -0.0741062 -0.10988379 0.4167617 0.026982173
0.13268797 -0.27983338 -0.14222895 -0.19294195 -0.21042807 -0.17562762 -0.09496731 0.2892088
0.46654123 -0.09107488 -0.3590373 -0.33133906 0.1468605 0.075786516 -0.40538013 -0.013580986
-0.21191858 -0.13251446 -0.074856974 0.14969037 0.019280761 -0.21736604 0.30971074 -0.07533608
-0.13958843 -0.3393222 0.117399074 0.03164553 0.025006326 -0.4780432 -0.15255406 -0.0092590535
0.0855084 -0.23100337 0.2994524 0.057870075 0.1672384 0.0030524416 0.15175013 0.249133
-0.02787529 0.16939354 -0.034347437 -0.16773514 -0.03332427 -0.0067083077 0.09769005 -0.19792268
0.056915022 0.031543706 -0.0058892462 -0.44785884 -0.13081 -0.13380437 0.2345364 0.06343039

134 f4 [128]
00000000: cfb5 7dbf 2e8a 4bbf 5eda f23e 5b1d 8b3e
00000010: 9540 803f 210e 8d3f 6a59 75bf d3f4 2fbe
00000020: e731 4d3f ef1a 263e ae70 35bd af68 643f
00000030: 977e 6e3e 898d ef3e 90b6 1a3f 0dd5 96be
00000040: a62b 8dbf 88bc 8d3f aec1 3d3e bd78 87bf
00000050: 6f81 65bf c078 393e 80f4 35bf 513c 90be
00000060: b80a 0fbd 984a 063f e68f 623f 2626 2e3f
00000070: c227 953b 1200 a4be 48b1 933f 70cc b8be
00000080: 0ad6 633e 48b6 463d 9b7d d53e f312 12bf
00000090: e0f5 acbe feea 17bf 7b0e fdbe 34bf 3d3f
000000a0: 5cae 983f 3b7b 41be 5004 fa3d f0cc d4be
000000b0: f0c1 f8bc 2e4f 643f 7602 e0bd 4f6b aebf
000000c0: 9ae6 913e e001 9d3c 3a88 8fbc c678 2f3d
000000d0: 549a 213e ddef 323f 4747 86bf 1483 77be
000000e0: 424c 8dbf f8c6 49bf b268 7d3f 7edc 43be
000000f0: 1aea f83e 7230 75bf 05d6 3e3f f6b6 f43e
00000100: 0ccc f53d ce4a c43d 0368 b7bd 4d2a 0bbe
00000110: e7b5 563e a053 25be 24ff 7ebf 3dec 373e
00000120: 892e 60bf 9424 09be 4d75 3fbf 5661 3c3f
00000130: d3f0 18bf 1a34 c8bd 1a88 40bf 5e06 863f
00000140: 2783 573e ff53 e33e 4a24 583f dd22 a3bf
00000150: 6778 c7be 558f f63d eff2 7dbd 6afc 153f
00000160: 4c97 a53f c8fe 503f 5b07 30bf 6856 54be
00000170: 8360 a6bf 85e8 873f 3012 17be 1a58 8c3e
00000180: fffb 8a3d 4f82 b8be 0e5e 203f d9f2 d7be
00000190: 50ae 553c 93ed ed3e 4cca ae3e 70fd 21bf
000001a0: 2b20 63bf f069 2d3e d118 153e 04c2 6bbf
000001b0: 1801 613f 8959 803f f8d2 8a3f 9606 77be
000001c0: 6d56 c23e 2a52 9c3f 40fb 92bf d674 083f
000001d0: 4813 84bf bd21 8b3f e246 9b3e a6af 833f
000001e0: 4a3d 50bf 2c37 353f 34cf d53e 6487 f0bc
000001f0: ce12 81bf e9e6 8fbf 5984 193f 36a5 d6bd
-0.9910554 -0.7950772 0.47432226 0.27170834 1.0019709 1.1019937 -0.9583956 -0.17183237
0.8015427 0.16221212 -0.044296913 0.89222234 0.23290478 0.4678767 0.6043482 -0.2945942
-1.1028945 1.107316 0.18530914 -1.0583721 -0.89650625 0.18112469 -0.710762 -0.28171018
-0.03492233 0.5245757 0.8850082 0.6802696 0.0045518586 -0.32031304 1.1538477 -0.36093473
0.22249618 0.04851368 0.41697392 -0.57060164 -0.33781338 -0.59342945 -0.4942511 0.7411988
1.192821 -0.18894665 0.12207854 -0.41562605 -0.030365914 0.8918332 -0.109379694 -1.3626498
0.28496248 0.019165933 -0.017521013 0.042839788 0.15781528 0.6989725 -1.0490502 -0.24171096
-1.1038897 -0.7881923 0.9898788 -0.1912708 0.48616105 -0.95777047 0.7454532 0.47795838
0.120018095 0.0958458 -0.089553855 -0.13590355 0.20967828 -0.16145182 -0.99608064 0.17961212
-0.87571007 -0.1339286 -0.7478836 0.7358602 -0.5974247 -0.097755626 -0.75207675 1.0470693
0.21046124 0.4440002 0.8443037 -1.2745014 -0.38959047 0.12039057 -0.061999258 0.5858828
1.2936797 0.81638765 -0.68761224 -0.20736086 -1.2998203 1.0617834 -0.14753032 0.27410966
0.06786346 -0.36036918 0.62643516 -0.42177466 0.013042048 0.46470317 0.34138715 -0.6327734
-0.8872096 0.16934943 0.14560248 -0.9209292 0.87892294 1.0027324 1.0845633 -0.24123606
0.37956563 1.2212574 -1.1482925 0.5330328 -1.0318384 1.0869671 0.30327517 1.0287979
-0.8134352 0.7078731 0.41759646 -0.029361434 -1.0083864 -1.1242343 0.5996757 -0.1048073

136 f4 [128, 128, 1, 1]
00000000: d9d2 88be 1c6f 22bf 8913 cfbd 5218 fe3e
00000010: 4e77 d43d 0f86 c3be 8bee ddbe 7414 873e
00000020: 9b00 023f 8731 783d 8c88 143f fd7a 123e
00000030: 2298 b2be f12f 453e 426b ae3e 60cc 443f
00000040: 18b6 3c3f 1473 303e 6295 923e d77f f2bd
00000050: 6a63 2bbe df6a 85bd a74b fcbe 3330 b3be
00000060: bfc5 e13e c372 db3d f716 013e f18e 473f
00000070: a1de 793d 9080 f9bd 9005 733e bd4e ce3e
00000080: 6818 72be 2ab0 3abd ef38 963d 4085 b23e
00000090: b142 96bd 7887 423f 655f 243e e894 6a3f
000000a0: e146 adbc c0f0 793c 5a35 c7bd 9dbf 273e
000000b0: 604b bd3d 6a5c 463e 5610 0c3f c695 b43e
000000c0: ac4a 2a3d 13c8 9a3c cc0c 623e 6970 ce3d
000000d0: fb65 f7be cb42 4cbe abcb 6cbc 4a5b 423f
000000e0: 2f20 483f c2ca a33d 4b32 1b3f cbf6 59be
000000f0: 4abf fc3d 3ca7 433d 4a63 7e3e 7d0b c3be
00000100: 8b5a a33e 6313 503e 63dd 68be 8db3 2bbe
00000110: 3312 f3be 1a4a 4d3d c40d 833e 3900 233f
00000120: bfe2 a93e cd37 84be e2f7 f2bd 34af 98be
00000130: de4a b0bc ca76 cbbe 9b88 9dbe 9dcb 833d
00000140: 460b 053f 2e44 7f3e 7a67 993d efea 2b3e
00000150: 213f 00be a3b1 cebc 2883 d43d 0fe5 da3e
00000160: a5fa da3d 3c64 0f3e 651e ff3b 2a48 a03d
00000170: f861 333e 76aa d6bc 7d4f 3cbd 4905 eebe
00000180: fe02 0cbf aab1 f1be 7292 11be e4a3 903e
00000190: e73f 193e caf7 1e3e 063e 203c 2bea 913e
000001a0: 54fa 86be fe70 8d3f 12bb cf3d 5165 ed3e
000001b0: d521 09bc dd59 edbd a3dd 6bbe 5775 b8bd
000001c0: f305 953e 116e dbbb ea16 8bbe 843b c83d
000001d0: cdac afbe e767 87be 3514 c8be b82c f53e
000001e0: 4d3a 4c3e 166f 20be 5f20 883e 4bc1 e83e
000001f0: 96aa 99be 77f7 373d 5a55 ccbe d98d bc3e
00000200: 4938 ea3d 1f60 cb3b 055e ce3d 66f7 9fbc
00000210: 028b 14be 3c5f 813c fdbc 5bbe cd65 ba3d
00000220: c1c8 b73d c129 fabd 845b aabd 6f3f f73c
00000230: 90b0 3b3b 18f1 44be d00e 8a3d fec0 713d
00000240: a97e 513d 438a 59bd 9c9c 8abd e8f6 a0bc
00000250: 2952 7bbc 690d e73d 47f3 1b3c 765b ea3d
00000260: 69a0 38bd 5d10 fbbb 06d3 e43d 3506 0bbc
00000270: afcc 0d3e dd92 41bb dfec d13d 8446 8e3d
00000280: 179e 593e b956 a93d 65eb c53d 457f f5bd
00000290: dbac 09bd 3b98 1e3e 0e1a 763d fc08 dbbc
000002a0: 08f0 2abd 8417 f23c bf0e 23be 441c c63d
000002b0: e86f 013d 9030 f7bc 7f48 163d 9611 5dbd
000002c0: 2bca d63d 02f1 a13d 989e dd3c 33fb 853c
000002d0: 12f3 d93b df1e cdbd 3283 ae3d 24ee 79bc
000002e0: f004 07be 2d47 0f3e cb72 23be d59c aabd
000002f0: 4a67 14be 1635 393d 68e2 213e 65bb 953d
00000300: 8cbb dcbd d629 d0bc 18a9 cbbb f91b 913c
00000310: caeb 3b3a cb43 11bd cc48 9abc 876f 50bd
00000320: d8c0 323d 5894 0c3d b16b 493d 06b2 0bbe
00000330: 78eb 1f3a 9f44 f43c 6087 83be 99af b53d
00000340: 2340 dbbd cd09 40bd a8dc afba d93b 443e
00000350: 037f b93d 0ece c0bd 9195 aabd e94f 06bd
00000360: 7840 fc3d aae1 1c3d 433a e2bc d71f 84bd
00000370: 3765 65be c49a 203d 7cc9 bebd 9413 afbc
00000380: f436 d2bc cc14 db3d d812 f23b 97b7 07bd
00000390: d2f1 0a3c f315 dc3c ed05 253d 1249 ac3a
000003a0: 491d 65be a671 48bc 1ce2 3cbd eb7e 74bd
000003b0: 6363 6a3d ee93 13bd 57c3 353d f603 9f3d
000003c0: d2d6 a2bd af84 03bd e74d 84bd 31ad fabc
000003d0: f13e ffba 7a07 89bd 0222 86bd a119 c839
000003e0: e790 963d 36b6 39bd f4e6 80bc 9699 3b3e
000003f0: 7122 023e a973 803c 5743 81bd b69e 0fbc
-0.26723364 -0.6345079 -0.10111148 0.4962793 0.10374318 -0.38188216 -0.43346056 0.26382792
0.50782174 0.060594108 0.58020854 0.14304729 -0.34881693 0.1925657 0.34066206 0.7687435
0.73715353 0.17231399 0.28629595 -0.1184079 -0.16737142 -0.06514525 -0.49276468 -0.3499771
0.4409618 0.107152484 0.12606417 0.77952486 0.06100333 -0.121827245 0.2373259 0.40294448
-0.23642123 -0.04557816 0.07335078 0.34867287 -0.07336939 0.7598796 0.16052015 0.9163346
-0.021151962 0.015255153 -0.09726973 0.16381688 0.09242892 0.1937119 0.54712427 0.35270518
0.04157512 0.018894231 0.22075194 0.10080034 -0.48319992 -0.19947354 -0.014452855 0.75920546
0.7817411 0.07997657 0.60623616 -0.2128555 0.12341173 0.04776691 0.24842563 -0.38094702
0.31905016 0.20319895 -0.22740702 -0.16767712 -0.47474822 0.050119497 0.2559644 0.63672215
0.33180806 -0.25823823 -0.11863686 -0.2982117 -0.021520074 -0.39739066 -0.30768284 0.064353205
0.51970327 0.24928352 0.0749044 0.16788839 -0.12524082 -0.025231188 0.103765786 0.42752883
0.10692338 0.1400308 0.0077856057 0.07826264 0.17517841 -0.026204329 -0.045974243 -0.46488407
-0.54692066 -0.4720586 -0.1421602 0.2825004 0.14965783 0.15524212 0.009780413 0.28498968
-0.2636286 1.1050107 0.10143103 0.4636636 -0.008369883 -0.11589406 -0.23033766 -0.09006756
0.291061 -0.0066964705 -0.2716592 0.09776977 -0.34311524 -0.2644646 -0.39077917 0.4788568
0.19944115 -0.15667376 0.26587197 0.4545997 -0.3001296 0.044913735 -0.39908868 0.3682697
0.11436517 0.006206527 0.100765266 -0.019527148 -0.14506152 0.015792482 -0.21458812 0.09101448
0.08973838 -0.12214995 -0.083182365 0.030181615 0.0028639175 -0.19232595 0.067411065 0.059021942
0.051146183 -0.053110372 -0.06768152 -0.019648984 -0.015339413 0.11281855 0.009518451 0.11443226
-0.045074854 -0.0076618628 0.11173062 -0.008485367 0.13847612 -0.0029537 0.10250258 0.069470435
0.21251713 0.08268494 0.096640386 -0.11987165 -0.033612113 0.15487759 0.06008344 -0.026737683
-0.041732818 0.029552229 -0.15923594 0.0967336 0.031600863 -0.030174524 0.03669023 -0.05397185
0.10487779 0.07907297 0.027053162 0.016355133 0.0066512907 -0.10015654 0.08521117 -0.015254531
-0.13185477 0.13991995 -0.15961759 -0.083306946 -0.14492527 0.045216642 0.15809023 0.07311133
-0.10777959 -0.025410574 -0.006215226 0.017713534 0.0007168619 -0.035465043 -0.01883354 -0.05088761
0.04364094 0.03432116 0.04917497 -0.1364213 0.0006100456 0.029817877 -0.2568922 0.08871383
-0.107055925 -0.046884347 -0.0013417201 0.19163455 0.09057429 -0.09414302 -0.08329309 -0.032791052
0.12316984 0.038301148 -0.027615672 -0.064513855 -0.22401892 0.039210096 -0.09315774 -0.02137164
-0.02566097 0.10697326 0.0073875003 -0.03313407 0.008480506 0.026865935 0.040288854 0.0013144335
-0.22374453 -0.012234127 -0.046114072 -0.05969135 0.05722369 -0.03602975 0.044375744 0.07764427
-0.0795113 -0.03210896 -0.06460171 -0.030600162 -0.0019473714 -0.06690879 -0.06549455 0.00038166068
0.07351857 -0.045339786 -0.015735127 0.18320307 0.12708451 0.015680151 -0.06311672 -0.008765867

137 f4 [128]
00000000: 2c86 e93e a631 1cbf e6df 40bc 4dac 01bf
00000010: a6de 0ebf f54c ce3e 746c 2abe 3023 d13f
00000020: 5cf7 7ebe a71f b33e 7cfd 5e3f 6cbc c8be
00000030: a890 fd3e 770d 25bf f4d9 b33e 17a4 05bf
00000040: 1972 e8be 6a11 8b3e 32ca 46bf b6b7 5dbf
00000050: 3242 373f 9e38 94be 9b48 a63e 1c96 2dbf
00000060: 11f8 debe 4ebb b63e 919a 70be 6150 cdbe
00000070: a1d9 ca3e 119f b1be 1b17 3abf 8bda 4fbf
00000080: 947b 2cbf cced 63be ac1a 0abf 43f9 143f
00000090: 059f fcbe 8bb6 4cbe 7a07 223e 4954 25be
000000a0: 2bed 16bf 8ed4 28bf 4ede 9fbf 43e6 17bd
000000b0: 78d8 7fbe d087 05bf 4bd7 01bd 6723 f0bd
000000c0: ef8a 0e3f 18fe 1a3c 4780 1abe 0520 713f
000000d0: e366 143f 89c3 24bf f4dd 9dbf 3f6d a3bf
000000e0: eedb 013f a82a 783f 5c7e d73f 0679 ecbe
000000f0: 7297 21bf e015 cf3f 0e90 aebd 7da4 573e
00000100: 6eb8 e53e c083 afbe 4113 97be f70f 163f
00000110: 3058 21bf ac97 e8be 9869 273f da21 893e
00000120: ab8d bd3e 22e3 27bd 1c46 e2be f2d3 a23e
00000130: e2e8 c03e f8d4 2cbf c1d2 b13f d475 aebe
00000140: c6a2 05bf 7e4e 873e 9643 4b3f 4c7e 8c3e
00000150: 85e0 b03e 64b8 383f e245 fcbd 09f7 f6be
00000160: c8e3 c93e 74d7 08bf 9f3a 3f3f df0a 343f
00000170: 1151 20bf 4733 123f 6e55 3cbf e428 f0be
00000180: 51be febe 092a 603f caed babe 2638 493e
00000190: f0fd 8dbe cb9f da3e 946d 223e 7caf 5dbf
000001a0: db17 e03e 7816 d5bc f04f 0fbf e7b0 1abf
000001b0: ca95 14be 273e a0be 00a4 f93e ef6a 1dbf
000001c0: 201d 02bf 631f 2fbf a9c6 06bf 5a77 0bbf
000001d0: 20c9 e23e 26fa e03e d35a bf3e a723 593e
000001e0: 16ab 0dbe e49a 23bf e264 debe be3a 91be
000001f0: feb5 09bf baae f8be 4e5e 29bf ac92 39bf
0.45610178 -0.6101326 -0.011772132 -0.50653535 -0.55808485 0.4029309 -0.16642934 1.6338863
-0.24899048 0.34985086 0.87105536 -0.39206254 0.49524426 -0.6447367 0.35127223 -0.52203506
-0.4539955 0.27161723 -0.77652276 -0.86608446 0.7158538 -0.28949445 0.3247727 -0.67807174
-0.43548635 0.35689777 -0.23496462 -0.40100387 0.39619163 -0.3469167 -0.72691506 -0.81192845
-0.67376065 -0.22258681 -0.5394695 0.58192843 -0.49340072 -0.1999151 0.15823165 -0.16145433
-0.5895564 -0.6594933 -1.2489717 -0.03708483 -0.2498492 -0.5216036 -0.03169946 -0.117255025
0.55680746 0.009459995 -0.15087996 0.9418948 0.5796949 -0.6436086 -1.233336 -1.2767714
0.5072621 0.9694009 1.6835437 -0.46186084 -0.6312171 1.6178551 -0.0852357 0.21058841
0.4486727 -0.34280205 -0.29506877 0.5861811 -0.6302519 -0.45428216 0.653955 0.2678364
0.37022147 -0.040988095 -0.44194114 0.31802326 0.37677675 -0.67512465 1.3892442 -0.3407427
-0.522015 0.26427072 0.794 0.27440107 0.34546295 0.7215636 -0.123180166 -0.48235348
0.39431596 -0.53453755 0.74698824 0.7032909 -0.626237 0.57109493 -0.73567855 -0.46906197
-0.49754575 0.8756414 -0.36509544 0.19650325 -0.277328 0.42700037 0.15862113 -0.8659589
0.437682 -0.02601169 -0.5598135 -0.6042618 -0.14510265 -0.31297418 0.48757935 -0.6149129
-0.5082569 -0.6840727 -0.5264688 -0.5447899 0.4429407 0.43940848 0.3737398 0.21205007
-0.13834795 -0.6390822 -0.43436342 -0.2836513 -0.53793323 -0.48570806 -0.6615952 -0.7248943

139 f4 [96, 64, 1, 1]
00000000: 8413 5a3b 9553 153a 19ef 5cba 4a10 1d3b
00000010: 2a26 f3b8 a2cf 45ba e892 a3ba 34aa 0e3b
00000020: 13fd 8bba ad17 5abb 5ef5 9eb9 905f 093b
00000030: 2753 0d3b 1486 44bb a342 8d3a 4eaf a639
00000040: b88a 8f3a b867 6ebb 7c31 98bb b756 6239
00000050: cc87 d739 71e8 a9ba 4160 873b 7bb1 a639
00000060: 9b0c 3fbb 8a9a bdba 10ca 88ba 686c 2abb
00000070: 68cf a6ba 087a caba 405f e739 c414 0bbb
00000080: 9454 413b 1277 033a 1221 2aba 8161 3dbb
00000090: 2dca 843b 816d 37bb 383f e7bb b64a b136
000000a0: 6451 01bb a96c 403a 078b 933a d31a 653b
000000b0: 3303 913b c096 deba 789a 64bb 8396 f5ba
000000c0: 1707 feb9 10e6 8bba ad73 f83a 5b71 9aba
000000d0: e699 c8ba ac9d a2b9 4b09 ae3b fe2d 823b
000000e0: 9ba8 8e39 1e5d a3ba 436f 4f3b 668e daba
000000f0: c646 273a a7b7 23bb 7748 97bb 9f49 2d3b
00000100: 067f 77bb 737d ab3a 9913 f2bb fde9 663a
00000110: ce7a 103b 6fac 9ebb 8052 74bb 56d1 e5ba
00000120: 51d8 3fba c799 8d3b a5ee b83a 21b5 853b
00000130: 24d8 86ba af21 8eba eb36 863b 5c8d 65b8
00000140: 81d6 493b 623e 153b 9a02 bb39 c2c1 fc39
00000150: ad91 0abc 1bbd 95ba 955f 8abb 0401 81ba
00000160: f2fe d4bb 0878 3bbc 26ee 183c 7933 8339
00000170: c49c 813a e91d 3ebb 3542 583c 1e76 253c
00000180: c304 b9ba 853e a83b 27fa d5ba 92ac fb3a
00000190: 6194 d93a c730 18bc 75e5 ca39 0e48 4cba
000001a0: b24b 403b e0c4 b1bb efd5 c13b 6df3 283b
000001b0: e6d2 633a 2c25 ba3a 950e 99bb 1cc9 9abb
000001c0: f793 4ebc cd23 243b 2482 94bb c9b5 f5bb
000001d0: 7f17 17bb 64b5 feba e7d0 043b 2999 8b3a
000001e0: 77e0 d93a ba2a 50bb 8410 31bb 51dd 04bb
000001f0: 8c6d 39bb 2db5 953b 9aa8 f73b 0ec7 9bb9
00000200: d484 0ebb dba0 06b9 3672 db3a 747d 3fbb
00000210: 64d2 d837 e0aa 643b de90 983a 6e28 6c3b
00000220: 1f06 313a 3261 06bb da18 073a 4478 273a
00000230: e89b 9bbb 6ca9 a73a 613c 51bb dffa 133a
00000240: fa46 6abb d6fc 813a 36eb e03a df87 1bba
00000250: ad8f 2fba 2a25 15bb ebe6 fcba bbe7 1b3a
00000260: aeb3 8ebb d3ba 2b3b 98c6 c4ba ac3b 083b
00000270: e16e 40ba c98c 293b d491 3e3b 8cbe 103b
00000280: ebd6 c338 7281 20bb 7b6b 6939 0383 4abb
00000290: 68b1 6abb 4eea b43a f87e a8ba 0f28 b13b
000002a0: c866 3dbb 16b0 c1bb 0618 a43a 41d6 d4ba
000002b0: 728a 243b 6e84 373b 7255 193a 2fbe bb3a
000002c0: 8975 05bb 9a21 babb 180c 553b f0a0 02bb
000002d0: 300f 943a d717 623b c5f2 52ba d0fa db3a
000002e0: feb0 a83a 1b20 81bb 2e2c 95bb 690d 3dbb
000002f0: 9a5d 82bb 0069 8e39 c1f6 01ba d766 20bb
00000300: 9f95 dcbb 8354 983a 206f 0ebb 6c2c b23b
00000310: e1a2 9a3a 8fe2 36bb ffea 00bb 7be8 5db8
00000320: 6bb8 c23a fb88 29bb 5143 83ba 40cf 913b
00000330: 2836 a3ba b22c 0fba a9ce 3bba 77d2 90b9
00000340: 3169 aa3a 1ac1 68bb 6214 09bb e072 c2bb
00000350: 6d79 e8ba 6256 73ba cf9e 343b 8bba ca3a
00000360: 166c 83b9 8ea0 49bb 901f 63bb 710a 963a
00000370: 3a4d ab39 a15d 54ba c763 743a cc50 efba
00000380: dbf4 083a 61cc fe3a 1374 87b8 ada5 0e3b
00000390: fc4b 22ba 134b a839 3986 fd3a c981 d3b9
000003a0: 836f 4fb9 cb7a c13a 5fc2 b837 c904 0d39
000003b0: 998d 363a 7054 35bb 5745 8d3a 8ce2 873b
000003c0: 7a53 f9ba b743 a2ba 3dcd 3b3a e48a e73a
000003d0: bbe3 fb39 d7a5 e2bb a3cc 8fba f027 0eba
000003e0: 9724 86bb c560 1ebb eea1 e73a 9664 8939
000003f0: 02c8 fc3a ac2c e93a 041d 9b3a 5ecc 59bb
0.0033275792 0.00056963536 -0.00084279623 0.0023966008 -0.000115942516 -0.00075458933 -0.0012479695 0.002176893
-0.001068028 -0.0033278272 -0.0003031892 0.00209615 0.0021564455 -0.0029987143 0.0010777306 0.000317926
0.0010951376 -0.003637774 -0.004644571 0.00021585343 0.00041109172 -0.001296295 0.0041313474 0.0003179422
-0.00291518 -0.0014465612 -0.0010436196 -0.0026004557 -0.0012726607 -0.0015447745 0.0004413072 -0.0021222094
0.0029499875 0.0005014996 -0.0006489913 -0.0028897228 0.0040524215 -0.0027988853 -0.007057097 5.2837086e-06
-0.001973235 0.00073404104 0.0011256643 0.0034958615 0.00442543 -0.0016982183 -0.003488211 -0.0018736873
-0.00048451938 -0.0010673422 0.0018955373 -0.001178305 -0.0015304654 -0.00031016523 0.0053111664 0.003972768
0.0002720997 -0.0012463664 0.003165201 -0.0016674518 0.00063810905 -0.0024981291 -0.004616793 0.0026441587
-0.003776492 0.0013083651 -0.00738759 0.00088086707 0.0022045854 -0.004842333 -0.003728062 -0.00175337
-0.00073183054 0.00432131 0.0014109208 0.00408043 -0.0010287804 -0.0010843779 0.004095902 -5.4729506e-05
0.003079802 0.0022772779 0.00035669358 0.00048209546 -0.008457583 -0.0011424156 -0.00422282 -0.0009842222
-0.0065001184 -0.011442192 0.009334123 0.00025024617 0.0009888639 -0.0029009527 0.013199379 0.010098962
-0.0014115799 0.005134406 -0.0016325162 0.001920121 0.0016600006 -0.009288973 0.000386994 -0.00077927194
0.0029341993 -0.0054250807 0.0059153954 0.0025779859 0.0008690789 0.0014201752 -0.0046709278 -0.004723681
-0.01260852 0.0025045753 -0.0045321155 -0.007498477 -0.0023054776 -0.0019432721 0.0020266117 0.0010650504
0.0016622682 -0.0031763748 -0.00270179 -0.0020273516 -0.0028294055 0.004568717 0.0075579407 -0.0002971221
-0.0021746652 -0.00012839159 0.0016742412 -0.0029219063 2.5847177e-05 0.0034891888 0.0011639853 0.003603484
0.0006752926 -0.002050471 0.00051535445 0.00063884654 -0.00474881 0.001279158 -0.0031926858 0.00056449877
-0.0035747872 0.000991727 0.0017159942 -0.0005933027 -0.00066971296 -0.0022757747 -0.0019294893 0.00059473113
-0.0043549156 0.0026203885 -0.0015012799 0.002078752 -0.0007340741 0.0025871268 0.002907862 0.002208623
9.338356e-05 -0.0024491218 0.00022260651 -0.0030900843 -0.0035811309 0.0013802738 -0.0012855222 0.0054063867
-0.0028900374 -0.0059108837 0.0012519367 -0.0016238169 0.0025106934 0.0028002518 0.0005849219 0.0014323647
-0.0020364246 -0.005680275 0.003250843 -0.0019932352 0.001129603 0.0034499073 -0.000804704 0.0016783122
0.0012870131 -0.003940595 -0.004552386 -0.0028847104 -0.0039784433 0.00027162582 -0.00049577287 -0.002447536
-0.0067317034 0.0011621866 -0.0021733716 0.0054374244 0.0011797809 -0.0027906036 -0.0019671319 -5.290702e-05
0.0014855986 -0.0025869 -0.0010014569 0.004449755 -0.0012452053 -0.0005461677 -0.00071642786 -0.0002762263
0.001300132 -0.0035515488 -0.002091669 -0.0059341043 -0.0017736383 -0.00092825864 0.0027560478 0.0015466971
-0.00025066797 -0.0030765864 -0.0034656264 0.0011447204 0.000326732 -0.000810111 0.00093227293 -0.0018258332
0.00052244746 0.0019439572 -6.458922e-05 0.002176623 -0.0006191132 0.00032099392 0.001934237 -0.00040341754
-0.000197826 0.0014761327 2.202502e-05 0.0001344859 0.0006963849 -0.0027668737 0.0010778111 0.0041468795
-0.001902207 -0.00123798 0.0007164067 0.0017665294 0.00048044123 -0.0069167423 -0.0010971021 -0.0005422821
-0.0040937173 -0.0024166566 0.001767216 0.0002620562 0.0019285681 0.0017789803 0.0011834209 -0.0033233385

140 f4 [96]
00000000: d66f bf3d 7ebd 883e 5057 8dbd 1075 9abb
00000010: aa9a eebd 86c7 213d 3fd2 07be 7295 923d
00000020: d4fa 5ebc 284b f73b 9230 ff3c aa97 d93d
00000030: 771d c3bc b002 c0bd bc9c 8abc e0ee 7abb
00000040: f638 8f3d 8dd5 e53d e06e debd 2f8e 15bd
00000050: d5ce ae3d 9473 253d 8737 53bc c2a5 f5bc
00000060: 2a53 0d3e a618 65bd 280d 01bd 3c23 06bc
00000070: 57bb 223e aa35 003e e026 46bc e87f 993c
00000080: 914f eb3d c02d 8f3d 4e83 21be dee8 65bd
00000090: ccd4 e93c eee3 21be 9349 c4bd 81d7 643c
000000a0: e3df 783d 7249 41bb 523c 0bbc f4be 4bbc
000000b0: d709 0ebd d7f8 023d 0f88 5dbe 2ebc 553e
000000c0: cb85 84bd 7929 233e 7940 a93d 9f6c 43bd
000000d0: e95f 763d 9a76 1a3e bf20 c43d 62b9 f0bc
000000e0: 1044 96bd 604b 9e3d 71be 6bbe e069 763d
000000f0: 2ad5 623c 23d6 273d 893f aa3c 9224 ed3c
00000100: ce26 1b3e 98a8 0dbe 7be7 1e3e 18d5 1bbe
00000110: 0c04 62bd 7bd2 ab3d 7bf9 0f3d f9d7 0b3e
00000120: c8b3 103d 4aa0 ba3c 5d5a 113e 090b 493d
00000130: b159 b23d 662b d53d e4c7 d4bc deea 1b3e
00000140: d0be 913d 212b 40bd fa97 7b3e 84b2 24be
00000150: 1cb5 b83d 3e74 6ebd b716 023e 70a5 903b
00000160: a472 c8bd 4b0e 923d a317 913d f99e c93d
00000170: d45a 22bd ba02 c3bd a73c 883d 0885 aa3c
0.09347503 0.2670707 -0.06901419 -0.004713662 -0.116505936 0.03949692 -0.13263796 0.07157411
-0.013609607 0.007546801 0.03115109 0.10624631 -0.02381776 -0.093755126 -0.01692044 -0.0038289353
0.06993286 0.11222372 -0.108609915 -0.03651255 0.08535544 0.040393427 -0.012891657 -0.029986266
0.13801256 -0.05593171 -0.031506687 -0.0081871115 0.15891777 0.12520471 -0.012094229 0.018737748
0.114897855 0.06991148 -0.15772745 -0.056130283 0.028543852 -0.15809605 -0.09584346 0.013967396
0.06076039 -0.002949324 -0.008498268 -0.0124356635 -0.034677353 0.031975593 -0.21633933 0.20872566
-0.064708315 0.1593379 0.0826425 -0.04771101 0.06015006 0.15084305 0.09576558 -0.029385272
-0.07337201 0.077292204 -0.23021866 0.060159564 0.013844768 0.0409757 0.020782249 0.028948102
0.15151522 -0.13833845 0.1551799 -0.15218008 -0.05517964 0.08389755 0.035150032 0.13656606
0.035327703 0.02278151 0.14194627 0.04908279 0.087085135 0.10408668 -0.025974222 0.15226313
0.07116473 -0.04691613 0.24569693 -0.16083723 0.09018919 -0.058216326 0.12703978 0.004414253
-0.09787491 0.071316324 0.070845865 0.09844775 -0.0396374 -0.095220044 0.066521935 0.020815387

142 f4 [96, 96, 1, 1]
00000000: ec68 32bf e6bf 8dbf db3d 0cbf e69e c0bd
00000010: e536 4dbf 9551 413e e478 32bd eaa2 a83e
00000020: 1235 213e eeb1 c5be d156 08be b65f 323d
00000030: 0885 8cbd 9285 153d d4c5 e2bd d727 083f
00000040: f7c8 143e d107 aa3e c764 3f3e 292f 10bf
00000050: e2b6 d2be 3898 313e 95ac f83d d6e9 e13d
00000060: c85a c43d 07f6 25be 7508 aebe ef70 643f
00000070: f7d3 02be b240 adbe d537 263c 4cda b3be
00000080: 37e0 683f 40ca 3b3f 01df 5e3e cac1 883e
00000090: 0ef9 c13d 2341 f5be 86d4 86bc 590d 043e
000000a0: 2605 ae3e 95b8 e5ba 1fe5 07be ce06 b13d
000000b0: 1716 913f 341b 103f a331 95bd 5f46 22bc
000000c0: cf38 c43e 659f 02be 1fb2 943c f908 253e
000000d0: 8a4b aebe f718 45bf e66a 0f3f 75c7 853e
000000e0: 4535 a83e 9d72 39bf 9cab d73e 53b1 353e
000000f0: 957c 26be 1135 c33d b4c4 2cbf f4ed 9cbe
00000100: 0e6c 143f a0a3 a5be 3313 af3e fcac 4f38
00000110: e846 863e a415 cbbe a20b 37bf c9f3 9b3e
00000120: 5963 6fbe bf8f 9f3e 049d 433f 423d 353f
00000130: da21 743e df26 a83e 4dd8 4bbf 4dab fe3e
00000140: f39a 583f d231 db3c 5b41 19bf 9d2a cf3e
00000150: f22d c8be 63ea dfbe 72af 3abf 74a2 bbbe
00000160: 72ec 88bd fd4a 98be de1f 8b3e 850a 52bd
00000170: e196 39be 3461 803e 3f52 00be 9d32 15be
00000180: f38d 253f c684 b53e 1b46 81bf dcc3 a03d
00000190: e65c 243f ce0a c5be 2698 80be d011 0e3e
000001a0: db51 17bf c8e6 07bf 81b4 35bf d385 503f
000001b0: 6e09 653f cc85 833e 0b90 163f 0f0e 65be
000001c0: 2882 f3bd 6a5f c1bf 6b55 e7be dafb 2cbf
000001d0: b809 afbe 5ea0 efbe aa47 53bd 59c3 81bf
000001e0: 526f c03e 9bc6 07be 87dd 753e 714c 64be
000001f0: 2612 f33e 8bd9 5d3f 4310 cdbd e761 2cbf
00000200: 7c7f 5bbf 908b 6bbe b9f3 97bf acae 783f
00000210: d674 42be acdd d8be 28c0 0b3f a072 2ebf
00000220: 8421 9bbf 6ea1 e63e 8abf a73e 1c4b 08bf
00000230: 4918 333f 36a0 c3be b4c0 803d a02e 1bbf
00000240: 7f11 ca3e 1757 e73d 30a6 5abe f7a6 4fbf
00000250: 69de db3d e642 073f 5b78 60be cf82 ef3e
00000260: 2a17 3ebe 442a c6bc b552 bbbf 6613 c93e
00000270: ab5c 79be 0247 19bf 21d7 95bf 88ab c33e
00000280: e455 f33e 6321 ccbe 0489 cd3e 7a3f 0ebf
00000290: 169a 0c3f 80e0 edbe c3a7 b9be a769 97bf
000002a0: b873 423d c8ec 823f 2c1e 1bbf 5782 3d3f
000002b0: 1d08 a5be b7d6 48bf 250c 873d 552a ae3e
000002c0: 00d8 80be 61e2 433f 5736 5e3e 1754 f5be
000002d0: 6c48 67bc 7d64 023e edbb 283f fa95 8dbf
000002e0: 1633 e73e 9650 44bf b5b1 613f 67aa 333e
000002f0: 284c 88be 943e 4d3a 0115 03bf 5cfd 123e
00000300: 7d5e 7bbd 77f7 c83e 95b6 50bf 2845 babe
00000310: b483 b33e f289 64bc d524 79be 2cd7 6f3d
00000320: 88b1 2abf 1489 3d3f 9767 18bd f137 20be
00000330: 457f 983e 691b 2a3e 8226 393f fe85 a5be
00000340: b0b8 70be 0deb 03bf 3fa2 9e3f c176 eebe
00000350: 6d0a 5bbe a28d d33e 3e3a a6bf e4b4 26bf
00000360: a170 cebe 02dc 8fbf 604d b23e fb83 80bd
00000370: bd10 bdbf 7c90 1c3f c369 40be 250d 373d
00000380: 70bd 83bf 1351 19bf b5ff 74bf 032f 34bf
00000390: 9c93 ff3e 13c6 58bd 1967 0ebf 6037 51bf
000003a0: 6a49 1e3d c4f1 aabf cd2b 453e 391b ad3e
000003b0: e458 c839 d5b7 c3bd c0ad 493f 66df 213e
000003c0: c944 03bf 047a 86bd 0e2d 623f 31f9 0e3e
000003d0: 6fc8 20bf 9654 9bbf 3ddf 62be a9d8 45bf
000003e0: 8928 213f 8201 89bf 9e18 22bf 4576 2abf
000003f0: 48d3 b33e d094 8bbe c2a8 bdbe 4ccd 923d
-0.6969135 -1.1074188 -0.54781884 -0.094053075 -0.8016189 0.18878777 -0.04357232 0.32936794
0.15742901 -0.38612312 -0.13314368 0.04354831 -0.06861311 0.036504336 -0.11072889 0.5318579
0.14529787 0.33209088 0.18690787 -0.5632196 -0.41155154 0.17343223 0.121422924 0.11030929
0.09587628 -0.16207133 -0.33990827 0.89234823 -0.1277617 -0.3383842 0.010145147 -0.35127485
0.90967125 0.73355484 0.21764757 0.2671035 0.094713315 -0.47901258 -0.016458761 0.12895717
0.33988303 -0.0017526323 -0.13270997 0.08643876 1.1334866 0.5629151 -0.07284858 -0.009904473
0.38324592 -0.12756117 0.018151341 0.16116704 -0.34042007 -0.7699122 0.5602249 0.26128736
0.3285314 -0.7244051 0.42123115 0.17743425 -0.16258462 0.09531606 -0.67487645 -0.30650294
0.5797738 -0.32351398 0.34194335 4.951375e-05 0.26225972 -0.39664948 -0.71502125 0.3045943
-0.23377742 0.31164357 0.7641146 0.70796597 0.23841038 0.32842156 -0.79626924 0.49740067
0.84611434 0.026757155 -0.5986535 0.404622 -0.39097553 -0.4373351 -0.7292396 -0.3664738
-0.06685723 -0.29744712 0.2717275 -0.051279563 -0.18123962 0.2507416 -0.12531374 -0.14570089
0.6466972 0.3545286 -1.009952 0.07849857 0.6420425 -0.38484806 -0.2511608 0.13873982
-0.59109277 -0.5308652 -0.7097855 0.814542 0.89467514 0.25688016 0.5881354 -0.22368644
-0.1189006 -1.5107243 -0.45182356 -0.67571795 -0.34187102 -0.46802038 -0.051582016 -1.013774
0.3758493 -0.13259356 0.24010287 -0.22294785 0.47474784 0.8666007 -0.10012867 -0.6733689
-0.857414 -0.23002458 -1.1871253 0.9714153 -0.18989882 -0.42356622 0.5459008 -0.68143654
-1.2119603 0.45045036 0.3276332 -0.5323961 0.6995893 -0.3820817 0.06286755 -0.6061802
0.39466473 0.11295908 -0.21352458 -0.81114143 0.10735781 0.52836454 -0.21920912 0.46779487
-0.18563524 -0.024190076 -1.4634615 0.39272612 -0.24351756 -0.59873974 -1.1706277 0.38216805
0.47526467 -0.39869222 0.40143597 -0.5556561 0.54922616 -0.46460342 -0.36260805 -1.1829118
0.04747364 1.022851 -0.60592914 0.7402701 -0.32232752 -0.7845263 0.06594113 0.34016672
-0.25164795 0.765173 0.21700417 -0.47915718 -0.014116388 0.12733646 0.6591175 -1.1061394
0.45156163 -0.76685464 0.88161784 0.17545472 -0.26620603 0.0007829454 -0.51203924 0.14354461
-0.061369408 0.392513 -0.815286 -0.36380887 0.3506142 -0.013948904 -0.24330457 0.058554813
-0.6667714 0.7403729 -0.037208166 -0.1564634 0.297846 0.16612019 0.72324383 -0.3232879
-0.23507953 -0.51530534 1.2393264 -0.46574977 -0.21390696 0.41318995 -1.2986524 -0.6511977
-0.40320304 -1.1239016 0.34824657 -0.06275173 -1.4770733 0.61157966 -0.18790345 0.04469027
-1.0292187 -0.59889334 -0.9570268 -0.70384234 0.49917305 -0.052923273 -0.55626065 -0.8172512
0.03864423 -1.3355031 0.1925499 0.33809832 0.000382132 -0.095565476 0.78780746 0.15807876
-0.5127683 -0.065662414 0.8835 0.13962246 -0.6280584 -1.2135189 -0.22155471 -0.7728372
0.62952477 -1.0703585 -0.6331881 -0.66586715 0.35122132 -0.27261972 -0.37042814 0.071680635

143 f4 [96]
00000000: 9210 253f 6c2d 8ebe df06 663e 54de f7bd
00000010: d8e7 9bbe a2c0 dabe 6851 313e 68d3 163f
00000020: 5919 9e3f 2684 c33e 63a6 773f 2a27 5d3f
00000030: 4735 d63d befe 873c a479 aebd 505b 243d
00000040: ec29 09bf b2c4 0c3f 4221 943e 5cc2 76be
00000050: 6d42 2cbd 448e 5bbe 3ba2 12bf 0383 40bf
00000060: d90f 003f 9e27 113f 2b44 0c3f 8d74 2abf
00000070: f131 0abf de44 d1bd 6e6d debe 91e4 db3e
00000080: 8e0b ae3e eb85 e1bd 3636 143e 5a15 0abf
00000090: 095e 333e 74cf 483f fc03 86bf 3ac4 343f
000000a0: 2d4d 5d3f cdb7 6f3f 9217 3a3f 2e1c 19be
000000b0: 1da9 fb3e 205c f23e b6c5 fa3e 3469 903d
000000c0: 8caf 97be c6c9 6cbf b824 713e 5c7f 0c3e
000000d0: 0f12 d53d 424e 523f c756 843f e68f 1f3e
000000e0: e219 443f b4b7 edbd 1413 16bf e79f da3e
000000f0: a359 ba3e 9ff2 6ebe 1e73 a53e 76f1 9cbd
00000100: 01f1 8d3d ed77 e8be 4260 843e 252a 58bf
00000110: 9d43 fdbd cf5d 39bf f57a af3e 9407 83be
00000120: d12a c83d f0cd 333d d162 63be 7e21 623e
00000130: 9b92 ad3f 2455 49bf a015 383f a88e 933e
00000140: 64c4 333f ddf3 9a3f 3c2f 4d3e fd0c 19bf
00000150: 3c46 f83e 92c9 4f3f ce83 f63e 5801 d2bc
00000160: 76ec 153f b596 103d ba0b 373f de8f 5c3f
00000170: b16e 6ebf 65c9 0d3f 84fc ed3d a25a d03e
0.6447841 -0.2776903 0.22463559 -0.121029526 -0.3045032 -0.42725092 0.1731621 0.5891633
1.2351485 0.3818676 0.9673826 0.86387885 0.104593806 0.016600963 -0.08519295 0.040126145
-0.5357959 0.54987633 0.28931624 -0.2409758 -0.042055536 -0.21440989 -0.57278794 -0.7519991
0.5002418 0.56701076 0.54791516 -0.6658409 -0.53982455 -0.102182135 -0.43442863 0.4294782
0.3399319 -0.11011871 0.14473805 -0.5393883 0.1751634 0.7844155 -1.0469966 0.7061192
0.86445886 0.9363983 0.72692215 -0.14952156 0.4915246 0.4733591 0.48978966 0.07051316
-0.2962612 -0.9249538 0.23549163 0.13720459 0.10403835 0.8215066 1.0338982 0.15582237
0.76601994 -0.11607304 -0.5862286 0.4270012 0.36396512 -0.2333474 0.3231439 -0.076632425
0.069307335 -0.45403996 0.2585469 -0.8443931 -0.12366412 -0.72408766 0.34273496 -0.2559172
0.097737916 0.04389757 -0.22205664 0.22083089 1.3560365 -0.7864554 0.71908 0.28819776
0.70221543 1.2105671 0.2003755 -0.59785444 0.48491085 0.81166947 0.48147434 -0.025635406
0.58563936 0.035299975 0.7150227 0.86157024 -0.9313765 0.5538543 0.11620429 0.40694147
