NanoTrack/models/onnx/nanotrack_head.onnx (onnx, 903687 bytes, 56 tensors)

corr_pw_reg.CA_layer.fc1.weight f4 [64, 64, 1, 1]
00000000: 309d d03b cc59 75bd 7f37 4fbd 9a62 89bc
00000010: 46b4 5bbc afce 96ba 5098 e7bc c4b0 19bd
00000020: 4795 d33c 6958 993c ec02 bf3b 0cd8 753c
00000030: 4997 413c 73fd 153b afc3 c1bc f658 a6bb
00000040: 4036 aabc 4bbd 96bc 4fa9 19bd 21c2 4e3c
00000050: 3d69 c53c 9444 383d 7514 363d 0540 a6bc
00000060: 4e8e 24bd 37bd 733c 506f 9d3c 5d31 c03c
00000070: cbce 533c 49f8 b0bc 6bd2 803b c928 3abd
00000080: bbe1 2f3c e907 64ba 2550 b0bc 7c78 7ebc
00000090: c1fd 773b ea36 4bbc 5a70 1ebb 4900 17bd
000000a0: 4238 84bd 9eed e23b 8828 223d 4fca de3c
000000b0: fc95 5d3c f975 1bbc a27b 793d 42d4 cfbc
000000c0: 3d25 74bc 5f45 4b3b b813 b1bb 4f03 253d
000000d0: 8af1 0b3c 3071 39bd 755d ad39 41aa 5dbd
000000e0: bb0b 37bd fa3f 0fbc 8391 6abc d308 0dbd
000000f0: 2262 a8bc d2bd 81bc 36d7 ef3b ed4a a5bb
00000100: c8df 98bc d3e2 1d3c e6ac d0bc 6aec bdbc
00000110: 74ac 1bbd 6a30 56bb 2c70 25bd 8973 83bc
00000120: 5c23 debb f9af 5b3d b65d 29bc 002c 45bd
00000130: d77c 71bd a1b7 a0bc 8fb5 9f3b b032 733d
00000140: 9af4 75bc e624 c83b be4d 0dbd 09bf 38bd
00000150: 6fae b0bb bfa4 06bd ddc5 17bd b8a4 2bbd
00000160: ffad b8bc 5c0d e03d 05f8 81bd 7687 803d
00000170: 258f b83d df27 0cbc bf7b ee3d 177d 62bc
00000180: b535 bdbc 2394 a63d 6d61 5dbd 3cae 5d3d
00000190: 44aa 1b3d 002d a8bc 4567 1e3d 75a4 093d
000001a0: 144a 2fbd 8e94 033d dbb1 4abd 3105 58bd
000001b0: 0626 a3bc f463 afbc 467c 133d 0397 ba3c
000001c0: f344 003c c9ca cb3c e404 e5bd b69d bcbd
000001d0: 1f34 ffbc 5454 d1bd 6502 c23c 995a ad3d
000001e0: dbb1 363b 2cfc c5bc 2f41 083d a269 b83b
000001f0: c1f0 b7bb 2241 7d3c 0400 17bd 5b2c e13c
00000200: d71f 853c 83ab 4ebd 9ddc da3a 28df 70bb
00000210: 6680 0fbd 2b57 89bc 26a9 babc 83b4 9e3c
00000220: 5b6a f0bc c04c d3bc 8b33 b6bc 54e5 19bd
00000230: f4d9 01bd a7c2 42bc aa20 a83c d3cf 483c
00000240: 00b4 063d 07a3 13bc b86e 833d 3ce9 f23c
00000250: 174b 503c bde0 143d 375e 17bd 2ab5 68bc
00000260: a152 3e3c cf09 2fbd 5d09 7f3c a4a8 7b3c
00000270: c78d 28bd 4cda a73c b0c0 c9bc 5c51 52bc
00000280: 828a 8f3c 5096 1dbc 581f 853c 20a6 01bd
00000290: e5fc d7bc e279 10bb e073 edbc 2ecc f63c
000002a0: 721a 133b 1ded 02bd 1374 b4bc e0ad 8e3d
000002b0: ec67 7dbc a2bd 2c3d 77fa 943c c902 2bbd
000002c0: b893 f03c c638 4dbd 7c9c 85bc 51f8 e3bc
000002d0: 860b f3bc ec2f 65bd afb6 5d3c 435e 96bc
000002e0: d732 663c d229 b8bc f761 193c ac77 f1bc
000002f0: bcba 56bd c1b9 2bbd aa65 3cbc 4b73 11bd
00000300: e606 153c 49dd 753c 0eae d2bc 9123 79bb
00000310: c030 06bd f91e c1bc 513d 96bc 036e f63a
00000320: 84a4 efbc fe69 92bc d1bc 28bc 4a64 863c
00000330: 332e 343a 2ab9 323d 5431 b5bb 622e df3c
00000340: 4615 4c3b 22d1 4cbc ae10 23bd fa3b 13bd
00000350: 10a8 67bd 774b afbc b0bb 3b3c 7311 5c3d
00000360: 93c7 173c 4589 303c 27f3 1dbd c50f 983b
00000370: cf9a 963d 42b9 ed3b c140 553d f918 263d
00000380: 4b7d 7f3c 6b2a 653d f7c8 983c e2f7 513c
00000390: 2d5a 293d 1751 713c de6b 47bb 0435 e83c
000003a0: 3e05 933c 8ebb 2fbd 5ff2 74bd a03b e83c
000003b0: fa3f 4dbd 44ec 88bd 2b83 3ebd f496 033d
000003c0: e4e9 a5bc 0fe5 a93c 61e0 6bbb 037c c63c
000003d0: 7fdf 81bc 8569 853c b5f1 013d 850f 803d
000003e0: 9813 d23c 014b 8fbd 721e 63bc b0f9 bbbd
000003f0: c4f2 35bd 3b4e 52bd c0b3 59bd 6dd2 0c3d
0.0063663945 -0.05990009 -0.050590035 -0.01677065 -0.01340968 -0.0011505688 -0.02827087 -0.037522092
0.025828017 0.018718915 0.0058292057 0.015005123 0.011815854 0.0022886663 -0.02365288 -0.005076523
-0.020777822 -0.018400809 -0.03751498 0.012619526 0.024098033 0.044987276 0.044453103 -0.020294199
-0.040174775 0.014876655 0.019218117 0.023461038 0.012927721 -0.021602767 0.003931334 -0.045449052
0.010734971 -0.00086986885 -0.02152259 -0.015531655 0.0037840458 -0.012403229 -0.0024175853 -0.036865506
-0.06456043 0.006925299 0.039589435 0.027196078 0.013524529 -0.009488576 0.06090892 -0.025369767
-0.014901456 0.003101669 -0.005403962 0.04028636 0.008541474 -0.04527396 0.00033066762 -0.054117445
-0.04468892 -0.008743281 -0.014316919 -0.034432244 -0.020554606 -0.015837584 0.0073193563 -0.0050443322
-0.018661395 0.009636599 -0.02547307 -0.02318402 -0.03800626 -0.0032682666 -0.04039018 -0.016046302
-0.0067791175 0.053634617 -0.010337284 -0.048137665 -0.058956947 -0.019618811 0.0048739384 0.05937451
-0.015011931 0.0061079143 -0.03449797 -0.04510406 -0.005391888 -0.032871958 -0.03705393 -0.041905135
-0.022543905 0.10940048 -0.06346134 0.06275837 0.09011678 -0.008554428 0.116446964 -0.013823769
-0.023096899 0.081337236 -0.05404799 0.05412124 0.038004175 -0.02052927 0.038672704 0.033604104
-0.042795256 0.032124095 -0.049486022 -0.052739326 -0.019915592 -0.021409966 0.03600719 0.022777086
0.007828939 0.024876969 -0.111825734 -0.092097685 -0.031152783 -0.102211624 0.023682782 0.08464546
0.0027877006 -0.024168096 0.03326529 0.005627827 -0.005613417 0.015457423 -0.03686525 0.02748697
0.016250534 -0.050456535 0.0016697828 -0.0036754105 -0.03503456 -0.016765198 -0.022785734 0.019373184
-0.02934759 -0.025793433 -0.022241374 -0.03757222 -0.031701997 -0.011887229 0.020523388 0.01225658
0.032886505 -0.009011037 0.06417602 0.02965223 0.012713215 0.03634714 -0.036955085 -0.014203349
0.01161638 -0.042733964 0.015566197 0.015360031 -0.041150834 0.020489834 -0.024628013 -0.01283678
0.0175221 -0.009618357 0.016250297 -0.03165257 -0.026365707 -0.0022045304 -0.028985918 0.030126657
0.0022446183 -0.03196441 -0.022028005 0.06966758 -0.015466671 0.042173035 0.018185837 -0.041750703
0.029367313 -0.05010297 -0.01630997 -0.027828367 -0.02966858 -0.055953905 0.013532325 -0.018355494
0.014050207 -0.022480879 0.009361736 -0.02947601 -0.052424178 -0.041925196 -0.011498848 -0.035510343
0.009095883 0.015006372 -0.025717761 -0.0038015584 -0.032761335 -0.02357434 -0.018339785 0.0018801097
-0.029253252 -0.017872807 -0.010298924 0.016405243 0.00068733393 0.043633617 -0.005529562 0.027243797
0.003114061 -0.012501033 -0.03981083 -0.03594587 -0.05655676 -0.02139829 0.011458322 0.05372758
0.009263891 0.010774915 -0.038561966 0.0046405517 0.07353746 0.0072547505 0.052063707 0.04055116
0.015593837 0.055948656 0.018650515 0.0128154475 0.041345764 0.014728806 -0.0030429284 0.028345592
0.017946836 -0.042903475 -0.059801456 0.028348744 -0.05010984 -0.06685689 -0.04651181 0.032126382
-0.02025313 0.020739106 -0.0035991895 0.024229055 -0.015853642 0.016285667 0.03172465 0.0625296
0.025644109 -0.06996728 -0.013862239 -0.091784835 -0.044420972 -0.051344138 -0.05314994 0.034380365

corr_pw_reg.CA_layer.fc1.bias f4 [64]
00000000: 276c 5a3b 1e45 f83c b055 193c c3a5 fc3c
00000010: 8406 dd3c 52ea 50ba 1b8e fabc 41aa 283d
00000020: f075 083a b4ef 55bb aac9 16bb 61c1 9e3c
00000030: dc3f 0c3c 4ba7 4a3b 4402 013d e4f3 413c
00000040: 0bf5 c8bc 70f4 91bc 4d36 bdba c7f9 563b
00000050: 495b 8bba 2359 b53b 7bdf 103b 363f 6c3c
00000060: 2e2e 483d db55 c3bc ac5a 99bb a691 1e3a
00000070: aa0e a539 0b81 e83a e277 1d3c e9b0 0c3c
00000080: beb4 b63c 8606 2dbb f00c f73c 43ad 763c
00000090: c2e9 793b 2a9f b4bb e03f cebc 858c a5bb
000000a0: daab f5b9 ba43 ed3b 418f df3c dd10 80bc
000000b0: a6ae ba3c b55d e43b 7c7b d3bb fa7e 6ebb
000000c0: f4d0 503b b6a5 b7bb 49ea 6db9 d707 f7ba
000000d0: 9fe3 ba3b 3fe8 f33a 54f2 ca39 06aa 1cbb
000000e0: eef0 6bbc d206 0b3c 100e 1dba 9748 47bc
000000f0: 921b 2bbc 2983 883a 4390 133c 5625 fdbb
0.0033328624 0.030306395 0.009358808 0.03084076 0.026980646 -0.0007969487 -0.03058534 0.04117799
0.00052055623 -0.0032644095 -0.0023008385 0.01937932 0.008560147 0.0030922468 0.0314963 0.011837933
-0.024530908 -0.017816752 -0.0014435739 0.0032802687 -0.0010632063 0.0055343076 0.002210586 0.014419368
0.048872165 -0.02384465 -0.0046799984 0.0006048925 0.00031482178 0.0017738653 0.009611102 0.008587101
0.022302981 -0.0026401593 0.030157536 0.015055957 0.0038133715 -0.005512138 -0.025176942 -0.0050521516
-0.0004685808 0.0072407397 0.027289988 -0.015633041 0.022788357 0.0069691786 -0.0064539295 -0.0036391602
0.0031862827 -0.005604471 -0.0002268936 -0.0018846941 0.005703404 0.0018608643 0.0003870899 -0.0023905053
-0.014400704 0.008485513 -0.000599117 -0.012163303 -0.010443585 0.0010415065 0.009006563 -0.007725398

corr_pw_reg.CA_layer.fc2.weight f4 [64, 64, 1, 1]
00000000: 2275 033d 8844 f93a 8f06 bc3c ca9a 5fba
00000010: 22a5 4f3c 2c36 80bc e5ec 60bd 75ad 973c
00000020: 156a 533d bcf4 debb 1838 6cbc ec67 953c
00000030: c27b d739 b34b dcbc c0e6 e33b 9ab7 fdbc
00000040: 4ee6 eabc d036 0cbd 16a7 fb3c 1846 79bc
00000050: 7a46 4fbc bbe6 063b b8fa 0dbd b1ca d8bb
00000060: 3e76 f83b 1737 e1bc bf53 26bc 21fd 3d3c
00000070: 5919 b33c eb46 9d3a 2106 1e3d 359b 823b
00000080: 32fc 31bd 7e12 043d b7cf 653b 7f19 583d
00000090: 8b52 b53b 09c5 2bbd 36a8 a23b 4c97 4a3d
000000a0: 60a4 b03c 262d bebc d2b8 69bd 041b 15bd
000000b0: 9e11 0f3d 6bbc df39 3e43 103d 7c4a 27bc
000000c0: a9a3 183d 9563 4b3c 24dc bcbc a260 e43c
000000d0: c6d7 c53b 20b3 0d3b a9ae 093c e19a fc3c
000000e0: 8609 46bb 3117 78bd cc4f 433d edcf 1dbd
000000f0: 364e 98bc 5b7b 8ebc 1c4e 853c 4754 633b
00000100: 104d 9ebc 5e31 8b3a 3a22 a2bc f7e5 cebc
00000110: 5ca0 83bc c7c7 e2bc 2406 ccbd acd4 e03a
00000120: a90d a53c 0644 c1bc 4ae3 fe3c 5455 173c
00000130: c687 f23c 5518 15bc 00d4 ea3c 6082 8fbc
00000140: bcc5 a3bd 60c7 da3c 7c10 b43c f636 1abd
00000150: 361a 11bd bee5 a8bb 6d04 bfbc d7f4 323d
00000160: dc34 a33d 5cf1 1abd 3985 9dbc 2bb4 8c3c
00000170: 365e 3c3c ed29 c3bc e9ef c7bb a917 adbd
00000180: df73 b83b 97d6 56bd 0bbf d3bc 2968 123c
00000190: 61fe 9bbc 4d65 eabc 410b d73c 1211 3a3a
000001a0: 930c 5ebd 04d5 acbd 66c8 dc3b 6a36 bebc
000001b0: 65bd f2bb 792c c4bc 142d 23bd 7f80 c33c
000001c0: 6905 8cbb 744b 56bc 0c11 87bc 843d 03bd
000001d0: fa12 c53b 1922 86bc c17d 9f3b 761d e23c
000001e0: be7a 2ebd a7b3 103d c6bb 1a3c 5e15 0abc
000001f0: 13ca 87bc 684c 86ba 9837 cfbc 781f ee3c
00000200: 2fa5 71ba 3db4 803c c220 3f3d b859 6ebc
00000210: 1c97 373c b4f0 ecbb c46b 80bc 2e8e 9abc
00000220: 29c3 463c ec3c 8ebc f2ca 0f3b 6b52 69bb
00000230: 2dcd 6f3b 3f3a 2b39 bbcf 7d3c 8d3a 91bb
00000240: c45b d2bb 1bf9 8bbc 7d57 683c cb4e 02bc
00000250: 6d51 163c 5978 f03a b50d a7bc e39d 673c
00000260: b69b 963c 43ad 853b 803b fd3b 1e60 62bc
00000270: 37a4 78bc 9cdb f53b 02a4 3b3d a459 8d3c
00000280: 4469 93bc 30a9 263d 92a8 dd3b 8bf0 96bc
00000290: 3317 bebc 3239 d7bc df63 043c 536c 97bb
000002a0: e5ae eabc a72c 96bb 3aac 8a3d 4e7e 263d
000002b0: 9fbf 183d d9ea 80bc d250 6a3c e7bf a8bc
000002c0: fe67 203c 470a aabc 1ca6 6f3c aa30 343b
000002d0: a43d 293b 41d5 1a3c 873d a2bc ae3f 0f3b
000002e0: 9c09 dfbc 68cb f13c 90a1 913c 2d67 563c
000002f0: fd38 333b db56 893b 0699 a43c 187f 0cbc
00000300: 5b78 07bd 6087 8cbc e542 edbb 9bf7 86bd
00000310: df7a 2c3c 7f4e d5bc a857 663d 50c6 8a3c
00000320: f6a6 7cbb 035f 0c3c 00b4 ab3c 0943 8d3c
00000330: 1ee0 09bc 97b7 64bc 3a10 0e3d 2b79 e1bc
00000340: 52a1 c93c f7dd 933d 7070 88ba 5dcd fcbc
00000350: 130f dc3b 49a8 0d3c 4be5 1abd 8c58 393c
00000360: ca66 bb3c 7ce9 ff3c 566c 813b c86c 3a3c
00000370: 5c61 fd3c 6984 973a 05ba f1ba 10c4 cc3c
00000380: ee89 eaba 4689 0a3c 9fe5 06bc d768 2b3c
00000390: 0ad6 fb3b df33 1d3c 7b23 25bc 0d00 31bc
000003a0: 7abb 4a3c 0938 153d 2d40 17bd b68a 663c
000003b0: 3931 b637 566b 513a 65bb 993c 41f6 20bd
000003c0: 391c 06bd b8fc b03c 78d2 073d 3469 603c
000003d0: 04af 4c3b 1abc 46bd 4e24 443c 0fc2 22bb
000003e0: 3182 e13b a972 57bc fc12 993c 6329 fb3c
000003f0: 6201 e33c d695 233c 6d9a 0dbd cf6e 0ebd
0.03209413 0.0019017616 0.022952346 -0.000852984 0.012673648 -0.015650831 -0.05491342 0.018515328
0.05161484 -0.006804077 -0.014417671 0.01823803 0.00041100202 -0.026891565 0.006954998 -0.030971337
-0.028674271 -0.03423196 0.030719321 -0.015214466 -0.01265108 0.0020584303 -0.034662932 -0.0066159596
0.007582455 -0.02749209 -0.010151803 0.011595995 0.021862673 0.0011999285 0.038580064 0.0039857873
-0.043453403 0.032244198 0.0035066435 0.05275869 0.0055335215 -0.041935954 0.0049639 0.049460694
0.021562755 -0.023214888 -0.057061024 -0.036402717 0.03492891 0.00042674257 0.035220377 -0.01021063
0.037265453 0.012413879 -0.02305419 0.02787811 0.006037685 0.002162166 0.008403459 0.03083557
-0.0030218079 -0.060568992 0.047683522 -0.03852837 -0.018591981 -0.017392805 0.016272597 0.0034687684
-0.019323856 0.0010619571 -0.019791711 -0.02525614 -0.016067676 -0.027683152 -0.09962109 0.0017153225
0.020148115 -0.023592006 0.03111424 0.009236652 0.029605757 -0.0091000395 0.028665543 -0.017518222
-0.07996699 0.026706398 0.021980517 -0.03765007 -0.035425387 -0.0051543405 -0.02331754 0.04369053
0.079690665 -0.037827834 -0.019228565 0.017175755 0.011497071 -0.023823703 -0.0061015976 -0.084517784
0.0056290473 -0.052450743 -0.025847932 0.0089359665 -0.019042196 -0.028612757 0.026250483 0.00070978806
-0.05421121 -0.08439067 0.0067377565 -0.023219306 -0.0074078315 -0.023946987 -0.03983791 0.023864983
-0.004273106 -0.013079513 -0.01648762 -0.032041088 0.006014225 -0.01637368 0.004867286 0.027601939
-0.042597525 0.03532758 0.009444183 -0.008427946 -0.016575849 -0.001024616 -0.025295064 0.02906774
-0.00092180347 0.015710944 0.0466621 -0.014547758 0.011205461 -0.0072308425 -0.015676387 -0.018866625
0.012131491 -0.017363034 0.0021941033 -0.0035602103 0.00365908 0.00016329529 0.015491421 -0.0044320286
-0.0064196307 -0.017086556 0.014181015 -0.007953356 0.009174687 0.0018346413 -0.020392278 0.014136764
0.018384796 0.0040794923 0.00772804 -0.013816861 -0.015175871 0.007502986 0.045810707 0.017254658
-0.01799453 0.040688694 0.00676448 -0.018425247 -0.023204422 -0.02627239 0.008080452 -0.0046210676
-0.02864785 -0.0045829597 0.06771131 0.040647797 0.03729212 -0.015736984 0.014301496 -0.020599319
0.009790419 -0.020756854 0.014627006 0.0027494826 0.0025824094 0.009450258 -0.01980473 0.0021858024
-0.027226262 0.029515937 0.017777234 0.013086122 0.00273472 0.004191262 0.020092499 -0.008575223
-0.033073764 -0.017154396 -0.0072406405 -0.06590196 0.010527342 -0.026038406 0.05623594 0.016940266
-0.0038551665 0.008567574 0.020959854 0.017243879 -0.00841525 -0.013959787 0.034683444 -0.027523598
0.024613056 0.07220071 -0.0010409486 -0.030859644 0.006715664 0.008646079 -0.037816327 0.011312615
0.022876162 0.031239264 0.003949682 0.0113784745 0.030930214 0.0011559847 -0.0018442279 0.024995834
-0.001789389 0.00845558 -0.008233457 0.0104620075 0.0076854276 0.009594887 -0.01007926 -0.010803235
0.012373799 0.036430392 -0.036926437 0.014071157 2.1719012e-05 0.00079887116 0.018766114 -0.039297346
-0.03274176 0.02160488 0.033159703 0.013696957 0.0031232247 -0.04851923 0.011971546 -0.0024834906
0.006881975 -0.013149896 0.01868581 0.030659383 0.02771062 0.009984454 -0.0345711 -0.034773644

corr_pw_reg.CA_layer.fc2.bias f4 [64]
00000000: f43a 10bc d4d4 0fbc a89a 303b 12ed 83b9
00000010: 6359 d53a 133b 9b3b a04a 733a 3c5c 5dbc
00000020: c14a a2ba c80b 933c a3c9 2ebc 890b 51bd
00000030: f3b3 84bd 7b88 213b 7b8f 953c 95bd c2bb
00000040: a28c 6b3c af14 a9bc 4c5b 12bb af66 7abd
00000050: 2fb8 e1bd c0f8 f0b9 ea38 7cbc 7706 ad3b
00000060: 3e9b 623c 482c b8ba 71ab 873a b404 7bbc
00000070: ca8b 523b 1581 88bc b253 763c 095b 933b
00000080: c7e2 1b3c 16ab e73b 871b 1dbd 88d0 033c
00000090: 0b3d 9bbc 44b0 53bc 4c1c 8abc 534e 313b
000000a0: 50ba c03b 9366 a53c 8276 cabb 0b01 81bd
000000b0: 71ff 84bd d524 61bc 5d92 0b3b 8e9f 2b3c
000000c0: 9738 cd3b a2f6 593c ac42 163c 9722 4ebc
000000d0: 3df4 3dbd d80b 013c 1c6a 543c 0a7c eb3b
000000e0: 6aae eabc e0b1 91bc d478 ffbb 90e3 adbc
000000f0: a995 1bbd e668 cd3a 42a5 12bc 77f8 37bd
-0.008803118 -0.0087787695 0.002694765 -0.00025162898 0.001627725 0.004737267 0.00092808343 -0.01351076
-0.0012381898 0.017949954 -0.010668191 -0.05103639 -0.06479635 0.0024648 0.018256893 -0.00594301
0.014376791 -0.020639746 -0.002233225 -0.061133083 -0.11021458 -0.000459617 -0.015394429 0.0052803117
0.013830958 -0.0014051283 0.0010350776 -0.0153209455 0.0032126778 -0.016663114 0.015034603 0.004496936
0.009514517 0.0070699556 -0.03835633 0.008045323 -0.018950006 -0.012920443 -0.016859196 0.0027054742
0.005881585 0.020190513 -0.006178678 -0.06299027 -0.06494034 -0.013741692 0.0021296956 0.0104750525
0.0062628496 0.013303431 0.009171169 -0.012581489 -0.046375502 0.007876359 0.012964752 0.0071864175
-0.02864762 -0.017785013 -0.0077963863 -0.021226674 -0.037984524 0.0015671521 -0.008950533 -0.04491469

corr_pw_cls.CA_layer.fc1.weight f4 [64, 64, 1, 1]
00000000: fc62 a6ba 69e8 8a3b 866a 06bc 8cef 1b3c
00000010: 7336 733c 8c62 7abc eba1 c63c 1f1b 103d
00000020: 1964 9dbb b14b 143c 2f0b f9ba cd5e f53b
00000030: 3c2b b23c e5b9 09bc c6c6 6ebc 8bed 9d3c
00000040: 1ae7 5bbc a36e f3bc 8f2b 4bbc fd5f ff39
00000050: 7a0e cebc 29d0 4cbb 6069 fdbc 72c6 c7bb
00000060: 444a f9b9 740e 25bd 527d 0dbc 3114 06bc
00000070: 0cfb 0ebc 583c 9ebc cd68 85bc df52 8b3c
00000080: 0dfb e5bb faa2 b93c 0dcd b63b 0a42 ecbb
00000090: 0b5d 393b 4ac6 16bd 26cd 5cbc aae0 1bbc
000000a0: 9323 983c a63a a6bc add1 6a3c 27ed fb3b
000000b0: 073f b2bc 4a32 a33c 2572 a8bb f3cc c4bc
000000c0: 9d17 1e3b b0d5 523c e71d e6ba 663e 923c
000000d0: 7710 ac3c 094c e83b b575 873b 48c3 55bb
000000e0: e905 803c 538a e43c c031 963b 1d0f 953c
000000f0: 913e 2f3b 2f0c 1d3d a1ba d5bc e758 37bc
00000100: 2672 c63b 7141 223c e2cb 213c fee0 febc
00000110: e93a 273b a079 423b 6700 1fbc 5ce8 733a
00000120: 7534 e23c a425 abba fa69 803b 3893 0d3d
00000130: 1e14 fc3b 01f1 8d3b 41e6 26bb dd61 75ba
00000140: 3688 40bc 0600 433c d380 e33b bfaa 54bb
00000150: d765 d5ba 1637 773c 76ad 5b3c 6519 39bc
00000160: d892 1ebb d72b cbbb b8f2 c63a 1f72 623c
00000170: a522 013b bdd6 c93b e65d 833c 5e2c 84bc
00000180: 2672 b2bc f52c 073d 24ec 623c b82c 0cbd
00000190: 6fd2 3bbb 74b5 9cbc 17f3 b8b8 64a1 81bc
000001a0: a83c 8cba dd15 faba 6c49 efbb f6ff 35bc
000001b0: b8c3 c0bb 5b23 d4ba b473 5abc bbbd 1fbc
000001c0: efc8 aebc ff27 3b3c 4c82 c83a 7430 a53b
000001d0: 4fea 71bc c845 13bd ee6f e3bb 8587 e0bb
000001e0: c6cd 263c c146 e63a c5cd 973b cdd9 10bb
000001f0: 6d9c a53c a8e2 cfba 9b78 81bb c5aa 61bc
00000200: 9f23 74bb 90c9 fa3b a5b0 c63b 23b6 fd3a
00000210: 36cb 82bc 03ef d93c 9dd2 c2bc 14e8 da3c
00000220: a30c 043d 43ba 443c c858 a4bc e82f e63b
00000230: 890a 2cbc 7838 46bc b20c 763b 7067 1cbc
00000240: e090 743c 366c d43b bc84 abbc 7deb e7bc
00000250: 9112 07bd 097a 2cbc 036f 5e39 d803 87bb
00000260: 9039 a6bb b6a6 8b3c 713c 4cbc 99f6 0dbc
00000270: a24a 133c 8930 e1bc 12b0 cb39 9bbe 393c
00000280: 7b48 603c 3ab6 aebc a5cf 303b 9920 50bb
00000290: 478f 713b e3b4 18bd 8d66 9fbc 8c06 483c
000002a0: 30c6 8bbb 734b 48bc 86e5 74bc f0eb 9d3c
000002b0: 3670 1cbc 85fb dbbc 1952 69ba 0ba4 dfbc
000002c0: 50b8 1c3d d703 1c3b e76c 15bc 39d0 2c3c
000002d0: 3b17 5f3c f93f f8bb 6dc6 3639 51c1 babc
000002e0: 9902 6c3c 8a6e 163b 4c36 7bbb 247a d93a
000002f0: 2ed1 80bb 68ef fb3b c8ad cdbb d872 1dba
00000300: 6c4d 76bc e84c 40bb 68f9 3a3c 24a6 98b8
00000310: e9a6 31bc 1853 86bc 5040 1dbc ab49 ebbb
00000320: 6b9c 0ebc efbe 85ba 0fb9 0abd 9687 003b
00000330: db15 423a 60ca a03b a6a6 16bc 9409 1d3c
00000340: 71a5 0a3c 2fb1 253c a1ab da3c 9691 77bc
00000350: d1e8 123c aa9f e939 7f3f 92b9 2deb 6bbc
00000360: 7d32 cabb 6c90 bbbc 7491 713c 8c21 763c
00000370: 780d 553b 3af7 b2bc 0f6d 3e3b 52e5 7abc
00000380: bdb2 ca3b 9f00 a5bc 3262 803c 44e8 e33b
00000390: 5d0b 93bb adae febc 3de0 52bc 8436 a63c
000003a0: ed23 79bc 2c48 08bb b72a 91bc ca91 6dbc
000003b0: 8349 113c 06b4 923c 19b9 8d3c a383 e43b
000003c0: 790a 5bbc a166 ddbc d0c4 02bc b152 e13a
000003d0: b3f1 d33b 5ab4 733c 51e2 76bc a2ae 65bc
000003e0: c340 b13b 418a 913c fe6e b03b 96eb 34bc
000003f0: 266b a6bc df4c 343c e98d 6cbc c4c0 823b
-0.0012694295 0.004239131 -0.008204108 0.009517562 0.014844525 -0.0152822845 0.02424713 0.035182115
-0.0048031923 0.009051249 -0.0019000525 0.007488108 0.021749131 -0.008406137 -0.0145737585 0.019278308
-0.013421798 -0.029715842 -0.012400522 0.00048708907 -0.025153387 -0.0031252003 -0.030934036 -0.0060966546
-0.00047548313 -0.040296987 -0.008635836 -0.008183525 -0.008726846 -0.019315884 -0.016285324 0.01700729
-0.007018453 0.022660721 0.005578643 -0.007210021 0.0028284218 -0.036810197 -0.013476646 -0.009514013
0.01857165 -0.020291638 0.014332217 0.007688183 -0.02175857 0.01992144 -0.00514056 -0.024023509
0.0024122961 0.01286833 -0.0017556519 0.01785202 0.021003945 0.007089142 0.004133905 -0.0032617617
0.015627818 0.02789799 0.0045835674 0.018195683 0.0026740173 0.038341697 -0.026089968 -0.01119063
0.006056088 0.009903298 0.00987527 -0.031113144 0.002551729 0.0029674545 -0.009704686 0.00093043386
0.027612904 -0.0013057482 0.0039188834 0.034564227 0.007692828 0.0043317084 -0.0025466832 -0.0009360591
-0.011751225 0.011901861 0.0069428473 -0.0032450405 -0.0016280961 0.015088817 0.0134080555 -0.011297558
-0.0024196412 -0.0062002945 0.0015178537 0.013821154 0.0019704488 0.006159632 0.016035985 -0.016134437
-0.021782946 0.03300186 0.013850246 -0.034222335 -0.0028659364 -0.019129492 -8.819083e-05 -0.015824027
-0.0010699229 -0.0019080002 -0.0073024537 -0.011108389 -0.0058827065 -0.0016184853 -0.01333325 -0.009749825
-0.021336047 0.01142311 0.001529762 0.0050411765 -0.014765336 -0.03595522 -0.0069408333 -0.0068520927
0.010180896 0.0017568694 0.004632684 -0.0022102476 0.020216191 -0.0015860396 -0.003951145 -0.013773625
-0.0037252677 0.0076534227 0.006063538 0.0019356649 -0.01596604 0.026603227 -0.023782069 0.026721992
0.032238614 0.012007299 -0.020061865 0.007024754 -0.010500559 -0.012098424 0.0037544188 -0.009546146
0.014927119 0.0064826263 -0.020937316 -0.028310532 -0.03297669 -0.010527142 0.00021212925 -0.0041203313
-0.00507278 0.017047267 -0.012465582 -0.0086647505 0.008989962 -0.027488964 0.0003885036 0.011336948
0.013689156 -0.021327127 0.0026979235 -0.003175771 0.0036859082 -0.037281882 -0.01945808 0.012208592
-0.004265569 -0.01222502 -0.014947301 0.019277543 -0.009548238 -0.026853332 -0.0008900478 -0.027299901
0.03826171 0.0023806 -0.009120203 0.010547691 0.013616378 -0.0075759855 0.00017430792 -0.022797259
0.014404916 0.002295407 -0.0038331924 0.0016592187 -0.003931186 0.0076884516 -0.00627682 -0.0006006188
-0.015033107 -0.0029342715 0.011412002 -7.278871e-05 -0.010843017 -0.016397044 -0.009597853 -0.0071804128
-0.008704285 -0.0010203997 -0.033867892 0.0019612066 0.00074037694 0.0049069375 -0.0091950055 0.009584803
0.008462296 0.010113045 0.026693167 -0.015110394 0.008966641 0.00044560182 -0.00027894598 -0.014399332
-0.0061705695 -0.022896014 0.014744151 0.015022647 0.0032509249 -0.021846402 0.0029056703 -0.015313463
0.006185858 -0.020141898 0.015671823 0.0069551785 -0.0044874386 -0.031089151 -0.012870845 0.020289667
-0.015206319 -0.002079497 -0.017720563 -0.014500091 0.008867624 0.017908107 0.017300176 0.0069737
-0.013369196 -0.027026476 -0.007981494 0.0017190782 0.006468022 0.014874542 -0.0150686065 -0.0140186865
0.0054093315 0.01776612 0.005384325 -0.011042496 -0.020314764 0.011004656 -0.014438131 0.0039902646

corr_pw_cls.CA_layer.fc1.bias f4 [64]
00000000: 886d c03b 182c 5d3b d3c6 083c 47c5 313a
00000010: 678b a83c fc38 533c 25bb 853c 18c0 8cbb
00000020: 42f7 ea3c 92e4 3c3d 4ceb 583a d20e a53c
00000030: 848e 953c 0690 4e3d eda2 a43c fc4d 373c
00000040: af83 41ba 9927 ec3b 376d eb3b e5dc 093c
00000050: a5e2 703b e5ca 883c 624d 333c bf3a 933c
00000060: f359 ff3c 8ea7 413d b3b9 233b 39c5 ccb9
00000070: 3964 30ba e90e 703d 0fae a83c bf6c e23b
00000080: 23f0 90bb 5b2a ba3c 9fdb 293c 8413 ec3c
00000090: 91ad 593c 8038 b73c e97f 8c3d aece 7139
000000a0: 736c 2b3c b137 d13a 2024 e33c 0e81 4d3c
000000b0: 5bca 623c 50b0 ba3c 3a2d ae3c ca79 563c
000000c0: 0f87 283c 0c30 1e3c 0be1 0d3c 7f6a 073d
000000d0: 0f52 1b3d 8e40 203c b33e f63c 2cba 8a3c
000000e0: 6d85 8e3d a085 263c 8ee3 c53c 6b9d 7b3c
000000f0: 8695 4b3d c629 fb3c 576c 4a3c 1811 3e3c
0.005872432 0.0033748206 0.008348185 0.0006781411 0.020574285 0.012892004 0.016324589 -0.0042953603
0.028682355 0.04611642 0.0008274808 0.020148668 0.018256433 0.05043032 0.02009722 0.0111880265
-0.0007381988 0.007206869 0.0071846503 0.008414482 0.0036756184 0.01669831 0.0109437425 0.017972348
0.03117082 0.047278933 0.0024982512 -0.00039056854 -0.00067288015 0.05860797 0.02059081 0.006909936
-0.004423158 0.022725275 0.010367303 0.0288179 0.01328601 0.022365808 0.068603344 0.00023060545
0.010462868 0.0015962032 0.027727187 0.012542976 0.013842191 0.02278915 0.0212618 0.01309056
0.010286107 0.00965501 0.008659611 0.033060547 0.037920054 0.009781016 0.030059194 0.016934477
0.06959043 0.010163695 0.024156358 0.015357356 0.049703144 0.030659568 0.012354932 0.011600755

corr_pw_cls.CA_layer.fc2.weight f4 [64, 64, 1, 1]
00000000: 9d3a 80b9 dda7 e23c e320 29bc 4920 433c
00000010: 19f3 e73b 8e8c 073c 8237 cabc 9b38 22bb
00000020: eef7 15bb 905b 15bd f60a 8a3b b049 11bd
00000030: b206 82bc 4bf9 26bd 3871 b9bc ebb7 8f3b
00000040: 4313 b8bb de7a 11bd 55b8 983b 26cd 9a3c
00000050: 9499 edba c11e fdbc a1d6 5c3c c01d 03bd
00000060: 1641 03bd f420 7ebd e9f5 58bc b268 243c
00000070: 5d62 003c df79 e3bc a8ed 8dbd f216 20bc
00000080: ddef 5abc a16a 2e3b be11 0c3b e195 f7bc
00000090: 9a4c 0f3c 9fbb 06bd 6ec2 93bc 11be ba3a
000000a0: 1b5c 943c 68af aa3c f3a3 95bc b335 56bb
000000b0: 0e0d 47bd 5c8b 1dbd af78 2f3b 6353 ffbb
000000c0: c6c3 e83b a0da d6bc 5d9e b6ba 070a e4bb
000000d0: 2a96 5fbd ea25 353c 0f54 01bd 80a6 57bc
000000e0: 439c 3bbc 83db 12bc 14e8 07bd 135a 6bbc
000000f0: e4bc f4bc 775e 4abc b22f fabb 167f 89bc
00000100: 0f34 9e3c a29f 0fba 9ba5 c7bc 8026 edbc
00000110: 3a62 a6bc 3a2b c5ba c26f 113b 6c0e 3f3c
00000120: 05d1 323d 1d63 b9bd 44d7 073c 7c8f 223c
00000130: ea05 8ebc fc28 a3bd 71ef 0e3d 76e6 803c
00000140: 73e5 3bbc ba63 0a3c 7efe 393c f368 5d3c
00000150: b261 0dbb 8608 06bd 6b56 02bc 011f aebc
00000160: 7a6f 92bd ee96 f1bd 6d4b 9d3a 315c 03bc
00000170: 949e 603c 97dc f1bd e91a 02bc b655 cc3c
00000180: b35e 4cbc 6815 e5bb 73ff e2bb 1ec5 a4bc
00000190: 3561 21bc 2fbd f7bc 7478 2bbe abf9 8aba
000001a0: fa46 0bbc 5b49 b93b 1e69 41bc fed7 ee3b
000001b0: 9dd9 c03b f103 de3a c102 10bd 653a 1b3c
000001c0: af46 ffbb 9b35 213c f293 7ebc 9bec 26bd
000001d0: c7ba 0f3d 65e7 e1bb 89e2 863c 18af 133d
000001e0: c255 e7bd 77bb 753c 11a8 e1bc 9220 58bc
000001f0: 954f dfbd 3191 77bd 7c50 10bd facc 8b3c
00000200: 02c1 43bb 10e4 ce3c aa0b 8ebc 1570 353c
00000210: da66 293c 8c57 dd3b b776 b03b d131 cfbb
00000220: 7339 8abc f639 78bc d7ce a3bb 7332 a13c
00000230: c9d1 a03b de19 5dbc f201 963c b309 ce3a
00000240: 56f9 33bc e2bd d6ba b833 44bc f941 a3bc
00000250: 52b3 feba e345 4dbc af2a f5bb e492 62bc
00000260: 52a5 103c 315b 5e3b acb4 e9bb bf05 d9bc
00000270: 682b 2b3c 1399 f83a 2c87 a83b de8c 8abc
00000280: a3f9 21bc 8675 88bb 70b5 3a3c 9432 82ba
00000290: b3bc f53c 9a68 27bc a94d 86ba 28bf b33b
000002a0: 42c4 3b3b 2ec5 d4bb c813 c9b9 ab70 19bd
000002b0: 51b3 6ebc 9f82 e73b 9fd0 2f3c 991e 05b8
000002c0: 51fa 2f3b 25c8 68bc 56b7 13bc f0a3 e83a
000002d0: 74b0 553c b5e4 c13b bc78 0e3c e982 13bc
000002e0: 1eac 703a e7b5 093c 89cc d83c 5db0 acbc
000002f0: fcdf 8539 98c3 8e3b b7ae 48bb a12c 3cbd
00000300: 0168 0cbd 087b adb8 9bc8 adbc 39d3 69bb
00000310: 92eb 67bb 1e22 4f3c 0ae4 d43c 8129 aa3b
00000320: 9f34 3bba ce43 283c e5cf c2bb 4e50 9abc
00000330: 4de2 55bb 0350 5f3c 104b b73b 33fa e1bc
00000340: 55ae 2bbb ffca 023c a9a3 ec3b 113b ecbb
00000350: 933e 69bc 5970 8dbc f5d2 c8ba a0c4 75bc
00000360: ebec 5a3c be4e 74bc cc6b aabc 74e6 833b
00000370: 6fb9 123b 3e8d 863b ed29 c6bc fdd7 0abc
00000380: 3a3a 023a 2bb5 3c3c 1a91 9dbc 5e77 c83c
00000390: 7739 383c 228e 4d39 555f 9d3c f762 83bc
000003a0: f01b 84ba abe9 fb3b 76cc a3bc f485 033d
000003b0: 599a 77ba 4fe3 8abc 8320 943c a0b2 72b9
000003c0: 815a 92bc 2d82 a5bc dc26 5c3c b8db 603c
000003d0: b76f 84bc 274e 1abc 32e2 96bc 707f 00bc
000003e0: 81f8 943c 10ad dd3b 9205 2bbb e6cb 073d
000003f0: cc40 b0bb 8a13 0a3c 53dc d3bb c1b5 4e3c
-0.00024457733 0.027667934 -0.010322782 0.011909553 0.00707854 0.008273257 -0.024684671 -0.0024752978
-0.0022883373 -0.036464274 0.0042127324 -0.035470665 -0.015872333 -0.040765088 -0.022636995 0.0043859384
-0.0056175306 -0.035517566 0.004660646 0.01889665 -0.0018127435 -0.030898454 0.013478906 -0.032010794
-0.032044493 -0.062043145 -0.013242223 0.010034727 0.007835952 -0.027768074 -0.06930095 -0.009771096
-0.013362852 0.0026613849 0.002137288 -0.030222835 0.008746291 -0.032893773 -0.018037047 0.0014247318
0.018110326 0.020835593 -0.018266654 -0.0032685816 -0.048596434 -0.03846298 0.0026774814 -0.007791923
0.007103416 -0.026227295 -0.0013932694 -0.006959203 -0.054586567 0.011056403 -0.031574305 -0.013162255
-0.01145083 -0.0089634685 -0.03318031 -0.014364737 -0.029875226 -0.012351624 -0.0076350803 -0.016784232
0.019311933 -0.0005478804 -0.024370959 -0.028949022 -0.02031051 -0.001504279 0.0022191857 0.011661153
0.043656368 -0.090521075 0.008291069 0.009921905 -0.017336804 -0.079668015 0.034896318 0.015734892
-0.011468279 0.008446628 0.01135218 0.013513791 -0.0021573124 -0.032722972 -0.007955174 -0.021255018
-0.07150169 -0.11796366 0.0012000628 -0.008017586 0.013709683 -0.11809652 -0.007940986 0.024943214
-0.01247375 -0.006991077 -0.0069274246 -0.020113524 -0.009849836 -0.030241577 -0.16745168 -0.0010602971
-0.008500809 0.0056544966 -0.011804847 0.007288932 0.0058853165 0.001693843 -0.035158876 0.009474372
-0.0077904086 0.009839441 -0.015538203 -0.04075299 0.035090234 -0.0068940395 0.016465442 0.036055654
-0.11295654 0.014998308 -0.02754596 -0.013191359 -0.10903851 -0.0604412 -0.035233006 0.017065514
-0.002986968 0.025255233 -0.017339546 0.011074086 0.010339463 0.006754821 0.0053852457 -0.0063230773
-0.016873097 -0.015150538 -0.0049990225 0.019677376 0.004907821 -0.013494937 0.018311474 0.0015719443
-0.010984739 -0.0016383494 -0.011975221 -0.01992892 -0.0019432104 -0.012528869 -0.007481895 -0.013828967
0.008828478 0.0033928866 -0.0071321335 -0.026491998 0.010447361 0.0018966518 0.005143067 -0.016912874
-0.009886178 -0.0041644005 0.011395797 -0.0009933286 0.029997205 -0.01021781 -0.0010246533 0.005485434
0.0028650914 -0.006493232 -0.00038352446 -0.037460964 -0.01456912 0.007065132 0.0107308915 -3.1738167e-05
0.002685208 -0.014207874 -0.009015879 0.0017749052 0.013042558 0.0059171566 0.0086957775 -0.009003379
0.0009180921 0.008405185 0.026464717 -0.02108019 0.00025534618 0.0043568127 -0.0030621716 -0.045941
-0.034278873 -8.272199e-05 -0.02121382 -0.0035678877 -0.0035388214 0.0126424115 0.025987644 0.005192936
-0.0007141325 0.010270072 -0.005945193 -0.01883712 -0.0032636106 0.013629916 0.005593665 -0.027585125
-0.002619644 0.007982968 0.0072216582 -0.0072091897 -0.01423611 -0.017265486 -0.0015321659 -0.015000492
0.01336215 -0.014911352 -0.020803355 0.004025275 0.002238836 0.004106193 -0.024189914 -0.008474347
0.0004967783 0.011517803 -0.019234229 0.024470981 0.011244169 0.00019603272 0.019210497 -0.016038401
-0.0010079127 0.0076877675 -0.019994956 0.03211017 -0.0009445302 -0.016954092 0.018081909 -0.00023145461
-0.017865421 -0.020203674 0.013436999 0.01372426 -0.016166551 -0.009418047 -0.018418405 -0.0078428835
0.018184902 0.0067650154 -0.002609585 0.033153437 -0.005378818 0.00842751 -0.0064654737 0.012616576

corr_pw_cls.CA_layer.fc2.bias f4 [64]
00000000: 3f59 1fbd 5f13 15bd b085 05ba 1a23 3d3b
00000010: 9745 20bb d7ab 0cbb ad71 79ba aeaa 14be
00000020: e2c0 133b 3ddf c13b d743 673c e5d4 e23b
00000030: abfd a03c ed2d 233c a7b7 0d3c e93b 1c3b
00000040: 203d cf3b 9f3f 143c 90ad 3b3b 0aee 3d3c
00000050: 4dba ecbb 1eab 983c d818 bd3b c9fc 6c3b
00000060: 703a 133c 27ba a13b f96d be3b f146 3d3c
00000070: 5b37 29bb 0ff3 3dbb e7e7 043b b622 513c
00000080: 90ac 773b af7e 293c 8511 c03b a269 003c
00000090: b2b6 b63b d3e1 483c 721d 3e3c eb40 123c
000000a0: 78d3 da3b dafa 683a 3395 353c fec7 ea3b
000000b0: fe12 b3bb 6253 243c 218c 62ba 08ac d7ba
000000c0: 1ae4 e53a dcb0 d73b 7afb 2c3c 3c3c 403c
000000d0: a593 233c 129b 57ba 7944 b43b c0af 453c
000000e0: 3dee d6bd 0793 46bd 8926 9cbb 2f5c 003c
000000f0: 9819 46bb ca35 15bb 0ade c4bb 950d 98bd
-0.03890347 -0.036395427 -0.00050934684 0.0028860033 -0.0024455541 -0.002146473 -0.0009515535 -0.14518234
0.0022545387 0.0059165047 0.014115295 0.0069223517 0.019652208 0.00995968 0.008649743 0.002383942
0.0063244253 0.009048372 0.0028637387 0.0115923975 -0.007224357 0.018636283 0.005770784 0.0036161414
0.008986101 0.004935521 0.0058114496 0.011552558 -0.0025820348 -0.0028983986 0.0020279826 0.012764623
0.0037792064 0.010345145 0.0058614635 0.007837685 0.005575978 0.012260872 0.0116037 0.00892661
0.006678041 0.00088874775 0.011082935 0.007164954 -0.0054649105 0.010029646 -0.00086420967 -0.0016454468
0.0017539293 0.0065823626 0.010558004 0.011733111 0.009983932 -0.00082247064 0.0055013266 0.012065828
-0.10494659 -0.04848006 -0.004765336 0.007834478 -0.0030227657 -0.0022767656 -0.0060079144 -0.074244656

cls_pw_tower.0.weight f4 [64, 1, 3, 3]
00000000: 6525 e63d afd9 f4bc 634a ac3c f02d 9439
00000010: 42ad bbbc 4d75 833d 88fe 09bb 1777 c7ba
00000020: 9ae5 4f3d a445 b7bb cd42 a1bd 9a23 a2bc
00000030: 086e d5bc c06c 63bd 2103 24bd d2d6 42bc
00000040: 5b5b 70bc 157e 29bc cb19 043e 0bcc ff3c
00000050: 4c1b 8bbb 09ef 38bd d9db acbc d64f ac3c
00000060: 9bca 5ebd 627c 56bc c29c 99bc bb9a 16bd
00000070: 71ad ee3d 2b5e bf3d 5cbc 5bbc ff31 7fbc
00000080: 4851 87bd 9791 813c 9fb1 f03c f5ae a23c
00000090: 3068 09bc 89d4 d93d ec84 a93d ce48 91bd
000000a0: 09c5 023c b386 113c 771d 12bb 8eff 173d
000000b0: d047 abbb 31c2 fd3d b9c8 e63b 0c90 4e3c
000000c0: 222e 85bc 8e97 0cbd 31ec 71bd c79b 183d
000000d0: d3f3 71bc e5f3 023d 3728 053c 86a8 cc3d
000000e0: 9cc8 cabc 4bbb 20bc e2fa 993d a2f5 0f3d
000000f0: 9c8b 08bd e3d3 823c d1d0 84bc 032b 14be
00000100: 11c1 38be 86e3 883c b050 94bd ec02 8dbd
00000110: 925b ce3d babc 33bd 41af 9cbd 1d74 763d
00000120: 4314 b4bd 5356 afbd 7b83 20bd 8eff 2e3c
00000130: 0d13 033d 2e6f 5b3d 12c2 13bd eeca 3b3b
00000140: cce1 8a3c 15af 263e 0c46 303c 7d4a 1c3d
00000150: a324 6d3c 956c 4cbd 8e15 213d f8d3 83bb
00000160: cac1 13ba 02eb 8bbc 5655 473e 6269 bdbd
00000170: 4562 333c 8849 51bd 624b c7bb 86ee 5c3c
00000180: 19ef 003c 766e 10bb e2db cebc 6908 733d
00000190: 41ad 363e d5b6 c2bd 26f9 823a 3fd9 3a3d
000001a0: 10ee ab3c 4453 b4bb 3873 223b d33c 393c
000001b0: 334d 32be 2507 893c 8b0d 373e 653e 2d3d
000001c0: 8e5b 1d3c 2d9f ce3b edbb 05bd 31bc c1bc
000001d0: 8a78 1ebc 5b83 843d 717b 9ebc 0a88 4a3e
000001e0: 8319 a73c 208c efbc 33e7 e5bc 5f7c 84bc
000001f0: 8de3 a33b 9d0b c6bb bd8a 67bd cdce e93c
00000200: 5b7f 1b3e f048 aebb 2d0a 6a3c 46ef 4b3c
00000210: 9db4 afbb 8c22 893c ce9e 903c f9ee a83b
00000220: 601c 0a3d e9ab babd e9a5 09bd 5792 a63d
00000230: f9f1 953c 789b 053c 202e 973d 2f78 5b3d
00000240: 39a4 903c 5ac3 4a3c 0653 043d 72a2 3cbe
00000250: d263 c5bc 8074 10bb a593 ee3c 7ed7 e53a
00000260: 5408 483d 978d 083e 9737 a2bd cf87 aebd
00000270: d1e1 693d 37b2 003d ef99 5a3d e62a a63c
00000280: 755b 503c 7ed5 8b3c dbdb cf3d 9398 193e
00000290: c63b 4b3c a78b 95bc 5c5e bdbc 5639 13bd
000002a0: 0f65 7ebc 48b4 febc 2a46 173d ac24 813e
000002b0: db0b 963d f158 edbd 583b 25bd e9ad 5fbd
000002c0: 72e9 953b c43c 68bc 4203 233c f4be eabc
000002d0: 6e25 b8ba 2084 a1bd 2e7a 1cbe 09dd b63c
000002e0: 3e82 0dbc 7141 b4bd aaaa b4bc eb6c 223c
000002f0: 50d0 db3c e2ff 04be 6af1 863d 8486 513e
00000300: 911b 28bc f818 01bc e99d 64bd 5f7f a7b9
00000310: f313 513b 329c c7bc f2ca 393b b96b e83d
00000320: c7d8 f43d 8ad7 51bc 5567 a438 40e1 503c
00000330: a9d0 d5bb bad1 c3bb adb6 46bd 1d51 8fba
00000340: a0ae 623d 5137 1a3e 6ae4 b73a 5eca 6e3c
00000350: f6a1 5dbd e08a 3f3c 5a85 853c 5fd3 65bd
00000360: 99ab 42be 06d1 1abd 51c9 383d 8769 69bb
00000370: 4bb2 9a3c 01e0 bf3c 9578 b83d c73a 9fbc
00000380: 7dd2 a1bc 25cb a83d 700e 773d 2bab 433c
00000390: 337a dd3d cd33 613d d56f d0bc 4090 75bd
000003a0: b20f a3bc 5b38 9f3b 311f 8b3d 00bf 603d
000003b0: f3af e1bb d313 6cbe d531 bc3c ac5b 7c3d
000003c0: d232 c4bd 9804 9c3c 6b9a d0bc c7e9 84bd
000003d0: aa0b abbc b604 e43c d78e 093e 8150 4abe
000003e0: 42ee 1ebe e0ee 9d3b eef9 95bc 27a8 283d
000003f0: a8de 1ebe b4f7 25bd a374 b0bd b191 f0bd
0.11237601 -0.029888956 0.021031564 0.00028262986 -0.022909764 0.06418858 -0.0021056253 -0.0015217987
0.050756074 -0.0055930186 -0.07874069 -0.019792367 -0.026053444 -0.055523634 -0.040042046 -0.0118920375
-0.014670218 -0.010345002 0.12900464 0.031225225 -0.0042451974 -0.045149837 -0.021100925 0.021034162
-0.05439244 -0.013091179 -0.018751506 -0.036768656 0.11654175 0.09344133 -0.013411608 -0.015575885
-0.066073 0.015816493 0.029381571 0.019858817 -0.008386657 0.10636241 0.08277306 -0.070939645
0.007981547 0.008882212 -0.0022295394 0.03710895 -0.0052270666 0.12390555 0.007042971 0.012607586
-0.01625735 -0.03432422 -0.05906314 0.037257936 -0.014767605 0.031970877 0.008127264 0.09993081
-0.024753861 -0.009810279 0.07518555 0.035146363 -0.033336267 0.015970176 -0.016212853 -0.14469533
-0.18042399 0.016710054 -0.072419524 -0.06885323 0.100760594 -0.043881156 -0.076506145 0.060169328
-0.08792927 -0.08561387 -0.03918789 0.010681046 0.03200059 0.053572826 -0.03607375 0.002865489
0.016953371 0.16277726 0.010758888 0.038156975 0.014474067 -0.04990824 0.039327197 -0.0040230714
-0.0005636482 -0.017079834 0.19466147 -0.09248616 0.010948722 -0.051095515 -0.0060819844 0.013484603
0.007869505 -0.0022038496 -0.025251333 0.059334192 0.17839529 -0.09507529 0.0009992465 0.04561734
0.02098754 -0.00550309 0.0024787914 0.0113060055 -0.17412262 0.01672704 0.1787626 0.042295832
0.009604348 0.0063055963 -0.032649923 -0.023649307 -0.009672293 0.064703666 -0.01934597 0.19778457
0.020397907 -0.029241621 -0.028064346 -0.016172586 0.0050014914 -0.006043865 -0.056528796 0.028540993
0.15185301 -0.0053187534 0.014284653 0.012447184 -0.005362107 0.016740106 0.017653849 0.005155441
0.033718467 -0.091148205 -0.03360549 0.08133381 0.018303858 0.008154742 0.073818445 0.053581413
0.017656432 0.012375677 0.03230574 -0.18421343 -0.02409545 -0.0022042096 0.029123137 0.0017535535
0.048836067 0.13335262 -0.07920759 -0.08521997 0.05710012 0.03141996 0.05336946 0.020284127
0.012717118 0.017069574 0.10149356 0.14999609 0.012404388 -0.018255068 -0.023116283 -0.03594335
-0.015527024 -0.031091824 0.036932148 0.2522329 0.0732648 -0.1158923 -0.040339798 -0.054609213
0.004574948 -0.014174644 0.009949507 -0.028655507 -0.0014049241 -0.07886529 -0.15280983 0.022322195
-0.008637009 -0.088015445 -0.022054035 0.009913663 0.02683273 -0.12988237 0.06589015 0.2046147
-0.010260479 -0.007879488 -0.055814657 -0.0003194762 0.003190276 -0.024366472 0.0028349725 0.113486715
0.119554095 -0.012807736 7.8393765e-05 0.012749016 -0.0065251184 -0.005975929 -0.048514057 -0.0010934208
0.055342317 0.15060164 0.0014029865 0.014574615 -0.054109536 0.011690825 0.016298939 -0.056109782
-0.19010772 -0.037796997 0.045113865 -0.0035615878 0.018883845 0.023422243 0.09007374 -0.019437207
-0.019753689 0.08241872 0.060316503 0.011942665 0.10814323 0.05498104 -0.02544395 -0.05995202
-0.019904945 0.004859013 0.06793059 0.05486965 -0.00688743 -0.23054437 0.02297298 0.061610863
-0.09580006 0.01904516 -0.025464257 -0.06489902 -0.020879585 0.027834278 0.13433395 -0.19757272
-0.15520576 0.004819736 -0.018307652 0.041175988 -0.15514624 -0.04051943 -0.08615997 -0.117465384

cls_pw_tower.4.weight f4 [96, 1, 3, 3]
00000000: b1a1 01bd 8441 a43d 8698 433d 50a8 08bd
00000010: 6381 813d a8bc 8b3d 46b9 28bd e51d bdbc
00000020: 6c82 81bb 6d54 87bd d717 23bd ea10 b2bc
00000030: d0a6 52bd 596d c8bc f491 c9bc bf6c 7dbc
00000040: 20f9 8dbc 14ea 6ebc 4df8 0e3d 04f3 113d
00000050: 03b8 563d 30dd debc c05f 2bbd fd93 4d3c
00000060: 0fa2 aebd c38a fdbc 7117 85bc e06a aa3c
00000070: d597 893d f382 0a3e 404b 85bd 983c 91bc
00000080: 6cbb 36bd d1d6 afbc 78d2 013b 18f6 71bd
00000090: 1bf1 823c f914 17bc e15a c4bc 4db7 34bd
000000a0: be85 7fbd ea51 09bd bb55 74bc bbbb 2dbd
000000b0: b9ac 21bd 27cc 41bc 42d2 d3ba d5fd 2e3d
000000c0: f6ea 2abc 5db5 cdbd 0a1f 82bd 61c2 023e
000000d0: 323c 1a3d 72ef e3bb b1a3 f13d 5e19 acbc
000000e0: 5044 d7bc 06b4 8d3c 56cf 5b3d 74ff bc3c
000000f0: a5ee 823a 575c 173c 127c e63c 7e3f 923c
00000100: c046 c93d e98f 60bd 74f2 b9bd ec13 823d
00000110: 19ad 4abc 321b 88bd 4ddd 7fbd d72b 20bd
00000120: 2560 a93b 19a6 26bb b4dd e7bb 593a 5dbb
00000130: 63bd 623b 27d9 81bc 8094 a3bd 0347 1cbd
00000140: 11b6 91bd 86b9 0dbe 6466 03bd 42f3 e03c
00000150: 0bcf e8bd 35cf 4f3c c581 eb3c bddc a33c
00000160: 90e5 1a3d 885b fc3c e73a a33c a927 41bd
00000170: 10ac b0bd 7037 773d f667 7b3c 1c41 9abb
00000180: e618 853d 8547 9f3b 488d 86bc 660c 44bd
00000190: 5beb 79bc 1861 063c a045 91bd aedd bcbc
000001a0: 2431 08bd a26b 61bd 3a75 71bc 8c6c 8bbc
000001b0: 8c6c a13d e9ad e53c 5dbc 793d b4c2 383c
000001c0: c18f 513c d8f6 233c 419a 39bb b7da a1bb
000001d0: 8175 d03c d1ce 99bc cfcc 3cbc 8228 cbbc
000001e0: 6f15 8f3c 0bf4 763d 4081 cb3b fb86 f1bd
000001f0: ed2f 693d 866d a53d a27e 59bc 018f cebc
00000200: a71a 2fbb 703a ca39 2e8f c5bc 5a3d 2a3d
00000210: 1b08 853d 268a 243c 8763 713d 841d 213d
00000220: 4aed c83c b2db 743d 9e75 9cbc dc36 c33b
00000230: 9c6b 013c e7e9 cb3c 60f9 403d aede 693d
00000240: 3643 bf3b 218b fbbc 40d2 ccbc 7ff7 44bd
00000250: 113a 42bd c62a ef3a 51a8 04bd 9a47 8a3d
00000260: 0248 ba3d e020 bfbc ba4e 5f3c 8330 7dbd
00000270: b780 f1bc 5a51 e8ba 9fc9 263c a7f6 47bd
00000280: 8151 40bd ddae 01bd 33aa 0fbe 8ed6 833b
00000290: a87b 1cbd ef61 26bd 7181 233d 03c7 c0bb
000002a0: 9812 d93d 7734 0c3d ce43 403d 9e00 74bd
000002b0: 584a 51bd 9714 e2bc 057f 11bd a1f2 8dbc
000002c0: a3a0 e2bc b6f0 23bd e3cd aabc af5a 4ebc
000002d0: 6307 273e 50b2 29bd ed1f 8cbd 511b 333d
000002e0: 68cc 603c f348 c4bc afd3 39bd 18b0 80bb
000002f0: 1a0f bb3c 955c 2d3d b209 36bc a582 e8bd
00000300: daec a4ba ab6d 5c3d 5a18 a33d f95e e33c
00000310: 6bf9 9a3c ff34 2dbd b973 2cbd 2b24 acbc
00000320: 6b6c 353d 4446 953d 5e7b 803c 81ac 7d3d
00000330: 7f0b f33c 16c3 9a3c 6cb8 6c3d f371 e7bc
00000340: 4021 23bc 09eb 69bc 0c75 bfbd 8480 073d
00000350: 7e6b 493d a96a a0bd f54e aebb 1d8c 9f3c
00000360: 37a4 603d 47d6 cd3c 7f93 963d b5f0 d03c
00000370: 5f5b 613c 3115 423d 2989 3b3c f9b4 8b3b
00000380: 02e5 163d da8c ae3d c0aa 6a3d 3042 823d
00000390: e99c 14bc 506a b3ba fca3 323b 7d4b 713c
000003a0: bfce 373d 0849 913d 3f9e 75bd e768 883d
000003b0: d270 063e 53a1 5bbd 84f0 a13c ce43 593d
000003c0: 689a f43c 3257 fb3a 596a 40bd 54e0 27be
000003d0: c2bd 933c 605a 63bc bfd7 85bd ee00 093d
000003e0: eb84 003a 6b27 5ebd d5f9 07bd 8df3 e8bc
000003f0: 9838 813d 67d3 cbba d4b2 783d 3c09 fd3c
-0.03164834 0.080203086 0.04775288 -0.03336364 0.06323507 0.06823093 -0.041192316 -0.023085544
-0.003952315 -0.066079 -0.039817657 -0.02173658 -0.051428616 -0.024466204 -0.024605729 -0.015467822
-0.017330706 -0.014582176 0.034904767 0.03563215 0.05242158 -0.02720508 -0.04183936 0.01254749
-0.08527004 -0.030949956 -0.01624653 0.020802915 0.06718413 0.13526516 -0.065084934 -0.017729089
-0.044612333 -0.021464737 0.0019809287 -0.059072584 0.015984109 -0.009221309 -0.023969116 -0.04412012
-0.062383406 -0.033525385 -0.014913018 -0.04241536 -0.03947136 -0.011828459 -0.0016160684 0.04272254
-0.010431996 -0.10044358 -0.063535765 0.12769462 0.037655063 -0.0069560343 0.117988 -0.02100819
-0.026277691 0.017297756 0.053664528 0.023071028 0.0009989335 0.009238324 0.028135333 0.017852541
0.098279476 -0.054824743 -0.090794474 0.06351456 -0.012370371 -0.06645812 -0.06246691 -0.03910431
0.005168932 -0.0025428592 -0.0070759896 -0.0033756702 0.0034597747 -0.015850617 -0.079873085 -0.03815366
-0.071148045 -0.13840303 -0.03208007 0.027459744 -0.11367615 0.012683679 0.028748402 0.020002717
0.037816584 0.030805364 0.019925548 -0.047156963 -0.08626568 0.060355604 0.01534461 -0.0047074687
0.064988896 0.0048608207 -0.01642479 -0.047863387 -0.015253867 0.00820186 -0.07093358 -0.023054924
-0.03324999 -0.055034287 -0.014737422 -0.017019533 0.07882032 0.028037028 0.060970653 0.01127689
0.012790621 0.010007583 -0.0028320702 -0.004939403 0.025446655 -0.018775376 -0.01152344 -0.024799589
0.017466275 0.06029133 0.006210476 -0.117933236 0.05693047 0.080775306 -0.0132748205 -0.025214674
-0.0026718767 0.00038571982 -0.024116125 0.041562416 0.064956866 0.010042703 0.058932807 0.03933479
0.02452721 0.05977983 -0.019099053 0.0059574675 0.007899191 0.024891807 0.047112823 0.05709713
0.0058368696 -0.03070599 -0.025002599 -0.048087593 -0.047418658 0.0018247 -0.03238708 0.06751938
0.09095766 -0.023331106 0.01362961 -0.061813843 -0.029480321 -0.001772444 0.010179906 -0.04881921
-0.04695273 -0.031660903 -0.1402977 0.0040233796 -0.038203865 -0.04062074 0.039918367 -0.005883099
0.105992496 0.034229722 0.046939664 -0.0595709 -0.05109629 -0.027597709 -0.035521526 -0.017327609
-0.027664488 -0.04002448 -0.020850128 -0.012594863 0.16311412 -0.041429818 -0.06842027 0.043727223
0.013720609 -0.023960566 -0.045367893 -0.003927242 0.02283435 0.04232462 -0.01111071 -0.113530435
-0.0012582794 0.053815525 0.07963629 0.027755247 0.01891776 -0.04228687 -0.04210255 -0.02101334
0.04429285 0.07288793 0.015683826 0.06193209 0.029668568 0.018891852 0.057793066 -0.028252577
-0.009956658 -0.014277228 -0.09348497 0.033081546 0.04917478 -0.07832844 -0.005319471 0.01947599
0.054844107 0.02512659 0.073523514 0.025505403 0.013754695 0.04738349 0.011446276 0.004263517
0.036839493 0.08522959 0.057291746 0.063602805 -0.009070613 -0.00136883 0.0027258387 0.01472747
0.044874903 0.07094008 -0.05996537 0.066606335 0.13128975 -0.053620648 0.019768007 0.05304318
0.029858783 0.0019175767 -0.04697642 -0.16394168 0.01803482 -0.013876528 -0.06535291 0.033448152
0.0004902619 -0.05423681 -0.033197243 -0.028436447 0.063096225 -0.0015550674 0.06071742 0.030888192
