NanoTrack/models/nanotrackv2/nanotrack_head_sim.onnx (onnx, 519424 bytes, 29 tensors)

corr_pw.CA_layer.fc1.weight f4 [64, 64, 1, 1]
000000 3e 99 d6 3c 7e 70 b5 3c 11 59 13 3b 89 03 e1 bb
       0.026196118 0.022148367 0.0022483508 -0.0068668765
000010 f8 93 af bd d8 8d bf bd f7 4f 9b bc eb ea ac bc
       -0.08573145 -0.093532264 -0.018959029 -0.021108111
000020 01 27 02 3d 9a c7 2c 3d af e3 d1 ba 98 e7 85 bd
       0.03177548 0.042182542 -0.001601329 -0.065383136
000030 ca aa 32 bd f5 37 0e bd 81 dc 62 3c 65 bb ae 3c
       -0.04361991 -0.034721334 0.013846518 0.021329591
000040 2d 4c 84 bd ec 73 84 3c 39 aa 9b 3d 81 e1 84 3d
       -0.06459842 0.016168557 0.07600827 0.06488324
000050 cc 78 07 3d 22 35 50 bd a6 aa b7 3d ce 5b 8f bc
       0.033074185 -0.05083192 0.089680955 -0.01749983
000060 e0 df aa 3d b8 d7 7b ba e7 9a d9 bc 1e 92 3d 3d
       0.08343482 -0.0009607035 -0.026563121 0.046281926
000070 d8 a1 a7 3c a5 d6 05 3d 66 83 07 3c de 70 c2 bc
       0.020462915 0.032675404 0.008271074 -0.02373546
000080 ad 7c 55 3d ef 5f 9f 3c ff 06 87 3d 00 6f 69 3d
       0.052120853 0.019454924 0.06593131 0.056990623
000090 c4 f9 e8 3c 70 44 3c bd 4a 14 97 3d c5 b3 be bd
       0.02843941 -0.045963705 0.07376917 -0.09311632
0000a0 e9 62 98 3b 2c bb d7 3d 08 1d 6c 3d 3b be 2f 3d
       0.004650463 0.10533747 0.057644874 0.042906027
0000b0 88 55 43 3c e1 28 7a 3d e5 57 50 bd 26 f0 6b 3d
       0.011922248 0.06107414 -0.050865073 0.05760207
0000c0 5a da 7c 3d fa e1 f1 3d 9a 25 98 bc ba c8 ae 3d
       0.061731674 0.1181068 -0.018572617 0.08534379
0000d0 1a 96 fd 3d 5e 75 cf 3c 6b 9e 36 3d a4 93 78 bd
       0.12382145 0.02532452 0.044584673 -0.060687676
0000e0 03 a6 cd 3d df 5b 0f 3e 34 53 d5 3d f0 f5 dd 3c
       0.1004143 0.1399989 0.1041626 0.027094811
0000f0 a6 ef 20 bd a6 e2 0a 3e 86 45 5d bd 8a 54 f6 3d
       -0.039291047 0.13563022 -0.05402138 0.12027843
000100 44 5c db 3c 27 c9 8d bb 89 ef 88 bd 56 40 63 3d
       0.026777394 -0.0043269577 -0.06686313 0.055481277
000110 2e 5e 60 3b f5 76 c9 bd 14 8d 5f bd 42 5a 36 bd
       0.0034235823 -0.098371424 -0.054577902 -0.04451967
000120 da 55 a3 bd e0 f5 95 39 b7 ec 80 bc 08 d7 d2 bc
       -0.07975359 0.00028602686 -0.015737874 -0.0257373
000130 5b 1c a4 bd f3 d1 b6 3c 84 cc cb bc 72 c8 ff 3c
       -0.08013221 0.022316908 -0.024877794 0.03122351
000140 78 80 34 bd bf 43 d5 3b 20 62 23 bd 79 a6 94 bd
       -0.04406783 0.00650832 -0.0398885 -0.07258315
000150 18 cf d1 bd c5 71 1c 3d b3 63 c5 bd 36 63 5b 3c
       -0.10244578 0.038194437 -0.09638157 0.013390353
000160 02 82 db 3b 15 84 7b 3d 7c fa 3f bb f6 9b b8 bd
       0.0066988477 0.06140526 -0.0029293587 -0.09014122
000170 2c 11 5a 3a e6 05 40 bc 7b c2 d8 bc da 6c a0 bd
       0.0008318599 -0.011720156 -0.026459923 -0.07833262
000180 80 6b 9f 3d 4e b1 6f bd b9 0f a6 bd 5b 04 0d bc
       0.07784176 -0.0585187 -0.081084676 -0.008606995
000190 ae 23 70 3d 0b 1c 53 bd a7 ce db 3c db 63 b4 3c
       0.058627777 -0.051540416 0.026831938 0.022020271
0001a0 39 18 3b bc ee 49 f3 bc fc d7 7f 3d 16 f6 74 bc
       -0.011419349 -0.029698338 0.062461838 -0.01495125
0001b0 5c 19 d3 bd 92 2f fa bc a0 68 b5 bd ab 89 cc bb
       -0.10307571 -0.030540261 -0.08857846 -0.0062419972
0001c0 99 8e ae bd 2a 93 51 bc 7f 47 68 bd 83 12 c2 bd
       -0.08523292 -0.012791434 -0.05670881 -0.09476187
0001d0 f1 b7 01 bd 30 ad 10 3d 7b f4 e0 3c 06 0d 84 bd
       -0.03166956 0.035321414 0.027460327 -0.064477965
0001e0 72 b2 8c bd 76 17 85 bd b3 8f 8d 3d 3e 88 26 3d
       -0.06869973 -0.064986154 0.06912174 0.040657274
0001f0 0b a9 5c bc b4 ac c7 3d 93 f0 3b bd f2 e7 98 3d
       -0.013468037 0.097497374 -0.045883726 0.07466115
000200 cb 4c 80 3d 69 a7 e5 3c 39 8c fb bb 83 38 b9 bd
       0.06264647 0.028033929 -0.007676628 -0.09043982
000210 ed 74 8f 3d be 14 99 bd f3 e4 3e bd d6 2d 99 bd
       0.07004724 -0.074746594 -0.04660506 -0.07479446
000220 dc 32 ab bd 1c eb a6 bd a2 c7 12 3d 7f cb 41 3d
       -0.0835931 -0.08150312 0.035834916 0.04731321
000230 c4 e9 cf bd 46 77 f5 bc 89 fe 51 3d b0 8c 9c bd
       -0.10152009 -0.0299641 0.051268134 -0.076440215
000240 72 b4 15 3d e4 b0 2f 3c d3 14 40 3d e9 17 77 3d
       0.03654904 0.010723326 0.04689486 0.060325537
000250 db 4a 7e bd e1 e9 60 3d 67 73 a3 bd 8c 1e 47 3d
       -0.062083106 0.054910544 -0.079809956 0.048613116
000260 05 59 b0 3c a7 0c ae bd d9 24 c0 bd 0d c2 58 3d
       0.021526823 -0.08498507 -0.09382028 0.052919436
000270 17 17 70 3d e0 2c a5 bd 16 0b 3d bc 62 08 9f 3c
       0.05861577 -0.080652 -0.011538288 0.019413177
000280 6f 74 a9 bc b6 7a 8e 3d ef 53 e0 bc f8 a7 8f bd
       -0.020685403 0.06956999 -0.027383773 -0.07014459
000290 11 f3 4b 3c 56 e9 24 3d 16 86 8a bd 29 18 27 3d
       0.012448088 0.04026159 -0.06763856 0.040794525
0002a0 ba 5d 22 3d c9 44 b8 bb c9 91 eb bd 7a 53 18 ba
       0.039640166 -0.005623434 -0.11502416 -0.0005810779
0002b0 52 e7 cd bd d2 7e 8f bd 9e 79 65 bb 2b ee bc bd
       -0.100538865 -0.07006611 -0.0035015116 -0.092251144
0002c0 86 b3 7a bd 2a 94 99 3d e2 d3 3e 3d dc 38 d6 bd
       -0.061206363 0.07498963 0.046588786 -0.10460064
0002d0 05 8d 47 3c bc 9d b2 3d b3 9a 51 3c 3c cd cc bc
       0.012179618 0.08721492 0.012793231 -0.025000207
0002e0 c4 1f e9 3c d7 d2 9a bd ef ef 62 3d 3c 0d b7 bd
       0.02845753 -0.07559746 0.0554046 -0.08938071
0002f0 a3 cd 9e 3c ca 0f 92 bd 93 1f 04 bd 87 d0 be bd
       0.019385165 -0.07131918 -0.032256674 -0.09317117
000300 e9 da 19 3d 2c 98 b0 bd 92 d7 d9 bc 9a 18 e4 bc
       0.037562285 -0.086227745 -0.02659205 -0.027843762
000310 17 0c 80 3d e9 07 27 3d 24 5d 79 3d 6e bb 7f bd
       0.06252306 0.040779028 0.06087984 -0.062434606
000320 9e 54 6c 3c 14 1d 33 3d 72 15 8a 3d 2a ef e5 bb
       0.014424471 0.043728903 0.067423716 -0.007017036
000330 41 17 13 bc ad 78 b1 3d 47 fe c5 bd 31 3e f1 3c
       -0.008977712 0.08665595 -0.0966764 0.0294486
000340 e6 be 87 3d 15 af 4c bd aa 36 92 bd c0 b8 1f 3d
       0.06628208 -0.04997166 -0.071393326 0.03899455
000350 a3 4b e0 bc 3e 34 8c 3c 1e 29 0a 3d ba 4f 24 3d
       -0.027379816 0.017114755 0.03373062 0.040115096
000360 fd 5d 98 bd 20 bd 85 3d f7 ac 5f 3d 3e 04 85 3d
       -0.07439802 0.06530213 0.05460831 0.0649495
000370 49 a9 0b be 39 66 7f bc 79 88 ca 3c 58 05 a9 bc
       -0.13638796 -0.015588337 0.024723278 -0.02063243
000380 90 3d 98 bb 27 10 80 bd dc 6b d4 bd fe a2 94 bd
       -0.0046460107 -0.06253081 -0.10372135 -0.07257651
000390 e0 29 49 3d 23 72 23 bd 5a 5d a6 bd e6 5e b5 bc
       0.0491122 -0.03990377 -0.08123274 -0.022139978
0003a0 4d 53 8a bc bd e0 ad 3d 54 3e 49 3d ad 09 b5 3c
       -0.016885424 0.08490131 0.049131706 0.02209934
0003b0 48 98 56 bd 18 f9 03 bd a2 90 c9 bd f0 3f 17 bd
       -0.05239132 -0.032219976 -0.0984204 -0.03692621
0003c0 56 05 9a 3d 24 62 c6 bd e3 ab 42 3d 7c 67 e4 3b
       0.07520549 -0.096866876 0.047527205 0.006970344
0003d0 47 ef 96 bc cd 93 99 3c 33 9f 83 bd 52 5b 92 3d
       -0.018424643 0.018747235 -0.06426849 0.07146324
0003e0 2c 68 a5 bd 24 31 5d 3d ba ce 4b 3c 70 92 7a 3d
       -0.0807651 0.054001942 0.012439424 0.06117481
0003f0 89 35 b2 3c 1d 5b 9b bd 8c 23 2e bc a4 bc 8d bd
       0.021754043 -0.07585738 -0.010628592 -0.06920746

corr_pw.CA_layer.fc1.bias f4 [64]
000000 f3 81 42 3d 49 4c 6c bd 9b be 70 bd a6 c4 22 bd
       0.04748721 -0.05768994 -0.058775526 -0.03973832
000010 fa b3 99 bd 3d 3b 54 bd 5c 9d fa bc 8d fe 60 3d
       -0.07505031 -0.051814307 -0.030592613 0.05493026
000020 1f 3e aa bd 4d fe 9d bd 89 af 71 3d 3c a2 da bc
       -0.0831263 -0.0771452 0.059005294 -0.026688688
000030 be 45 a7 3c e0 64 5e 3d 15 8a 76 3d 65 9b 08 bc
       0.020418998 0.05429542 0.06019028 -0.00833783
000040 63 26 ae 3d a0 ac ef bc 51 a3 d6 3c 7d 4e b3 bd
       0.085034154 -0.029257119 0.026200922 -0.08755205
000050 28 f7 ae bc 71 62 f2 bc 86 4b 99 3d 65 f3 92 3d
       -0.021358088 -0.029587956 0.07485108 0.0717533
000060 39 9e 11 3d f9 d7 16 bd 69 7c 54 bd d3 85 94 bd
       0.035551284 -0.03682706 -0.05187646 -0.072520874
000070 1e 2f a6 3d ae 65 8d bd 3d 22 b2 3a be 77 97 bd
       0.08114456 -0.069041595 0.0013590526 -0.07395886
000080 af 68 76 3d cf 7e b7 bc 8c b0 16 bd 0c 7a 43 bc
       0.060158428 -0.022399334 -0.036789462 -0.011930954
000090 e4 43 a9 3c ad cf 8e 3b 2e a1 24 3d a7 67 6a 3a
       0.020662256 0.004358253 0.040192775 0.0008941837
0000a0 4a 4c c1 3b 06 28 c8 3d 71 04 ac 3d 20 73 07 3d
       0.005898987 0.09773259 0.08399285 0.033068776
0000b0 68 1b 97 3d 5c b0 10 3d f5 f5 bb 3d 8a 4a b7 bc
       0.07378274 0.03532444 0.09177772 -0.02237441
0000c0 05 d5 b4 bd dc 5c 36 bd 4d 77 a3 3b 52 48 a8 3d
       -0.08829693 -0.04452215 0.004988587 0.08216919
0000d0 df 41 9b bc 6b a4 bd 3d 63 b1 49 bd c7 eb 41 3d
       -0.018952308 0.09259876 -0.049241435 0.047343995
0000e0 b6 be bf bc 4a 36 c8 bc e6 40 83 3d 31 0d 86 3c
       -0.023406368 -0.02443995 0.06408863 0.016363712
0000f0 97 5b e1 bc 72 93 e2 bc af 4d 92 3d 67 4c ad 3d
       -0.027509494 -0.027658198 0.07143723 0.08461838

corr_pw.CA_layer.fc2.weight f4 [64, 64, 1, 1]
000000 fd 82 d9 bd a9 d7 8e 3c b8 7d 89 3d 45 c7 15 3d
       -0.10620687 0.01743682 0.06713432 0.03656699
000010 61 58 00 be 10 0f 8e 3c a9 39 c9 bd fc 5c aa bd
       -0.12533714 0.017341167 -0.09825451 -0.083185166
000020 9d 4f a5 bc 04 fe e5 bc f5 93 71 bd c6 af 96 bd
       -0.020179564 -0.028075226 -0.058978993 -0.07357745
000030 29 03 73 3d a1 21 f3 bd c0 eb 8a bd f3 2f 3c 3d
       0.059329186 -0.118716486 -0.06783247 0.045944165
000040 ac 75 19 bd 1c 76 95 bd 35 71 ae bd 4d 8e 10 3d
       -0.037465736 -0.07297918 -0.08517686 0.03529196
000050 c3 f8 c7 3b f4 1c c7 bd 75 6c 92 bd 36 42 aa 3c
       0.0061026528 -0.09722319 -0.07149593 0.020783525
000060 5b 2e 8a bd 7b 23 22 bd b1 39 50 bc cf c8 48 3d
       -0.06747123 -0.039584618 -0.012709067 0.04901963
000070 ec e6 9a bc 8c 4c 9b bd 94 46 62 bd 10 42 84 bd
       -0.01890894 -0.075829595 -0.05524309 -0.06457913
000080 02 cd 8a bd d6 6e 24 3d 40 63 ca 3d 1a 23 4d 3d
       -0.067773834 0.040144764 0.09882212 0.050082304
000090 c7 f5 a2 bd 73 72 c4 bd 1c 26 09 3d 2a c8 0d bd
       -0.079570346 -0.09592142 0.03348361 -0.03461472
0000a0 d1 52 1e bd 18 28 8e bd ce 63 cd 3c bc fc 4a bd
       -0.0386532 -0.06941241 0.025072005 -0.049557433
0000b0 7c ba ee bd 71 a6 d6 b9 0c 0b 15 3d 73 92 8c 3c
       -0.11656663 -0.0004094127 0.03638749 0.017159676
0000c0 49 05 be 3d 41 18 83 3d 47 9e a5 3d b1 b7 27 bc
       0.09278352 0.064011104 0.0808683 -0.010236667
0000d0 99 72 1c bd 53 b5 0e be 6a ee 53 bc e4 58 08 3d
       -0.038195226 -0.13936357 -0.01293526 0.033287898
0000e0 a8 20 80 bd 53 e6 d8 bd 36 74 ee 3c 89 bd c9 bd
       -0.06256229 -0.10590806 0.029108148 -0.09850604
0000f0 9c 22 3e bd 31 0c 87 3d f6 8a b0 bc e2 d6 c8 bc
       -0.046419725 0.06594122 -0.021550637 -0.024516527
000100 91 0a 25 3e d9 90 11 3d 86 0a 9a bd 70 bc 9f bc
       0.16117312 0.035538528 -0.075215384 -0.019499034
000110 ba e8 f9 3d 6e db c9 3c ce 37 ee 3c ff 90 ba 3d
       0.12202592 0.024640765 0.029079344 0.09109687
000120 73 90 c7 3c 8a 51 e6 bc 4e 46 79 ba 63 7c b7 bd
       0.024360871 -0.028115053 -0.00095090724 -0.08959272
000130 2d c9 0e 3e c9 91 2b 3c ac e7 15 3e 27 37 29 3c
       0.1394393 0.01047177 0.14639157 0.010328091
000140 c5 75 93 bc 6f 07 41 bd 67 40 0e bd 7d 24 89 3d
       -0.018000493 -0.04712623 -0.034729388 0.06696413
000150 7d 59 9d bd 69 86 09 bd 30 e3 75 3d d2 d6 e7 bc
       -0.07683084 -0.03357545 0.060031116 -0.028300676
000160 d6 69 8f 3d dd d7 c1 bd 81 ce 83 bd 42 00 38 3d
       0.070026085 -0.09465001 -0.06435872 0.04492212
000170 b3 2c 01 bd 82 98 93 3d 0e db 1a 3d 15 3e 54 bd
       -0.03153677 0.07206823 0.037806563 -0.05181702
000180 ab ab 52 bd b4 00 8a 3d 3b 8d 30 3c 6f f2 8f bc
       -0.051433247 0.06738415 0.0107758595 -0.017571656
000190 d7 bf 5b bd 33 56 de 3d dc a4 7f bd 29 09 0f 3e
       -0.05364975 0.10856285 -0.06241308 0.13968338
0001a0 14 c2 98 bd 9c a4 3e bd 75 a5 85 3c 69 83 d7 3b
       -0.074588925 -0.046543702 0.016314248 0.0065769446
0001b0 0f 5f c0 bd 29 b6 5e 3d 48 79 9a bc b7 85 b4 3d
       -0.09393131 0.05437294 -0.01885666 0.088145666
0001c0 5b 67 44 bd 8f b9 87 bc 78 c5 53 3d 94 98 36 bd
       -0.04795013 -0.016567973 0.051701993 -0.044579104
0001d0 ed bf 3b 3d 04 38 b0 3d 2f 59 82 3b bb 55 5d bd
       0.04583733 0.08604434 0.0039779167 -0.054036837
0001e0 02 09 70 bc bc 01 96 3d 85 48 b9 3d 37 07 a0 3d
       -0.014650585 0.073245496 0.09047035 0.07813876
0001f0 fd 17 c9 3c ce 02 8c bd e7 6b 22 bd 3d a6 85 3d
       0.024547571 -0.068364725 -0.039653685 0.06525848
000200 b4 52 8c bd c1 22 72 3d 37 fc 91 bd 58 1e 03 bc
       -0.06851712 0.059115175 -0.07128184 -0.00800284
000210 cb 83 47 bd 2d e5 b6 bd 2a 54 d8 3c 7b 47 af bc
       -0.048709672 -0.089304306 0.02640732 -0.02139639
000220 aa 93 8e bd 28 3e 0c 3d 0c d1 a0 bc ef 55 50 bd
       -0.069617584 0.034238964 -0.019630931 -0.050863203
000230 62 d5 ee bd b0 ba d7 b9 b9 0c 2c 3b 2c ce 93 3b
       -0.11661793 -0.0004114709 0.00262527 0.0045106616
000240 8a 7e b3 bc ae 86 96 bd f6 08 af 3c 49 a3 72 bd
       -0.021910924 -0.07349907 0.021366578 -0.059237752
000250 5d c6 00 3d 42 f8 78 bc a9 a2 9c bd c2 0c 13 bd
       0.031439174 -0.015195908 -0.076482125 -0.03590084
000260 39 a0 9c bc f2 41 34 bd 84 8a c3 3c 6b 6f 97 3d
       -0.019119369 -0.044008203 0.02386976 0.07394298
000270 f1 87 c6 bd d1 12 f4 bc 3b 3b fd bc 2e 29 9d bd
       -0.096938975 -0.029794129 -0.030912032 -0.0767387
000280 30 e8 99 3d a9 45 b2 bd 9e 70 0d 3d 85 3c 1d 3d
       0.075149894 -0.08704693 0.03453123 0.038387794
000290 33 f5 93 3d 32 c3 5a 3d 2e 72 e0 bd 9b 5a dc bd
       0.072245024 0.05340881 -0.10959278 -0.10759469
0002a0 b3 ff 09 3d e7 24 ac bd 04 24 9f 3c 56 9c 9b bd
       0.03369112 -0.08405476 0.019426353 -0.07598178
0002b0 6b d7 3b bd f5 47 4d bd cc 22 bb bd 40 fc 76 3d
       -0.045859735 -0.05011745 -0.09137496 0.060299158
0002c0 d0 88 14 3b 70 ad 31 bd 48 62 90 bc dc e2 82 3d
       0.0022664554 -0.043378294 -0.01762499 0.06390926
0002d0 c5 68 2c bd 5e 5c bd bd 76 59 49 3c 8a 40 26 bc
       -0.042092104 -0.09246133 0.012289396 -0.010147223
0002e0 e3 c5 8a bd 0e 5c 9c 3d 0a b7 a0 bd b6 f4 ba 3c
       -0.06776025 0.076347455 -0.07847412 0.022821765
0002f0 53 df 16 bc 00 3a bf 3c 9c 54 89 bd d5 19 50 bd
       -0.009208518 0.023343086 -0.06705591 -0.050805885
000300 04 b1 e9 3d 71 c7 24 bd b0 db 74 3d 25 e8 47 bd
       0.11410716 -0.040229265 0.059779823 -0.048805375
000310 37 7b a8 bd ef a2 86 bd 3f 30 ae bd ed 0b 9d 3d
       -0.08226626 -0.06574046 -0.08505296 0.0766829
000320 8c 1b 4e bd ae 5b 29 bd 08 6d 94 3d 12 98 7f bc
       -0.05031924 -0.0413472 0.072473586 -0.015600221
000330 4c b4 e6 bd ae e9 43 bc b5 c7 a5 bd 95 1c ae 3d
       -0.11264858 -0.011957569 -0.08094732 0.08501545
000340 ef a5 b5 bd 53 57 22 bd c2 19 85 3d 50 c7 c5 3d
       -0.0886954 -0.03963406 0.064990535 0.096571565
000350 2d 5f ec 3b 13 45 7e 3b d2 3e 1c bc d9 16 59 bc
       0.0072134943 0.0038798496 -0.009536462 -0.013250076
000360 66 d9 8c 3d 88 d4 b2 bd bd ba 5f bc 80 a5 9c 3b
       0.06877403 -0.08731943 -0.013655362 0.0047804713
000370 37 02 a2 3d e4 5c b6 3d fd 42 a3 3d 2d f4 bc 3c
       0.07910579 0.08904436 0.079717614 0.02306565
000380 71 6e 39 bc 37 48 0c 3d dc 38 53 bd 99 f8 8d bc
       -0.011317835 0.034248557 -0.051567897 -0.017330455
000390 31 bd ae bc 67 a5 99 3d a7 4b 7f 3d 5f 3d 88 bd
       -0.021330448 0.07502251 0.062328007 -0.066523306
0003a0 39 7b 39 3d 46 2f e7 3c 3b 61 4e 3d 01 eb 96 bd
       0.04528353 0.028220784 0.050385695 -0.07369042
0003b0 1a 43 b0 bd ac 93 c0 bc 3f 4d 3e ba 71 7e ce bc
       -0.086065486 -0.023507915 -0.00072594354 -0.025206776
0003c0 fc f0 af bd c7 0a 34 bb c6 b7 91 bc 72 a1 6c bd
       -0.08590886 -0.0027472244 -0.017787825 -0.057771154
0003d0 df 22 82 bd 9c 8e 6d bd 83 d2 71 3c f3 4b cc 3d
       -0.063543074 -0.05799733 0.014759663 0.09975424
0003e0 37 f1 d1 bc 36 c3 a9 3d 81 e5 34 3d b4 48 7e bd
       -0.025627716 0.08289187 0.044164184 -0.062081054
0003f0 fd ba 0f bc 49 aa b1 bd e4 fb cb 3d 64 0e 95 3d
       -0.008772609 -0.086750574 0.09960154 0.072781354

corr_pw.CA_layer.fc2.bias f4 [64]
000000 8f c9 86 bd f5 38 ce 3d 0a ec a6 3d f8 af a0 bd
       -0.06581413 0.100694574 0.0815049 -0.078460634
000010 19 36 aa 3d 11 bf 35 3d 7b 3a 44 bd 95 28 ad bd
       0.083110996 0.04437167 -0.047907334 -0.08455006
000020 c3 98 80 bd 39 a6 79 bd 7f 7a 97 3d 3c 3b 1b bd
       -0.06279137 -0.060949538 0.07396411 -0.037898287
000030 ec 58 8b 3d f1 91 af 3d 64 e7 ae bd fc 6d b8 bd
       0.0680407 0.08572758 -0.08540228 -0.09005353
000040 d5 2b c4 3d eb 19 b5 3b 06 cd a5 3d 48 f7 93 3d
       0.09578673 0.0055267713 0.08095746 0.072248995
000050 07 5e b2 bd d6 33 3f bd c5 56 9d 3d f3 b9 67 bd
       -0.087093405 -0.046680294 0.076825656 -0.05657382
000060 62 ab 9c bc 5a 74 b8 bd 06 cc a8 bd af cc c5 bb
       -0.01912469 -0.09006567 -0.082420394 -0.006036363
000070 d5 2a 33 39 98 3f 62 bd d3 11 7c 3d 32 be 94 bd
       0.00017086726 -0.05523643 0.061540436 -0.072628394
000080 2d e0 af bc a8 5d a4 3d 56 83 9a 3c 40 7a 23 bd
       -0.0214692 0.08025676 0.018861454 -0.03991151
000090 57 54 b4 bd 32 de 45 bd 4b 3c 7f bd 55 87 3c 3c
       -0.08805149 -0.048307605 -0.06231336 0.011506875
0000a0 e7 62 27 3c 6c 72 58 3d 7a 77 13 3b c9 fd 90 bc
       0.010216451 0.052843496 0.0022501634 -0.01769914
0000b0 59 e0 b6 3c d3 f5 4d bd 28 dc 99 bb ad 30 9f 3c
       0.022323774 -0.050283264 -0.004695434 0.01943239
0000c0 ae 22 86 3d a8 ba b2 bd 28 e8 38 bc 27 11 c4 3d
       0.065495834 -0.08727008 -0.011285819 0.09573584
0000d0 cb e8 03 bc 29 1d f2 3c c7 ec 0c bd d6 93 f3 3c
       -0.008051108 0.02955492 -0.034405496 0.02973358
0000e0 13 c4 14 bd f4 e3 b9 bd 09 76 04 bc bb b3 98 bc
       -0.036319803 -0.09076682 -0.008084782 -0.01864039
0000f0 9c f8 fc 3c f5 8b 4b 3d f8 b5 2b 3d cd 5a b5 3d
       0.030880265 0.04969402 0.041921586 0.088552095

cls_tower.0.weight f4 [64, 1, 5, 5]
000000 7b 07 47 3d b1 ac 0a 3d b4 e0 a8 3c 4e b5 d4 39
       0.04859112 0.033856098 0.02061496 0.00040570874
000010 b0 ca bd 3b 8d 78 2a 3d e1 3a 10 bb 58 da 84 bc
       0.0057919845 0.041618872 -0.002200775 -0.016217396
000020 58 a6 01 3c 51 ec cc bc 15 e5 48 3c 5a ae ab bc
       0.007913195 -0.025015028 0.012261649 -0.02095716
000030 c9 6c c0 bc 39 31 3c bd db 04 3c 3b ac b8 2e 3d
       -0.023489373 -0.04594538 0.0028689418 0.042656586
000040 22 50 ca 3c 25 6c 90 3c 34 7c ad bb 38 44 2e bd
       0.024696413 0.017629692 -0.005294347 -0.042545527
000050 0b eb cb 3c 73 2c 93 3d cf f7 6d 3b 66 66 86 3c
       0.02489235 0.071862124 0.0036311036 0.01640625
000060 92 fd ed bc 67 4c 40 3e aa a1 ad 3d 24 41 bb 3d
       -0.029051576 0.18779145 0.084781006 0.09143284
000070 3a 45 0d 3c 2f 1d b5 bd 43 ac 50 3e 8b 79 a2 3c
       0.008622462 -0.08843457 0.20378213 0.019833347
000080 56 4b 17 bd 16 69 d9 3c a2 3c 14 3b bb 55 61 3d
       -0.03693708 0.026539367 0.0022619148 0.0550134
000090 04 c3 5e bd d9 17 1b be 07 fc ed 38 eb fc 0a bd
       -0.0543852 -0.15145816 0.000113479844 -0.033932608
0000a0 70 a7 b4 bd 2f 0a 04 be 48 80 48 bd bb f0 e7 bc
       -0.08820999 -0.1289451 -0.048950464 -0.028313031
0000b0 42 f9 5e 3c da 10 8a 3b 7d 07 35 3c 23 6d b6 3b
       0.013609232 0.0042134346 0.011049149 0.0055672093
0000c0 06 01 a8 bd c5 b8 e9 bd 1e 0a 1f 3d fb 88 0e bc
       -0.0820332 -0.11412195 0.038828008 -0.008699651
0000d0 66 94 d8 bc 17 60 70 3d b5 36 19 3c 90 cd 7c bc
       -0.02643795 0.05868539 0.009351422 -0.015429869
0000e0 2d 06 ca 3b 6a e1 15 bb f7 3e 33 3d 9c b7 f4 3c
       0.006165287 -0.0022869953 0.04376122 0.029872708
0000f0 3c 71 22 3d 29 36 11 bd 49 03 07 bc da 57 14 3c
       0.03965877 -0.03545204 -0.008240529 0.009054149
000100 d0 cf 39 bd 0c eb b2 bc b8 15 34 3d f1 33 ac bb
       -0.0453642 -0.021840595 0.043966025 -0.0052552153
000110 fc 0a 8d bc 5f b8 85 bc cd 74 9f 3c 1c e9 5a bc
       -0.017217152 -0.016323267 0.019464875 -0.013361242
000120 dd 94 80 bd a2 df 6f bd a3 6b 23 bc fb 9e 41 bb
       -0.062783934 -0.058562882 -0.009974393 -0.0029544223
000130 95 db 81 bc 70 a6 43 bd a6 b4 28 bc 37 5b 06 bc
       -0.015851775 -0.04776615 -0.010296976 -0.008200458
000140 07 fb 3c 3c d6 b1 88 3c 1b 24 28 3d e1 bf 28 3d
       0.011534459 0.016686361 0.041050058 0.041198615
000150 48 f5 ed 3b 55 cd 06 3d 39 7f 95 ba 8f 35 62 3c
       0.007261906 0.032910664 -0.0011405713 0.013806715
000160 f8 f1 1e 3b 2a 82 26 bd 95 74 4d 3c cc 5e 69 bc
       0.0024253111 -0.040651478 0.012540002 -0.014243793
000170 21 09 36 bc c0 cd e9 3c 34 c2 ad bb 9d e4 9c 3c
       -0.011110575 0.028540492 -0.005302692 0.01915198
000180 e1 15 ae 3c e9 65 ba 3b a4 d7 50 3c 3b f4 9f 3d
       0.021250667 0.005688418 0.012746725 0.07810255
000190 93 39 ab 3c 9a 40 03 bd 4c 91 02 3d 2a bf b4 bc
       0.020901477 -0.03204403 0.031876847 -0.02206381
0001a0 28 3c 07 3c d8 a2 a5 3d b3 ba 16 3c 08 aa 2f 3d
       0.008254088 0.080877006 0.009199786 0.042886764
0001b0 2b 88 4f 3c 99 9f f8 3c ec 4b 96 bc 31 c1 a6 3b
       0.012666742 0.03034954 -0.01834675 0.005088948
0001c0 b2 d5 fd 3c bd ce 9d 3b 7c 30 0d 3b 6a cd 72 3c
       0.030985687 0.004815905 0.0021543792 0.014819482
0001d0 17 30 d7 3c 0e b1 02 3c 3d 5c 15 3c 28 bb 31 3c
       0.026268048 0.007976783 0.00911623 0.010847844
0001e0 42 0a b7 3c d2 27 57 bc 47 47 86 3d fb 58 e4 ba
       0.022343758 -0.0131320525 0.06556564 -0.0017421538
0001f0 29 08 9d bc c6 d9 a2 3d cd 18 fa 3d e8 e9 2c 3e
       -0.01916893 0.07951693 0.122117616 0.16886103
000200 a0 49 27 3e 89 29 28 3e 1f d6 52 bd 90 a2 f8 bc
       0.1633668 0.16422094 -0.051473733 -0.030350953
000210 90 9b ec bd f9 1b d8 bc a3 13 1b 3d 72 8c ec 3c
       -0.11553109 -0.026380526 0.037860524 0.028875563
000220 44 c1 20 bb d0 97 cb bd ac 2d c8 3b 35 b1 06 bc
       -0.0024529258 -0.09941065 0.00610896 -0.00822096
000230 3d a9 ad 3d c9 f6 88 3d ff 68 50 3c 9a 2a 00 bd
       0.08479545 0.066876955 0.0127203455 -0.031290628
000240 48 9f 10 3d 1f 23 01 3d 4c 39 67 bc 32 a8 3a 3d
       0.035308152 0.031527635 -0.014112782 0.04557056
000250 d6 07 62 bd a8 57 60 bc ab 2f f0 3d 34 96 1c bc
       -0.055183254 -0.013692774 0.11727842 -0.009557296
000260 91 b0 1a 3d 5b d1 59 3d 03 fa a5 3b 07 07 05 bd
       0.037766043 0.053178173 0.005065204 -0.032477405
000270 95 8e 0a bd 46 98 aa bd 75 cd 74 3d 8e 87 9d bc
       -0.033827383 -0.08329825 0.05976625 -0.019229677
000280 03 f4 d5 bd 84 62 c9 3d fe 31 9e bd 31 09 45 3d
       -0.10446932 0.098332435 -0.07724379 0.04810447
000290 bc 6b cd bd 6b 0a 6c bd 9c aa f2 3d c2 65 04 be
       -0.10030314 -0.057627123 0.118489474 -0.12929443
0002a0 1e ac 68 bc 13 f9 8a bd 8d a7 2b bd 7d 2c d2 bb
       -0.014201192 -0.067857884 -0.041907836 -0.006413995
0002b0 78 df bf bd 1b 7b 94 bc 83 4f 2c bd 5b 91 51 be
       -0.09368795 -0.018125108 -0.042068016 -0.20465605
0002c0 90 9d 3b bd 5a 02 2c be dd 53 37 3d 95 d6 6a 3d
       -0.04580456 -0.16797772 0.044757713 0.057333548
0002d0 9b 65 9a bd 1b 5c 86 b9 4b d7 14 3d 23 98 6a 3d
       -0.07538911 -0.00025627096 0.036338132 0.057273995
0002e0 fb 13 83 3d 26 53 c0 bc 06 92 07 3d cc 10 c5 3c
       0.06400295 -0.023477148 0.033098243 0.024055861
0002f0 e4 10 7b bc 0f c2 2b bd bc 52 e3 3d 5b f6 01 3d
       -0.015323851 -0.041933116 0.11099765 0.031729084
000300 91 8b 8e bd 80 2a d0 bc 7f a1 a1 bd ef 2f b2 bd
       -0.06960214 -0.02541089 -0.07892131 -0.08700549
000310 91 e0 7b bc ad 4b 8d bd 28 4e 93 bd 23 42 48 3c
       -0.015373365 -0.068992 -0.071926415 0.0122227995
000320 ab 6a 21 be cb a9 c7 bd d8 00 1f bd 2c a0 18 bd
       -0.15763347 -0.09749182 -0.038819164 -0.037262127
000330 e3 20 d4 3d d9 5d 41 be 76 b5 96 3c 36 d7 12 3c
       0.10357835 -0.18883456 0.018397074 0.008962443
000340 b9 d0 f5 bc 64 36 b4 3d dc 22 0f bc 36 f3 8f 3d
       -0.030006753 0.08799437 -0.0087363385 0.07028811
000350 a5 fa 2a 3d 57 33 80 3c be 88 e2 3d 2e 80 8c 3c
       0.04174294 0.01564948 0.11061238 0.017150965
000360 9a 6c 02 3e 75 7a 2f bc 0a 6d 30 bd 3e 46 5a 3d
       0.1273674 -0.010710348 -0.043072738 0.053289644
000370 11 63 fb 3c fd 1e 5f 3d b4 6f cc 3d 12 f2 b8 3c
       0.030686887 0.054472912 0.09982243 0.022576366
000380 d1 23 b9 3c 88 65 f1 bd 4d ff d5 bc 91 f9 21 bd
       0.022600086 -0.11786944 -0.026122713 -0.039544646
000390 b8 ba 53 bc 6b 6e 77 bc 91 db ce bb 63 16 85 bd
       -0.012922935 -0.015102009 -0.0063127954 -0.064984106
0003a0 45 f9 51 bd 0d 63 ae 3a 28 95 2d bd e2 06 b6 bc
       -0.051263113 0.0013304666 -0.042378575 -0.022220079
0003b0 85 fe 8e 3c 17 8b 53 3d 20 04 1c 3c 7e 72 fe bb
       0.017455349 0.05164632 0.009522468 -0.0077651134
0003c0 bd 65 8f 3c 30 cd 85 bb 12 1f bb bb 01 22 52 3d
       0.017504567 -0.004083298 -0.005710491 0.05130196
0003d0 29 43 11 3d c1 93 0a bc 6d e5 dd bc 8b 5b a8 bc
       0.03546444 -0.008458079 -0.027086938 -0.020551464
0003e0 13 9a 42 bd 96 39 b2 bc 2d 72 d2 bc 6d 1d 84 bd
       -0.047510218 -0.021755975 -0.025689209 -0.06450925
0003f0 ca f9 63 bd 7c e7 9b bc af f3 39 bd 59 e8 53 bc
       -0.05565814 -0.019031279 -0.04539841 -0.012933814

cls_tower.4.weight f4 [128, 1, 5, 5]
000000 81 3b ba 3d 5e ff ac 3c db e9 49 bd bf f4 54 3c
       0.09093381 0.021117862 -0.049295288 0.012997805
000010 86 91 94 3d 10 64 69 3c cd 16 de bc a3 16 d8 bd
       0.07254319 0.014245048 -0.027110482 -0.105511926
000020 df 81 bf bc 94 98 88 3c 7a 05 9b bc 52 eb d2 3a
       -0.023377357 0.016674317 -0.01892351 0.001609186
000030 f5 00 3a bd 13 32 88 3d 95 dd 16 3d 74 3a 8a bd
       -0.04541107 0.06650176 0.03683241 -0.0674943
000040 aa c1 00 bd 11 de 0a bd 10 9d 3c 3d ed 41 b5 3d
       -0.031434692 -0.033903185 0.046048224 0.08850465
000050 c5 26 e0 3d b0 0c 5c 3d c2 97 a1 3c 07 81 7f 3d
       0.10944895 0.053723037 0.019725684 0.06237891
000060 74 ea 14 3e c6 f1 be 3d 16 6b 95 3c 8a 2a a8 3c
       0.14542562 0.093234584 0.01823954 0.020528097
000070 7f 99 3e 3d fe 07 b0 3d ba e6 12 3e 52 35 30 3d
       0.046533104 0.085952744 0.14345828 0.0430196
000080 d0 88 50 3b f6 a7 c4 bc ce 90 35 3b 7d 04 67 3e
       0.0031819828 -0.024005871 0.0027704719 0.22560306
000090 c0 c6 ae 3d 20 af fa 3b e9 07 93 bd ab 9b 60 3c
       0.08534002 0.007650271 -0.07179243 0.013708989
0000a0 9e 35 5b 3e 64 76 e3 3d 3a d0 e4 3c 14 56 c4 3b
       0.21407172 0.111065656 0.027931321 0.0059917066
0000b0 d9 55 8f 3d 76 a7 62 3e cb 6b b1 3d 86 9e 3c bd
       0.06998796 0.22134194 0.08663138 -0.046049617
0000c0 8d 28 48 bd af 90 45 3d 5c f8 84 bd 82 ec db 3c
       -0.048866797 0.048233684 -0.06492683 0.026846174
0000d0 e4 ee 10 3b c4 12 99 3b 93 b7 1d bb 25 2c 03 bd
       0.0022115046 0.0046714265 -0.0024065718 -0.03202452
0000e0 c4 7d 91 3c da a1 16 3d 4a a8 1b bd 09 12 c9 bc
       0.017760165 0.036775447 -0.03800229 -0.024544733
0000f0 03 0c 5e bd aa 31 64 3d b0 ae 89 3d c9 bf 8e bd
       -0.054210674 0.055711426 0.06722772 -0.06970174
000100 58 fe 5b bd 97 0e 83 bd ec 7e 7c 3d 15 c6 e6 3d
       -0.053709358 -0.06399267 0.06164448 0.1126825
000110 23 19 e2 3c a7 8d 50 3d d8 14 1f be a1 a9 b7 bd
       0.027599877 0.05091634 -0.15535295 -0.08967901
000120 37 95 b6 bc 9a 19 c9 3c 90 38 b1 3c 1e 3a 1c 3e
       -0.022287948 0.02454834 0.021633416 0.15256545
000130 96 77 86 3c 85 ef 03 3d f0 5a 4f 3d 20 13 03 be
       0.016414445 0.032210846 0.050623834 -0.12800264
000140 26 fa 3a 3d 9b a9 73 bc 90 c1 8e bc 4e d9 da 3c
       0.045648716 -0.01487198 -0.017426282 0.026714947
000150 b7 8c 29 be 46 c1 cc 3c bf 61 65 bc 36 1a 8d 3c
       -0.16557585 0.024994504 -0.014000355 0.017224412
000160 f6 f3 c1 3d f2 81 20 be 24 15 a4 3d 3b 3c 25 bd
       0.0947036 -0.1567457 0.08011845 -0.040340643
000170 69 52 c3 3c 36 bd bd 3d ce fb ff bd 57 cb b8 3d
       0.023843007 0.09264605 -0.124992 0.09023159
000180 2a 45 b2 3c 59 e0 e7 3c 9e 93 c3 3d 9f 8f d9 bc
       0.021761496 0.02830522 0.0954964 -0.026557742
000190 41 be 87 bd d7 f3 48 bd 38 de 28 bd e4 25 f1 bd
       -0.06628085 -0.04906067 -0.04122755 -0.11774805
0001a0 b9 a9 54 be 52 00 89 bb f0 7e 58 bd bc ea c0 3c
       -0.20767869 -0.0041809464 -0.052855432 0.02354943
0001b0 30 e3 d3 bd 48 2f 1d be ab 14 12 bd 6d a2 94 bb
       -0.10346067 -0.15350068 -0.03566424 -0.004535964
0001c0 75 59 4e 3a 72 23 94 bd 30 99 bb bd 28 cd d5 bc
       0.00078716065 -0.07233323 -0.091600776 -0.026098803
0001d0 fa 1e 90 3d ec c3 bb 3c 65 df 60 bc 3f df 19 bd
       0.07037158 0.022920571 -0.013725136 -0.03756642
0001e0 24 27 14 bd b9 9a dd 3a 4f d9 84 3c f6 53 be bd
       -0.03617014 0.0016907073 0.016216902 -0.09293358
0001f0 f8 93 cf bd f0 a8 ee 3d 7a ed a1 3d 6b 2d 60 3d
       -0.10135645 0.11653316 0.07906623 0.054730814
000200 c5 a7 9d 3d 9b c7 cf 3d c2 8a 21 3c 0d a4 92 bb
       0.07698015 0.101454936 0.009859743 -0.004475123
000210 06 02 04 bd cb 8d e2 bc 38 1a 10 3c 1f 0d 83 3c
       -0.032228492 -0.027655503 0.008795314 0.015997468
000220 85 7e 9b 3d ad 87 14 3c 44 7c af bb bd 22 ec 3c
       0.07592491 0.009065551 -0.00535539 0.028825158
000230 a2 33 0b 3d 9f bd 26 3d 2f b8 e5 bb fe 15 34 bd
       0.033984788 0.04070818 -0.007010482 -0.043966286
000240 fb f0 94 3c 89 9c 05 3d 19 80 e6 bb fa 92 b1 bd
       0.018181315 0.032619987 -0.0070343134 -0.08670612
000250 5d 7f 6a bd 88 02 07 bd 6c 75 42 be 51 48 82 bd
       -0.05725037 -0.0329614 -0.18990105 -0.063614495
000260 fd 66 f2 bc 13 ee 0c be 9e 33 f0 bc 97 f4 86 bd
       -0.029590124 -0.13762693 -0.029321488 -0.065896206
000270 e7 d6 ee 3d 89 bb 85 3d 44 55 e1 bc 0b d0 92 3c
       0.11662083 0.0652991 -0.027506478 0.017921468
000280 ca 92 2c bd fe af 3b 3d 71 52 db ba b5 44 fc bc
       -0.042132176 0.045822136 -0.0016732943 -0.03079448
000290 44 a7 05 bc 9a 58 ab 3c 94 97 1d 3c 6d 9f 00 bb
       -0.008157555 0.020916272 0.009618659 -0.0019626275
0002a0 fe f1 42 bc 9e 5a d3 3c 7d a6 ed 3d d0 20 d7 3d
       -0.011898516 0.025800046 0.11604021 0.10504305
0002b0 35 84 d9 3d 5a 45 db 3c 02 d6 59 3d d7 f9 2a 3d
       0.106209196 0.026766468 0.05318261 0.041742172
0002c0 0c f3 8a 3d 92 04 1a 3c e9 ca cf bc f5 05 9d 3d
       0.06784639 0.009400504 -0.02536531 0.07667152
0002d0 68 3c a9 3c dd db 59 3d 19 c9 d3 bb b6 b1 96 bc
       0.020658687 0.053188194 -0.0064631817 -0.018395286
0002e0 8f 7a f8 3c d7 65 90 3c b8 41 fd 3c b9 00 04 ba
       0.030331878 0.017626686 0.030915126 -0.0005035508
0002f0 6c ce 87 bd cb 68 1f bc 8a 30 54 3b 5d 22 d7 bb
       -0.06631169 -0.009729574 0.0032377564 -0.0065653757
000300 46 13 90 bc 11 48 8b bd 2d cc 23 bd 11 b7 88 bd
       -0.017587315 -0.06800855 -0.03998964 -0.06675542
000310 30 70 14 bd 86 e4 c4 bc 47 aa 66 bd 78 9e 15 bd
       -0.036239803 -0.02403475 -0.056314733 -0.03652808
000320 fb c0 2d be 26 dd 2a be 2e 34 42 be af 09 b4 3c
       -0.16968147 -0.16685924 -0.18965217 0.021977274
000330 17 10 3b bc de a1 91 bd f9 a2 7d bd be 74 85 bd
       -0.01141741 -0.07110952 -0.061923 -0.065164074
000340 4f 0f 93 3d 4c 51 50 3d 4e ee b7 bd 53 ff 26 bd
       0.07180654 0.05085878 -0.08981 -0.04077084
000350 15 b9 0c bd 30 5c b0 3d f4 eb 7d 3d dd a6 5c bd
       -0.034356195 0.08611333 0.0619926 -0.05387007
000360 3c 21 35 bc 5d f9 7c 3c d6 33 3a 3b 4c 30 c7 3c
       -0.011055287 0.015440312 0.0028412244 0.024315022
000370 f6 09 6b 3b e2 af d8 3d 2d 4e 86 3d 95 cb 06 3d
       0.0035864091 0.10580422 0.065578796 0.032908995
000380 68 30 c1 3c 4d f1 e9 3c 50 25 18 3d 87 42 4c 3d
       0.023582652 0.028557444 0.03714496 0.049868133
000390 9e 3b 04 3d b9 bb a6 3d 20 7e 1d bd 2a 87 a3 bd
       0.032283418 0.08141274 -0.03845036 -0.07984765
0003a0 d9 1d dd bc 45 38 a0 3b a0 a3 bf 3b 53 8e 5c bd
       -0.026991772 0.0048895204 0.005848363 -0.05384667
0003b0 06 e7 81 bd 57 93 a3 bd 87 bb 62 3b 81 4b bd 3c
       -0.06342892 -0.07987087 0.0034596638 0.023107292
0003c0 54 94 76 bd 1a 78 53 bd 8d 37 64 bd e6 45 af bc
       -0.06020005 -0.05162821 -0.05571704 -0.021395635
0003d0 ed 36 8a 3c cf ba 25 bd 29 8b 2f bb aa a3 b3 bb
       0.016871894 -0.040461358 -0.0026785827 -0.0054821568
0003e0 1c 90 3b ba 7f 63 d1 bc c6 7d 89 3c 00 6c b4 bc
       -0.0007154958 -0.025560139 0.016783606 -0.022024155
0003f0 52 4b 99 ba f1 dc 7f 3c 3b 4c 1f bd ed 3c a1 3c
       -0.0011695421 0.015616641 -0.03889106 0.019682372

cls_tower.8.weight f4 [128, 1, 3, 3]
000000 ca 30 cd 3d d6 1c 9c 3d 38 b7 28 3e ed 6f 12 39
       0.100190714 0.076226875 0.16476142 0.0001396534
000010 b1 d8 5f 3b 5f d1 f8 3d 24 05 f9 bc da b4 22 bc
       0.0034156258 0.12149309 -0.030397959 -0.009930814
000020 ce fa 27 3e 8f bd b2 bd d8 30 9f bc af 6f ae bd
       0.16404268 -0.08727562 -0.01943247 -0.08517396
000030 68 fa 17 bd 66 e8 2d bd 09 b4 0c bd a3 b8 17 be
       -0.03710404 -0.04245796 -0.034351382 -0.14816527
000040 26 bb 36 bd 39 0d b9 bd 2e a6 73 3d e2 83 57 3d
       -0.044612072 -0.09035725 0.059484653 0.052616008
000050 9f f6 91 3d ca bc 36 bd 06 cb dd 3c 51 8c 41 3c
       0.07127117 -0.044613637 0.027074348 0.011813239
000060 0e 97 2a bd cc 4e ff 3b 8c 45 35 bc 90 98 8a bd
       -0.041647963 0.0077913757 -0.011063945 -0.0676738
000070 1b d8 ce bd 46 15 4f be 7b f8 d3 3c 37 e2 35 bd
       -0.100998126 -0.20222959 0.02587532 -0.04440519
000080 c6 7d 0d 3d fa f2 3c 3e 31 49 54 bd e6 79 5c 3c
       0.034543775 0.18452063 -0.051827613 0.013456797
000090 71 58 1b 3c d6 60 0d 3d 9f 6a 2a 3d ba 17 72 3c
       0.009481535 0.034516178 0.041605588 0.014776165
0000a0 e4 c0 b8 3c 78 92 96 3c 20 0d 6a 3c d6 83 96 3d
       0.022552915 0.018380389 0.014285356 0.073493645
0000b0 95 33 1e bc 20 dd f6 bc b3 c6 7d bc 47 55 b6 bc
       -0.009655853 -0.030134737 -0.015489268 -0.02225746
0000c0 29 fd 34 bd bb 23 ab bd e7 84 83 39 87 16 90 bd
       -0.044186745 -0.083564244 0.00025085287 -0.07035547
0000d0 81 8d 4a bd 85 21 85 bc 08 aa fa bd f2 d0 52 be
       -0.049451355 -0.016251335 -0.12239462 -0.20587519
0000e0 17 1c 4f be 56 e4 33 be 67 e9 e3 bd 6c df 0f be
       -0.20225559 -0.17567572 -0.11128502 -0.14050072
0000f0 61 39 ec bd 34 ec 15 be 8e 7c 5c be 09 39 0a 3d
       -0.11534382 -0.14640886 -0.21531889 0.0337458
000100 9e 73 2c bd 97 05 09 3c 91 51 c5 bc fb e6 5d bd
       -0.04210245 0.008363149 -0.024086745 -0.05417536
000110 e1 fb c6 3b d0 e7 25 3d 27 96 18 bd d9 f1 94 bd
       0.006072507 0.040504277 -0.03725257 -0.07272691
000120 a1 22 fa bd de 0d b5 bd 50 fa 09 be cb d7 e3 bd
       -0.12213636 -0.088405356 -0.13474393 -0.111251436
000130 73 9d 3b bd 78 2c 8e bd 5b d7 50 bd db b7 3c bd
       -0.045804452 -0.069420755 -0.05098663 -0.046073776
000140 b8 5b a4 bd 14 2d db bb 4d f3 68 bc 7a 09 38 bd
       -0.080253065 -0.0066887233 -0.014218164 -0.044930913
000150 f3 3e b2 bc 28 ba 43 3d 32 08 78 3d 1d 68 8e bb
       -0.021758532 0.047784954 0.06055469 -0.0043459074
000160 4d 1d 34 bb e9 e5 ce 3d 90 71 95 3c 5f ca d8 3d
       -0.0027483285 0.10102446 0.018242627 0.10585474
000170 18 3b a9 3d a3 93 d7 3d 69 ea 9b 3d 79 80 12 3d
       0.08263224 0.10526206 0.076130696 0.035767052
000180 b8 42 37 3d 4f a6 f8 bc ca 2f a6 bc 1a ea cc bc
       0.044741362 -0.03035274 -0.02028646 -0.025013972
000190 cb 8d e9 bd 9b e0 e8 bd 4b 1a c4 bb 2b 0c 5b bd
       -0.11403998 -0.11370965 -0.0059845797 -0.0534784
0001a0 c3 60 b2 bd 66 03 85 3c 15 23 ee bc e9 24 11 be
       -0.08709862 0.016236972 -0.029069463 -0.14174236
0001b0 b2 18 97 bd 41 b1 5b bc 30 81 02 be 4a 49 ae bd
       -0.07377757 -0.01340896 -0.12744594 -0.085100725
0001c0 7f 3b 70 3c 7c f9 61 3c 5f ca 8c 3c 29 d5 a4 bd
       0.0146626225 0.013792392 0.017186342 -0.080484696
0001d0 c7 fe ed bc cc f8 b6 3c 52 e3 92 bd d3 58 8c bc
       -0.029052151 0.022335432 -0.07172264 -0.017132198
0001e0 08 d5 38 bd 53 b8 9f bd 82 6d 16 bd 78 3d 18 bd
       -0.045125037 -0.07798829 -0.03672553 -0.037167996
0001f0 bf 83 e9 3b d6 2e 67 3d 1a e5 83 be fb 3b 0f be
       0.007126301 0.05644115 -0.25760728 -0.13987724
000200 e7 66 2f be 74 91 53 bd 40 17 82 bb e0 50 a4 bc
       -0.17129098 -0.051652387 -0.003970057 -0.020058095
000210 f3 5f 42 be 9a d9 e0 bd e4 bc 1e be 90 ba 09 3e
       -0.18981914 -0.10979004 -0.15501744 0.13450074
000220 62 09 50 3d d9 21 64 bd 30 0d 5c 3d 22 9d bd b8
       0.0507902 -0.055696342 0.053723514 -9.0414906e-05
000230 c7 7c 60 bd dc d1 5c 3d c0 de a0 3d c1 69 2c 3b
       -0.054806497 0.053911075 0.07854986 0.0026308151
000240 b7 29 da bd da 69 11 bd c1 9c 1c bd e4 9b f9 bd
       -0.10652488 -0.03550134 -0.03823543 -0.12187937
000250 7c 15 71 bd b4 47 e8 bc 4c 6e bf bd 0e 97 35 bd
       -0.05885838 -0.028354503 -0.09347209 -0.04433351
000260 0c 13 ea bd cd d2 cd bd 83 a9 14 be cd f9 1a be
       -0.11429414 -0.10049973 -0.14517789 -0.15134354
000270 5d 8c 30 be 34 0b aa be df 09 83 be 1e 62 d1 bd
       -0.17241044 -0.33211672 -0.2559347 -0.102237925
000280 47 0d 3c be 54 2d c0 bd b3 d7 3d 3d 55 ed c8 3c
       -0.1836444 -0.09383646 0.046348285 0.024527231
000290 b1 87 98 3d bd 51 86 bd 02 16 fe bb 63 9a 31 bd
       0.07447756 -0.06558559 -0.0077540884 -0.043360125
0002a0 97 4d dd 3c 1b da 39 38 0d eb 77 bd 06 89 f7 bd
       0.027014537 4.4310564e-05 -0.060526896 -0.12086682
0002b0 55 e6 76 bd 54 53 98 bd 3b 8e 9b bd 23 0d ad bd
       -0.060278255 -0.074377686 -0.07595488 -0.08449771
0002c0 00 56 9b bd 36 e2 d1 bd 16 fd 6f bd 09 23 b5 bd
       -0.075847626 -0.102482244 -0.05859097 -0.08844573
0002d0 1f b6 25 bc 80 e9 d5 bc ef 9a 09 bd 02 fb 4b 3d
       -0.010114222 -0.026112318 -0.03359502 0.049799927
0002e0 c8 c9 29 3d 33 55 5a 3c 14 86 33 3c 7c ad 6b bc
       0.0414522 0.013325977 0.01095726 -0.014384624
0002f0 33 1e 32 3d 7a 2a 76 3d 35 47 dd 3d 51 05 ff 3c
       0.04348583 0.060099103 0.10804597 0.031130465
000300 95 c0 22 bb f8 be e2 3c e5 84 48 bc 06 ac f9 3d
       -0.0024834026 0.027678952 -0.012238716 0.12191014
000310 69 a4 d2 3d b9 07 b8 bc da ea d5 bc 85 9f 7c bb
       0.10285265 -0.02246462 -0.026112963 -0.003854723
000320 99 95 bd bc 6c ee 90 bc d7 a9 7a 3d 7c a2 b4 bc
       -0.023142623 -0.017691813 0.06119713 -0.022050135
000330 e6 b4 20 bc 79 5f f5 bd 6e 5e e9 bd 72 90 51 ba
       -0.009808755 -0.119811006 -0.11394964 -0.00079942413
000340 73 15 b2 bc 1c ee 41 3b 40 66 2e 3c a4 9a 4c bb
       -0.021738743 0.0029591387 0.0106444955 -0.0031220103
000350 53 cc c5 bc a6 71 23 3e c9 55 36 3d 93 d4 52 bb
       -0.024145281 0.15961322 0.044515405 -0.003217016
000360 92 4b 5d bd 1a ae 48 3c 64 b2 1e ba ec d5 10 3d
       -0.054027148 0.01224854 -0.0006053804 0.03536026
000370 19 e9 9b 3b 1f a7 77 3c 4c a8 64 bd 6b 09 11 bd
       0.004758012 0.015115528 -0.055824563 -0.035409372
000380 7f d5 9c bd c3 7d 82 3d fe 81 e9 3c 56 c8 2b 3d
       -0.07657909 0.063716434 0.028504368 0.041939102
000390 76 14 8e 3d 71 ff 8f 3c d6 d9 48 ba 9a 23 8a 3d
       0.06937496 0.017577859 -0.00076618546 0.06745072
0003a0 97 ea 37 3c 54 28 a8 bc fe 0f 97 3c d3 97 13 bc
       0.011225364 -0.020527042 0.018440243 -0.009008366
0003b0 e9 14 28 bd 16 12 3e 3c 04 54 24 bd 83 3c 2c bd
       -0.041035566 0.011600992 -0.040119186 -0.042049896
0003c0 fd b8 91 3d dd 7a 55 3d 36 fe c3 3c 32 37 0c 3e
       0.07115362 0.052119125 0.023924928 0.1369293
0003d0 3b 37 8b bd 7e 23 1a bc 24 d0 5c bc 79 c3 cd bd
       -0.06797644 -0.009407876 -0.013477359 -0.10047049
0003e0 9a c3 15 bc 9c 05 ea bd ab 21 a4 bd de 53 30 be
       -0.009140873 -0.11426851 -0.08014234 -0.17219493
0003f0 4e ec 41 3d df 9e 24 bd 1a 54 84 bd b7 4c 2a 3d
       0.0473445 -0.040190574 -0.064613536 0.041577067

bbox_tower.0.weight f4 [64, 1, 3, 3]
000000 0f 05 2e be 94 4d a1 bd dd 45 95 bd 5a ec 99 3d
       -0.16994117 -0.07876125 -0.07288716 0.075157836
000010 b6 89 5e 3d 9c c0 be 3c fb 34 de bc b6 4f 8d 3d
       0.05433055 0.023285203 -0.027124872 0.06899969
000020 4c d9 45 bd a8 30 6d bd b6 d1 27 bd e5 83 1c 3c
       -0.048302934 -0.05790773 -0.04097148 0.0095529305
000030 86 6b 50 3c 2c ea 91 bc 97 63 7c bd b7 64 5e bd
       0.012720948 -0.017811857 -0.061618414 -0.054295268
000040 18 0f 5c 3d d8 e6 fe ba c0 01 32 bd d9 86 65 3d
       0.053725332 -0.0019447459 -0.0434587 0.056036804
000050 c6 e9 e8 3c 95 16 b1 3b 3a 87 f7 bc 00 2a d9 3b
       0.028431784 0.0054043033 -0.030215848 0.0066273212
000060 bf ff 89 bc 47 9b 48 3d 4d e4 9c bd b9 3b ad bb
       -0.016845582 0.04897621 -0.076607324 -0.0052866605
000070 cc d6 d6 bc 02 98 a1 bc ee 7c de 3b 7c 01 9a bd
       -0.02622547 -0.019725803 0.006789795 -0.07519814
000080 3d f6 c9 bd 13 a3 ce 3d 36 e3 1a bc f3 c2 b5 bc
       -0.09861419 0.10089698 -0.009453585 -0.022187686
000090 fc 43 63 bc fd 22 2c bd 58 bd 02 bc c2 67 11 bd
       -0.013871189 -0.042025555 -0.007979713 -0.03549934
0000a0 12 c9 1d 3d 23 d2 56 3d 09 b9 44 bc 6c fc 37 bc
       0.038521834 0.052446496 -0.012007006 -0.011229616
0000b0 11 02 d5 bb 46 af c8 bd 01 91 11 bd be 84 2b 3d
       -0.0065004905 -0.09799056 -0.035538677 0.04187464
0000c0 56 a3 b1 3d c3 5c af 3d 5e 50 37 3d 51 1f 1c bd
       0.08673732 0.08562615 0.04475438 -0.038115803
0000d0 96 bc 68 3d 2d ab d2 bd 29 15 64 bd ae 43 aa 3d
       0.056820475 -0.102865554 -0.055684242 0.0831369
0000e0 61 d2 aa 3d 86 d1 84 bd b4 83 e3 bd db 66 8c bd
       0.08340908 -0.06485276 -0.11109105 -0.068555556
0000f0 4b b0 52 3d d5 99 1b 3d 2a ba 03 3d 16 35 29 bc
       0.051437657 0.037988503 0.03215996 -0.010327598
000100 1f 60 0a be c6 b5 74 3d f6 f3 21 bd d2 8c 12 be
       -0.1351323 0.059743665 -0.0395393 -0.14311531
000110 66 23 94 3c ed 3d 60 3d c8 2d 73 bd 09 e7 b6 3d
       0.018083286 0.054746557 -0.059369832 0.08930785
000120 a5 d9 31 bd 81 f4 67 bd cd ba 95 bd f9 b0 04 3e
       -0.043420453 -0.05662966 -0.0731102 0.12958135
000130 4d 80 d6 3c 6f b0 01 3d 22 c7 4e 3d 5c eb d7 bd
       0.026184225 0.0316624 0.050482877 -0.10542938
000140 88 b7 e3 3c b9 b4 d6 bb 07 af a2 3c 0b ec 0a bd
       0.027797475 -0.0065523055 0.01985885 -0.033916514
000150 28 5b 7c 3c 37 19 8b bc d4 48 eb bb aa b1 36 3d
       0.015402593 -0.016979797 -0.0071803126 0.044603027
000160 e2 b3 cb bc be 46 02 3d 00 bc b0 3c 19 4b 83 3d
       -0.024866048 0.031805746 0.02157402 0.06410808
000170 77 e1 1c 3d cf 89 92 3d 08 5f 86 bd 64 2e 0e bd
       0.038300958 0.07155191 -0.065610945 -0.03471221
000180 6f 39 3f b9 18 03 17 3d ba 1c 11 3c 32 1f a3 bb
       -0.00018236575 0.036868185 0.008856947 -0.004978084
000190 4a aa 0c 3d fa 2e 92 3d 59 27 81 bd 30 62 53 bd
       0.034342088 0.07137866 -0.06306333 -0.05160731
0001a0 ef a9 19 be 41 23 a7 bd a2 fa 9d bc 53 75 0d be
       -0.15006231 -0.08161021 -0.01928455 -0.13814287
0001b0 04 c6 15 be 6e f0 d7 ba f1 6f 32 be e6 ab de 3c
       -0.14626318 -0.0016474852 -0.17425515 0.027181577
0001c0 d6 e1 36 3e c0 c9 e2 bd 7f eb 46 3c 0b 95 e1 3d
       0.17859587 -0.11073637 0.012141108 0.11014756
0001d0 ce b7 30 bd 01 2f a8 bd 2a 62 f5 bd 5b 4f 03 bc
       -0.04314404 -0.0821209 -0.11981614 -0.008014525
0001e0 4a 37 c2 3d 5c 58 5a 3d 70 80 c8 3d 8d 59 13 3a
       0.09483202 0.053306922 0.097901225 0.0005620949
0001f0 79 7d ec bc c4 78 cc 3d 7a fd 00 3e 0b 00 fe bd
       -0.028868424 0.09983972 0.12596694 -0.12402352
000200 ce a9 4f 3c eb d2 dc bb 43 35 fc bd 59 c0 aa 3d
       0.012674762 -0.0067390106 -0.12314846 0.08337469
000210 57 9a 6f bc 54 4a 56 bd 01 c5 53 3d 66 a4 80 bc
       -0.0146242 -0.05231698 0.05170155 -0.015703391
000220 24 0e d8 3c 44 4f 90 3d 84 32 e3 bc 8a 3e 03 3d
       0.02637393 0.07046369 -0.027734049 0.032042064
000230 b9 5f 8d bd ad 33 5d bd 10 9e 27 3d 64 84 0d bc
       -0.06903023 -0.05400436 0.040922225 -0.008637521
000240 92 ed 1d be 70 bc 0d bd c4 a6 ea 3d fb b7 18 be
       -0.15422657 -0.034603536 0.11457589 -0.14913933
000250 05 99 74 bd 92 6a 97 bd 8c 1b be 3d 00 e1 83 3e
       -0.059716243 -0.073933735 0.09282598 0.257576
000260 ac f4 cd 3d 48 6f 6b 3d 51 5f 2c 3d fd 77 8d bb
       0.10056433 0.057479173 0.04208309 -0.0043172822
000270 bb 80 03 3e 05 bb e1 3d 88 b7 4d bd fc 5e bd b9
       0.12842076 0.11021999 -0.050223857 -0.00036119658
000280 7b a9 2d bd 10 91 a8 bd 51 15 dc 3c a2 46 09 bb
       -0.042397957 -0.082307935 0.026865633 -0.0020946641
000290 d1 6a 09 bd 82 9c 8d 3d dd 68 50 bd 59 fb 99 3c
       -0.033549134 0.06914617 -0.050881255 0.01879661
0002a0 5c 04 d9 ba 15 cb 78 3c 34 8b c4 bc e5 02 c6 be
       -0.0016557085 0.015185137 -0.023992158 -0.38674083
0002b0 ae 94 9a be 6d b2 e9 3d 09 20 b6 3d 39 6a 53 3d
       -0.3019156 0.11410985 0.08892829 0.051614974
0002c0 ba 93 3a 3d 2b 61 2f 3d 26 93 fb 3c ee 0d 50 bd
       0.04555104 0.042817276 0.030709814 -0.050794534
0002d0 53 fa e8 3b 8b 88 81 ba 17 32 8d 3d c9 4e 26 bd
       0.007109919 -0.0009882612 0.068943195 -0.04060248
0002e0 a8 f1 0c 3d 8c 2c 2c 3c 7c 31 8a bd 3e d6 90 3d
       0.03441015 0.010508668 -0.0674772 0.070721135
0002f0 8f 36 7d bc c8 17 a5 3d cf e8 73 be 9b ce 3a bc
       -0.015454902 0.080611765 -0.23819278 -0.011401798
000300 15 5c b6 3d fe 28 85 bd 35 7a af bd ba f6 00 be
       0.08904282 -0.06501959 -0.08568231 -0.12594119
000310 61 f2 bf 3d 66 ce 16 3e fd 30 1a bd 11 3b 2b 3e
       0.09372402 0.14727172 -0.037644375 0.16721751
000320 bd 28 d7 3d d3 49 45 3c e3 5c a7 bb c8 79 d2 3c
       0.10505817 0.012041527 -0.0051075085 0.025692835
000330 f2 47 aa 3c e0 ea 8d bd be d0 5f bb f4 ab 12 be
       0.02078626 -0.069295645 -0.003415152 -0.14323407
000340 87 57 12 bd d8 ab 83 bb 23 ac cc 3b e4 b5 2a 3d
       -0.035728004 -0.004018288 0.0062461062 0.04167737
000350 16 79 19 bd fc 4c 1d bd 08 3c 23 bd 75 aa 59 3d
       -0.037468992 -0.038403496 -0.039852172 0.053141076
000360 f5 96 a1 3b 71 69 4f 3b d8 ab 23 bc 9f fd 93 bd
       0.0049313256 0.0031648541 -0.009989701 -0.07226109
000370 d4 09 1e 3d f2 1c 3b 3c a1 b3 bf 3c 44 27 90 bd
       0.03858359 0.011420475 0.023401083 -0.07038739
000380 f1 90 b9 bc 44 89 92 be e4 c5 2d 3c c9 ce f4 3d
       -0.022652121 -0.2862035 0.010606263 0.11953504
000390 8f 07 93 bc 45 b8 c3 3d d2 6a 0a bc 9f 4c cb 3d
       -0.01794794 0.09556631 -0.0084483195 0.09926724
0003a0 18 10 01 bd a0 a9 3f bc 39 26 ba 3c 31 e7 0f 3c
       -0.03150949 -0.011698157 0.022723304 0.008783148
0003b0 33 4e a3 bd c3 b0 18 3c 4a 0d 1e 3c 07 35 8b bd
       -0.079739 0.009319487 0.009646723 -0.067972235
0003c0 73 d5 76 bd d5 f3 ba 3c eb f3 11 3d 6a fb 5d bc
       -0.060262155 0.022821346 0.03563301 -0.013548711
0003d0 57 40 bd 3e ef 8c 94 bd da 56 82 3a c9 54 0c 3e
       0.3696315 -0.072534434 0.0009944097 0.13704218
0003e0 10 aa c4 bb 17 69 9e bc 31 00 cd bd 57 ca 43 3b
       -0.0060017183 -0.01933722 -0.10009802 0.0029875243
0003f0 87 59 9c 3c a2 2a 0c bf 4d 22 84 3c 51 32 60 3d
       0.019085659 -0.5475255 0.016129637 0.054735485
